data/network-weights/default_at_5.pth (torch_old, 19706 bytes, 6 tensors)

network.0.weight f4 [64, 37]
0	0x3e3829d9	0.17984714
1	0x3e1dee1a	0.1542286
2	0x3cc1aef1	0.023642989
3	0x3c957d7c	0.018248312
4	0x3dc4161f	0.09574532
5	0x3ed6358e	0.41837734
6	0xbf81592c	-1.0105338
7	0xbed1cfd9	-0.40978888
8	0xbedb07ed	-0.42779484
9	0xc0154c16	-2.332769
10	0x3db767ed	0.08955369
11	0x3e28b755	0.16476186
12	0x3d9ef9bd	0.077624775
13	0xbd85ea95	-0.065388836
14	0x3c745c01	0.014914514
15	0x3dee491c	0.11635038
16	0x3e6bb82b	0.23019473
17	0xbddebb78	-0.108756006
18	0xbd5bd219	-0.05366716
19	0x3cef9a70	0.029248446
20	0xbcdecdb7	-0.027197702
21	0x3d7f14b0	0.06227559
22	0xbded8e6f	-0.11599433
23	0xbd4b8e47	-0.049696233
24	0xbe663444	-0.22480875
25	0x3d93e673	0.07221689
26	0x3c2e3fb2	0.010635303
27	0xbe033b1b	-0.12815516
28	0xbe3ccf97	-0.18438564
29	0xbf051c1f	-0.51996034
30	0x3e7e36ae	0.24825546
31	0xbd512459	-0.051060054
32	0x3de9cc86	0.11415963
33	0xbe13b7ab	-0.14425533
34	0xbf0af866	-0.54285276
35	0x3dfbc4af	0.12293374
36	0x3d0093e1	0.03139103
37	0x3e434c57	0.1907209
38	0xbd7d348c	-0.06181769
39	0xbe515529	-0.20442642
40	0x3df9db84	0.122000724
41	0xbe9e2d59	-0.30893973
42	0x3daacd8a	0.08339985
43	0x3e2ed93d	0.17075057
44	0xbd4e9797	-0.050437536
45	0xbe2392f1	-0.15974022
46	0xbd5b037a	-0.053470112
47	0x3d0c0468	0.03418389
48	0x3cd8b573	0.02645371
49	0xbe3f76c6	-0.18697652
50	0xbd91b1c5	-0.07113985
51	0xbe8b1173	-0.2716175
52	0xbe00b6cf	-0.12569736
53	0x3dede4ae	0.11615883
54	0x3ce5dfd5	0.028060833
55	0xbd38b0bf	-0.045090433
56	0x3bd2ac4a	0.00642923
57	0x3d5ba5f7	0.053625073
58	0x3da8e5c1	0.08246947
59	0xbe1502cc	-0.14551848
60	0xbe0d949f	-0.13826226
61	0xbe6468c0	-0.22305584
62	0x3e6d8f68	0.23199236
63	0xbec8aba9	-0.39193466
64	0xbdf7fd42	-0.12108852
65	0xbd231e78	-0.03982398
66	0xbe7ab4fb	-0.24483101
67	0xbd59965a	-0.053121902
68	0xbecd630f	-0.40114638
69	0xbddfa6d5	-0.109204926
70	0x3eb29721	0.34880927
71	0xbeef48ea	-0.46735317
72	0x3e338fce	0.17535326
73	0x3d13acc4	0.036053434
74	0xbe423a04	-0.18967444
75	0xbe398ce5	-0.18120153
76	0xbd30561e	-0.043050878
77	0xbdd09faa	-0.101867035
78	0x3ddb2187	0.10699754
79	0x3eb853b1	0.3600135
80	0xbf0abc0c	-0.54193187
81	0xbca49414	-0.02009014
82	0xbe932f84	-0.2874719
83	0xbfe7be91	-1.8105031
84	0x3e428833	0.18997268
85	0xbc5ad052	-0.0133553315
86	0x3e09e427	0.1346594
87	0xbec733a8	-0.38906598
88	0xbeb4612b	-0.35230383
89	0x3dc40b12	0.09572424
90	0xbd4b0228	-0.049562603
91	0x3b0ad22d	0.0021182403
92	0x3d826863	0.063675664
93	0x3d9a3b73	0.0753087
94	0xbe06f197	-0.13178097
95	0xbd0e00b6	-0.034668647
96	0x3dddff1b	0.10839673
97	0xbe712658	-0.23549783
98	0xbf1b8cc8	-0.6076169
99	0xbe94b09f	-0.29041
100	0xbd3bfde6	-0.045896433
101	0x3e320d74	0.17387944
102	0xbea62395	-0.32449022
103	0xbe40fabc	-0.18845648
104	0x3e4c30ab	0.1994044
105	0xbf10fc42	-0.56634915
106	0xbe2b9e11	-0.16759516
107	0xbf2837f0	-0.65710354
108	0xbfd78231	-1.6836606
109	0xbe8166b1	-0.2527366
110	0x3df7565e	0.1207702
111	0x3e24de0c	0.16100329
112	0xbc98547a	-0.018594969
113	0xbe4b6cb0	-0.1986568
114	0xbd2fba91	-0.042902533
115	0xbda1193c	-0.07866141
116	0x3bfaaa2f	0.007649682
117	0xbe76c28f	-0.24097656
118	0xbd1408e4	-0.03614129
119	0xbe18d04e	-0.14923212
120	0x3f3f0673	0.74619216
121	0xb9c55b9f	-0.0003764303
122	0xbddee3ec	-0.108833164
123	0xbd84b1f2	-0.06479253
124	0xbd6995cd	-0.057027627
125	0x3e3e3c3f	0.1857767
126	0x3e2b0b95	0.16703637
127	0xbe302c0c	-0.17204303
128	0xbbf19f46	-0.007373723
129	0x3ce50b59	0.027959513
130	0x3d388fae	0.0450589
131	0x3da73305	0.08164028
132	0xbe28f7da	-0.16500798
133	0x3defebf2	0.11714925
134	0x3def25ac	0.11677107
135	0x3e049d59	0.12950648
136	0x3c947729	0.018123226
137	0xbeb2d562	-0.34928423
138	0xbda7a2f0	-0.08185375
139	0x3d55c656	0.0521911
140	0x3a62123e	0.0008623934
141	0xbe22b449	-0.15889086
142	0x3e4c64cc	0.19960326
143	0xbe362b39	-0.17789926
144	0x3d89d31b	0.06729718
145	0x3ee8c760	0.4546461
146	0x3e320d09	0.17387785
147	0x3df1e436	0.11811106
148	0x3dde7ccf	0.10863649
149	0xbd99111a	-0.07473965
150	0xbc3ccfcc	-0.011524152
151	0x3e1b8ed3	0.15191202
152	0x3d9ed8d3	0.077562
153	0xbe363f7a	-0.17797652
154	0x3eb09f0c	0.34496343
155	0x3bf69f01	0.007526279
156	0x3d2fac50	0.04288894
157	0xbce43fa5	-0.02786238
158	0x3dd19cb0	0.10234964
159	0xbddf8e35	-0.10915796
160	0x3e47f34f	0.19526409
161	0xbde4d751	-0.11173881
162	0xbf12636b	-0.5718295
163	0xbd7a0ef4	-0.061049417
164	0x3da4e0d7	0.08050697
165	0x3c8416ae	0.016124096
166	0xbe689955	-0.22714742
167	0x3e84e103	0.2595292
168	0x3e8bd7c4	0.27313054
169	0xbe8f2904	-0.2796098
170	0xbe782d4c	-0.2423603
171	0xbe119a7d	-0.14219089
172	0xbf8d69a6	-1.1047866
173	0xbc2557db	-0.010091747
174	0x3ca6d326	0.020364355
175	0xbddbbd6a	-0.10729487
176	0xbe103ae4	-0.14084965
177	0x3d8e83c6	0.069587275
178	0x3eccedf2	0.40025288
179	0xbef368c6	-0.47540873
180	0xbdb19ad4	-0.08672109
181	0xbe7ff64f	-0.24996303
182	0xbf9abbff	-1.2088622
183	0xbddf7a70	-0.10912025
184	0x3d0d41f3	0.034486722
185	0x3e29a0e2	0.16565278
186	0xbd5b63e4	-0.05356206
187	0xbe266c40	-0.16252232
188	0xbd8f0ce2	-0.06984879
189	0x3d8a1828	0.06742889
190	0xbe259462	-0.16169885
191	0x3e56affa	0.20965567
192	0x3e20a9c1	0.15689756
193	0xbd8cf000	-0.06881714
194	0xbd4d87c6	-0.05017831
195	0x3dd7090c	0.104997724
196	0xbd44fc84	-0.04809238
197	0xbe2c635b	-0.16834776
198	0xbecc9568	-0.39957738
199	0xbf18c1a0	-0.5967045
200	0xbd7d41b4	-0.061830238
201	0xbdee5c7a	-0.11638732
202	0x3dbd94ce	0.09256898
203	0xbd5d563d	-0.05403732
204	0xbdffc5d8	-0.124889076
205	0x3e081f2f	0.13293146
206	0xbeb65eeb	-0.35619292
207	0xbeb2539f	-0.34829423
208	0xbf159896	-0.5843595
209	0xbf58be5f	-0.84665483
210	0x3e1f2ad6	0.15543684
211	0x3e3db9b0	0.18527865
212	0xbe8b0a29	-0.2715619
213	0xbe692338	-0.22767341
214	0xbdb0cd4f	-0.086329095
215	0x3ec0a0cb	0.37622675
216	0xbe6d10b2	-0.231509
217	0xbe17436f	-0.14771818
218	0xbea962fa	-0.33083326
219	0xbf7fd85c	-0.99939513
220	0xbe365780	-0.17806816
221	0xba8cce78	-0.0010742685
222	0xbda1a7da	-0.07893343
223	0xbdad25fd	-0.08454511
224	0xbe1c53d1	-0.15266348
225	0x3d9f5979	0.077807374
226	0x3da620ec	0.08111748
227	0x3e773bed	0.24143954
228	0xbf341cd2	-0.70356476
229	0xbef4379e	-0.47698683
230	0xbf1e5b0e	-0.6185769
231	0xbfef2eca	-1.8686154
232	0x3d84d0f4	0.06485167
233	0x3e54d02c	0.20782536
234	0xbd780449	-0.06055096
235	0xbd59931e	-0.053118818
236	0x3d6ae767	0.05734959
237	0xbc1d6b19	-0.009608054
238	0xbe06df59	-0.13171138
239	0xbe967a61	-0.29390243
240	0xbdb9492c	-0.090471596
241	0xbe565ede	-0.20934626
242	0xbcfdf23d	-0.030999297
243	0xbd7dad7a	-0.06193302
244	0xbe417509	-0.18892302
245	0xbe0daeaa	-0.1383616
246	0xbd96f177	-0.073702745
247	0x3e2ed369	0.17072834
248	0xbadb73d7	-0.0016742897
249	0x3b50528f	0.003178749
250	0xbe20f0ce	-0.1571686
251	0xbf52869b	-0.8223664
252	0xbd6338b6	-0.055474006
253	0x3dc1e83f	0.094681256
254	0xbe1a88a7	-0.15091191
255	0xbebf659b	-0.37382206

network.0.bias f4 [64]
0	0x3d88d77e	0.06681727
1	0x3e2c122c	0.16803807
2	0x3e8fa239	0.28053454
3	0xbdc9d885	-0.09855751
4	0x3d2148e6	0.039376162
5	0x3d21a85d	0.039467204
6	0xbc2c1c29	-0.010504761
7	0xbd4b9ab7	-0.049708094
8	0xbd9d21e2	-0.07672478
9	0xbc9300d6	-0.017944735
10	0xbe11a883	-0.14224438
11	0xbd240e0d	-0.040052462
12	0xbd9e0c70	-0.07717216
13	0xbd4c5016	-0.049881063
14	0xbe682f9e	-0.22674415
15	0xbe092b51	-0.1339543
16	0x3d924bb9	0.07143349
17	0x3e680276	0.22657189
18	0x3e146996	0.14493403
19	0xbe0290cc	-0.12750548
20	0x3dc1fb51	0.09471763
21	0xbd927ae1	-0.071523435
22	0xbde640df	-0.11242842
23	0x3d458369	0.048221026
24	0xbdbc4a21	-0.091938265
25	0xbcbb0f96	-0.02283458
26	0xbe78bb73	-0.24290256
27	0xbe3219ed	-0.17392702
28	0x3e237323	0.1596189
29	0x3e5e5512	0.21712139
30	0xbd803c91	-0.06261552
31	0xbd45776d	-0.048209596
32	0xbdab7421	-0.08371759
33	0xbe4980cb	-0.19678037
34	0xbdc67044	-0.09689382
35	0x3dd05e89	0.10174281
36	0xbcf51970	-0.029919356
37	0x3d41da7d	0.047327507
38	0x3e0283f3	0.12745647
39	0xbd195bea	-0.03744117
40	0xbcbb716a	-0.022881228
41	0x3e2d533e	0.16926286
42	0xbc85de13	-0.016341245
43	0x3d7edc9a	0.0622221
44	0x3d8f1421	0.06986261
45	0xbe08e290	-0.13367677
46	0xbe01b040	-0.1266489
47	0x3e14fc73	0.14549427
48	0xbe1dc722	-0.15407994
49	0x3e2803a9	0.16407646
50	0xbdd15f96	-0.1022331
51	0xbd2bb5c9	-0.04192141
52	0xbddd9a82	-0.10820486
53	0x3da29660	0.07938838
54	0x3cddd3bc	0.027078502
55	0x3e0f2722	0.13979772
56	0x3e85ddd8	0.26145816
57	0x3dfa33ed	0.12216935
58	0x3ca6d42a	0.02036484
59	0xbda030a4	-0.078217775
60	0x3d98b2f6	0.07456009
61	0xbe0a45fe	-0.13503262
62	0x3d232132	0.03982658
63	0xbe14f2be	-0.14545724

network.1.weight f4 [32, 64]
0	0x3bdd4414	0.0067525003
1	0x3e17ce1a	0.14824715
2	0xbdd365c8	-0.103221476
3	0x3e3cd2f7	0.18439852
4	0xbd4e021c	-0.05029498
5	0xbcf87484	-0.030328996
6	0x3e87a61f	0.26493928
7	0xbd7d9db9	-0.061917994
8	0xbe25cba2	-0.16190961
9	0xbdfefb8f	-0.12450325
10	0xbe4ea693	-0.2018073
11	0xbdf25d6d	-0.11834226
12	0x3e019fbb	0.12658589
13	0x3d811964	0.06303671
14	0x3db3732d	0.087622024
15	0x3e3c3a43	0.183816
16	0xbe0d147d	-0.13777347
17	0xbd7d6ab2	-0.06186933
18	0xbe2f478f	-0.17117141
19	0x3d5607e0	0.052253604
20	0x3d1a95dc	0.037740573
21	0x3db5f15a	0.08883925
22	0xbdc12ab8	-0.09431976
23	0x3ee09c1b	0.438691
24	0x3e4783d7	0.19483887
25	0x3e0a911c	0.13531917
26	0xbaff3000	-0.0019469261
27	0x3df4b0b6	0.119477674
28	0x3e7085f3	0.23488598
29	0x3ddb4e3e	0.10708283
30	0x3c153b27	0.009108341
31	0x3df2e8b3	0.1186079
32	0x3da3fc2c	0.08007082
33	0xbdbdc5b4	-0.092662245
34	0x3e2f9736	0.17147526
35	0xbe100a10	-0.14066339
36	0x3ce85afb	0.028363695
37	0xbd0c7a53	-0.034296345
38	0x3e7eab39	0.24870004
39	0xbd521a0b	-0.051294368
40	0x3d0ed039	0.034866545
41	0x3e6b5b5c	0.2298407
42	0x3c6acb18	0.014330648
43	0xbdadf61c	-0.08494207
44	0x3e9ee717	0.31035683
45	0x3dd696aa	0.10477956
46	0xbd93eb84	-0.072226554
47	0xbe7dea28	-0.24796355
48	0xbddfe616	-0.10932557
49	0x3daebffa	0.085327104
50	0x3e34dc6c	0.1766221
51	0xbdae0d39	-0.08498616
52	0xbd048db6	-0.03236171
53	0xbe317be3	-0.17332415
54	0xbe301993	-0.17197256
55	0x3e4c5d3c	0.19957441
56	0x3d771bfd	0.060329426
57	0x3e10beff	0.14135359
58	0x3b89fd86	0.0042111306
59	0x3e87715f	0.26453683
60	0x3bd6cdc8	0.0065552928
61	0xbe0f500a	-0.13995376
62	0x3ca38d0d	0.01996472
63	0x3d164850	0.036690056
64	0x3e24c8d5	0.16092236
65	0x3e137e6c	0.14403695
66	0x3e1de924	0.15420967
67	0xbdc5b90d	-0.09654436
68	0x3dd68b91	0.10475839
69	0xbd1ff586	-0.03905251
70	0xbd8f9478	-0.0701074
71	0xbe3d1bac	-0.18467587
72	0xbe98c518	-0.2983787
73	0xbe4a7e02	-0.1977463
74	0xbe8121c9	-0.2522109
75	0x3d8f4f60	0.069975615
76	0x3d461102	0.048356064
77	0xbe35c230	-0.17749858
78	0xbe55bb82	-0.2087231
79	0x3e94ac4b	0.290377
80	0xbe2b2473	-0.16713123
81	0x3e485495	0.19563515
82	0x3d3bfa16	0.045892797
83	0xbe15d6a3	-0.14632659
84	0xbb877766	-0.0041341064
85	0x3e160168	0.14648974
86	0x3ddc24b3	0.10749187
87	0x3d6814d8	0.056660503
88	0x3e575919	0.21030082
89	0xbe7aa14c	-0.24475592
90	0xbe11bb51	-0.14231612
91	0x3ea7290c	0.32648504
92	0x3e14631a	0.14490929
93	0x3e3281bf	0.17432307
94	0xbdf994b5	-0.12186567
95	0xbdddb9c8	-0.108264506
96	0x3d21a9d5	0.039468605
97	0x3bc52945	0.0060168826
98	0xbe4bd53d	-0.19905563
99	0xbe884ab8	-0.26619506
100	0xbcdb895d	-0.026798898
101	0xbdff8f37	-0.12478488
102	0x3d6dc206	0.058046363
103	0xbd3a7f09	-0.045531306
104	0x3de5f8d2	0.11229099
105	0x3deb81d8	0.11499375
106	0xbd7b3ef0	-0.06133932
107	0xbe67efd0	-0.22650075
108	0x3e6de637	0.23232351
109	0x3ddf7ff1	0.10913075
110	0xbea14b10	-0.3150258
111	0x3e419fb9	0.18908586
112	0x3c8479da	0.016171385
113	0xbd271fd7	-0.04080185
114	0xbe35c4df	-0.17750882
115	0xbdf30689	-0.11866481
116	0xbef51262	-0.47865587
117	0x3cfad841	0.030620696
118	0x3e1a41ad	0.15064116
119	0x3c0a6db2	0.008449005
120	0x3e807158	0.25086474
121	0x3c836fc9	0.016044514
122	0xbd91fe26	-0.07128553
123	0xbe282b2d	-0.1642272
124	0xbebc4f70	-0.36779356
125	0xbd807a24	-0.062732965
126	0x3dd024f9	0.10163302
127	0x3d23c4fb	0.039982777
128	0xbe229cdc	-0.1588015
129	0xbd3195c6	-0.043355726
130	0x3eab6e99	0.33482817
131	0x3c750dbf	0.014956891
132	0xbe56cb48	-0.20975983
133	0xbd86edae	-0.065883026
134	0xbdd0429b	-0.10168954
135	0x3d3e72f4	0.046496347
136	0x3d14fa7f	0.036371704
137	0xbc96e5d1	-0.018420132
138	0xbdf1d2bf	-0.11807775
139	0x3de9a6c7	0.114087634
140	0xbe3fc02d	-0.18725653
141	0x3de44d63	0.11147573
142	0x3da3c8c4	0.079972774
143	0xbda5452e	-0.080698356
144	0xbd1c4e43	-0.038160574
145	0xbe79986e	-0.24374554
146	0xbdb335a7	-0.08750468
147	0x3df8c874	0.121476084
148	0xbdc13ad7	-0.09435051
149	0x3ddcb81f	0.10777306
150	0x3e9accb0	0.3023429
151	0x3b433abe	0.0029789652
152	0xbd4dd79e	-0.050254457
153	0xbd48384b	-0.04888181
154	0xbc95cba6	-0.018285584
155	0xbd035def	-0.032072004
156	0x3d13a975	0.03605028
157	0xbe21a6e4	-0.1578632
158	0xbe18dd47	-0.1492816
159	0x3d3201f2	0.043458886
160	0x3c63cb42	0.013903441
161	0x3e12b000	0.14324951
162	0x3e97e828	0.2966931
163	0x3c9dccb9	0.019262658
164	0x3ee950e2	0.4556952
165	0x3dbbfc6f	0.09179007
166	0xbd15da68	-0.03658524
167	0xbd258e38	-0.040418833
168	0xbcca84cc	-0.024721526
169	0xbd73bfe9	-0.05950919
170	0x3e635c06	0.22203073
171	0x3e27a7f2	0.1637266
172	0x3ccbbd10	0.024870425
173	0x3e3230be	0.17401406
174	0xbdb01494	-0.08597675
175	0xbc315fc4	-0.010826055
176	0xbd0865ae	-0.033300094
177	0x3cb483ec	0.022035562
178	0x3d24574e	0.040122323
179	0xbce3f24e	-0.0278255
180	0x3da11284	0.0786486
181	0xbdf7fe57	-0.12109058
182	0xbdb38ffd	-0.08767698
183	0x3d2d72ca	0.0423458
184	0xbd941da5	-0.07232217
185	0x3de24f3c	0.11050269
186	0x3b88347b	0.004156647
187	0xbde59612	-0.11210264
188	0x3dba8cbd	0.09108875
189	0xbdf3f136	-0.11911242
190	0xbe0f3445	-0.13984783
191	0xbcd3adbb	-0.025839677
192	0xbde46118	-0.11151332
193	0x3e082ced	0.13298388
194	0xbdb0797b	-0.086169206
195	0x3aff5f2c	0.001948332
196	0x3dd7afcd	0.10531578
197	0xbe07cb31	-0.13261105
198	0x3ccd7898	0.025081918
199	0xbbd131bc	-0.0063841026
200	0x3def02cf	0.116704576
201	0x3beffc0b	0.007323747
202	0xbdb9f480	-0.09079838
203	0x3a820002	0.0009918215
204	0x3d8c3ae2	0.068471685
205	0xba622f6b	-0.00086282816
206	0x3c5347d8	0.012895547
207	0x3e237068	0.15960848
208	0xbd6ca6ac	-0.05777614
209	0x3cab2fb9	0.02089678
210	0x3c0b778f	0.008512392
211	0x3d214f0a	0.03938202
212	0xbdf95d97	-0.12176054
213	0xbc523274	-0.012829412
214	0xbc2f59de	-0.010702578
215	0xbd8df6b4	-0.069318205
216	0x3e12f909	0.14352812
217	0xbdcc967f	-0.09989642
218	0xbe169590	-0.14705491
219	0x3dacfdb0	0.084468246
220	0xbccc53b6	-0.02494226
221	0xbdc607d0	-0.09669459
222	0xbe140dd9	-0.14458407
223	0xbe1e16e7	-0.15438424
224	0x3b7ad96a	0.0038276562
225	0xbdfd6dea	-0.1237448
226	0xbd9b2fc0	-0.07577467
227	0xbdfb6663	-0.12275388
228	0xbdc73984	-0.09727767
229	0xbdfd9ef9	-0.12383837
230	0xbe164f7a	-0.14678755
231	0xbdebb3cd	-0.11508904
232	0xb83b998b	-4.4727272e-05
233	0xbdc3dacf	-0.09563219
234	0xbd7945aa	-0.060857452
235	0x3d89b0f3	0.067232035
236	0xbd30d74b	-0.04317407
237	0xbdd6a53c	-0.10480735
238	0x3b871e13	0.004123458
239	0x3d86c490	0.0658046
240	0xbe486075	-0.19568045
241	0xbdf267d0	-0.11836207
242	0xbe2852b8	-0.16437805
243	0xbd426d1b	-0.047467332
244	0xbc37b191	-0.011211769
245	0xbd1b6340	-0.03793645
246	0x3da0ff12	0.07861151
247	0xbdd9657e	-0.10615061
248	0x3df6d0c0	0.12051535
249	0xbdd14088	-0.102173865
250	0xbc767945	-0.015043561
251	0x3d0c1160	0.034196258
252	0xbd6cc878	-0.05780837
253	0x3e070886	0.13186845
254	0xbddabec4	-0.10680917
255	0xbcd40f29	-0.025886135

network.1.bias f4 [32]
0	0x3c8baf7b	0.017051449
1	0xbdc4a3c2	-0.09601547
2	0x3e1e1f4b	0.15441625
3	0x3c8cf578	0.017206892
4	0xbe26e67f	-0.16298865
5	0xbd104082	-0.03521777
6	0x3dd63281	0.104588516
7	0xbdc5d96f	-0.09660613
8	0xbd769559	-0.060201023
9	0xbc5f5d38	-0.013633065
10	0xbcc3e01a	-0.02391057
11	0x3d70ace0	0.058758616
12	0xbc904ca3	-0.017614668
13	0x3b9ad3e0	0.0047249645
14	0x3e17c6d7	0.14821945
15	0x3bcd59ca	0.006266807
16	0x3b115688	0.002217682
17	0xbe0f9fb0	-0.1402576
18	0xb9dc79b7	-0.00042052355
19	0x3dcfab69	0.10140116
20	0xbd8034a8	-0.062600434
21	0x3db1d221	0.08682657
22	0x3e53b83e	0.20675752
23	0x3c2b7569	0.0104650045
24	0xbc798f56	-0.015231928
25	0x3da8132c	0.08206782
26	0xbdbf73d7	-0.093482666
27	0x3e24bf74	0.16088659
28	0xbdbbad02	-0.09163858
29	0x3e2a2a9d	0.16617818
30	0x3c995fd7	0.018722458
31	0xbda21c2e	-0.07915531

network.2.weight f4 [4, 32]
0	0x3db0d62e	0.086346015
1	0x3ec0d9bc	0.37666118
2	0xbe4b0d5d	-0.19829316
3	0xbe497fdb	-0.19677679
4	0xbd847087	-0.064667754
5	0xbe5eb4c1	-0.2174864
6	0x3d1a06a3	0.037603986
7	0x3eae6456	0.34060925
8	0xbe73f3e0	-0.238235
9	0x3cc68aca	0.024236102
10	0xbe6663d6	-0.22499022
11	0xbe51e50a	-0.20497528
12	0x3ebda714	0.37041533
13	0xbe488ba7	-0.19584523
14	0x3e910d21	0.2833033
15	0x3ebf8c2b	0.37411627
16	0x3e83cf4c	0.25744092
17	0x3cda095a	0.026615787
18	0xbe210cb3	-0.157275
19	0x3ea7acdf	0.32749078
20	0xbd1a3347	-0.037646558
21	0x3eac3f58	0.33642077
22	0x3edb6260	0.42848492
23	0x3e33b912	0.17551067
24	0x3da61078	0.0810861
25	0xbc2ddff9	-0.010612481
26	0xbde3c45f	-0.11121439
27	0x3e8fbdf1	0.280746
28	0x3dea3fe3	0.11437967
29	0x3eb14bd8	0.34628177
30	0x3e948b64	0.29012597
31	0xbd6358a7	-0.055504467
32	0x3d6ca3c3	0.057773363
33	0xbe5d0677	-0.21584497
34	0x3e4f0fd7	0.20220886
35	0xbe1a3540	-0.15059376
36	0xbe19a274	-0.15003377
37	0x3cbbc056	0.022918861
38	0x3b4c2e25	0.0031155434
39	0xbed1460f	-0.40873763
40	0xbe87876e	-0.26470512
41	0x3d9cfe8d	0.07665739
42	0xbc22e7d7	-0.00994297
43	0x3ec46670	0.38359404
44	0xbe87b02b	-0.26501593
45	0xbe34afb2	-0.17645147
46	0xbeee69f6	-0.46565217
47	0xbed4a6dd	-0.41533557
48	0xbed6d781	-0.4196129
49	0x3e0e5a79	0.139017
50	0xbe294f8b	-0.1653425
51	0xbe4f38ce	-0.20236513
52	0xbe5bcc97	-0.21464764
53	0xbdf671cf	-0.12033426
54	0x3e88c185	0.26710144
55	0xbe299929	-0.16562332
56	0x3de2a7df	0.11067175
57	0xbeb83178	-0.35975242
58	0x3dac7873	0.08421411
59	0xbe9c9ca1	-0.30588248
60	0x3df18a12	0.11793913
61	0xbda20be0	-0.07912421
62	0xbd918bc7	-0.071067385
63	0xbe0d6125	-0.13806589
64	0xbea0c802	-0.31402594
65	0xbe9df3e3	-0.30850133
66	0x3996fdb9	0.00028799268
67	0xbd84718f	-0.06466972
68	0xbd38d2da	-0.04512296
69	0x3e02c950	0.12772107
70	0xbd348928	-0.044076115
71	0xbe399f20	-0.18127108
72	0x3ea6b37a	0.32558805
73	0xbec28a3c	-0.3799609
74	0xbc0fc8f3	-0.008775937
75	0x3e10b161	0.14130165
76	0xbef6ad25	-0.48178974
77	0x3e00ba13	0.12570982
78	0xbc9361f7	-0.01799105
79	0xbe789f74	-0.24279577
80	0xbed7dec8	-0.42162156
81	0xbd096403	-0.033542644
82	0x3e6f8e7d	0.23394199
83	0xbebf2a41	-0.37336925
84	0x3e0b22c7	0.13587485
85	0x3da3b516	0.07993524
86	0xbe6ac90a	-0.22928253
87	0xbddf2dd5	-0.10897414
88	0x3d0088a4	0.03138031
89	0xbf061dbc	-0.5238912
90	0xbd07173b	-0.03298114
91	0x3d5b8f71	0.053603593
92	0xbe2761fa	-0.16345969
93	0xbdec31ff	-0.115329735
94	0xbedfc732	-0.4370666
95	0xbda41937	-0.08012622
96	0x3e017b72	0.12644747
97	0xbefac2f1	-0.48976853
98	0x3e5ebb02	0.21751025
99	0xbde2b3a7	-0.11069422
100	0xbcb3ae7f	-0.021933792
101	0x3e58c2f1	0.21168114
102	0x3e716fba	0.23577777
103	0xbe80cfba	-0.25158483
104	0xbe370d81	-0.17876245
105	0xbd95f748	-0.07322556
106	0xbdb5957e	-0.08866404
107	0x3ce2a12a	0.02766474
108	0x3ced32d3	0.028954899
109	0xbe38dbd4	-0.18052608
110	0xbe25ecc4	-0.162036
111	0xbe9c3249	-0.30507115
112	0xbe9ff648	-0.31242585
113	0x3e88464f	0.2661614
114	0xbc18c2f8	-0.009323828
115	0xbd309dfb	-0.043119412
116	0xbf0a3571	-0.53987795
117	0xbeb0f1ec	-0.34559572
118	0xbd1a61de	-0.03769099
119	0x3e17d230	0.14826274
120	0xbdcc8c73	-0.09987726
121	0x3e349bb9	0.17637528
122	0xbe13f3fb	-0.1444854
123	0xbe5458b9	-0.2073697
124	0x3dd3a9db	0.10335132
125	0xbd48ff84	-0.049071804
126	0xbeb8d273	-0.3609806
127	0x3d6fa8fe	0.058510773

network.2.bias f4 [4]
0	0x3d398e32	0.045301624
1	0xbd02f4c2	-0.0319717
2	0x3d434678	0.047674626
3	0xbd92b8ca	-0.07164152
