data/network-weights/default_at_1.pth (torch_old, 19706 bytes, 6 tensors)

network.0.weight f4 [64, 37]
0.08998246 -0.038239714 0.10726949 0.1340866 -0.15632808 0.48999047 -0.558441 -0.51286846
-0.30875912 -2.275508 0.16883993 0.039574333 0.09768596 0.04626581 0.004483812 0.092933424
0.060177937 0.040749043 -0.07720681 -0.025527297 0.08483949 -0.055551205 -0.004511094 -0.0972432
-0.09022548 0.031131469 -0.13509844 -0.21290591 -0.13374141 -0.17030403 0.061614037 0.27453813
0.22525607 0.028582579 -0.16421103 0.056744568 0.020369343 -0.0064105135 0.108669974 0.020249622
0.0067433864 0.012810867 -0.06905377 0.21642514 -0.013496498 -0.07026795 0.267932 -0.1435962
0.11109464 0.052643932 -0.10898841 0.19235547 -0.00052663643 0.22484447 -0.038619634 -0.1215009
0.0018353004 -0.05840959 0.07737152 -0.1758422 0.09079245 -0.31159902 0.308816 -0.30232605
-0.05537357 0.07754847 -0.07933815 0.23798105 -0.35879678 -0.40303412 -0.38268307 -1.1881737
0.2191534 -0.010147178 -0.005654047 -0.16201293 -0.08874683 -0.13483776 0.014162175 0.33531305
-0.37664056 -0.3601495 -0.12108059 -2.0811157 0.22506946 -0.04579484 0.120327614 -0.09949877
-0.31097472 -0.029921195 -0.26062608 0.17411616 0.00037214634 -0.096691355 0.0056573697 -0.20272684
0.19803043 -0.3316847 -0.29992747 -0.25753313 0.018379282 0.095446005 -0.15817559 -0.40093464
0.17330079 -0.41726837 -0.3124064 -0.4547566 -1.2283168 0.25752735 0.0672359 0.17050754
0.15453686 -0.31789568 -0.23066695 0.020171374 -0.024585577 -0.11651416 -0.1594667 0.14272687
0.7606256 0.026070675 0.01208942 -0.14317401 -0.19367547 0.107850015 0.0021319636 -0.1698769
-0.0029469084 0.12645149 0.09443395 0.13731578 -0.05980224 0.07213053 -0.09208597 0.027944667
-0.24645063 -0.2922709 0.1474673 0.10342031 0.50473225 -0.07359374 0.08116807 -0.07957712
-0.25539553 -0.30327162 0.094868444 0.08078318 0.2259677 -0.038468324 0.03902444 -0.122466184
0.17987092 0.1050604 -0.13669606 -0.012211846 0.015441826 0.1904814 0.13467777 0.17045605
0.14620124 0.06551973 -0.100618295 -0.004364319 0.15805723 -0.048064526 -0.039656814 0.021953564
0.0912856 0.049755435 -0.11198645 -0.18737593 -0.48702657 -0.011050057 -0.023495324 -0.05429386
-0.1591042 -0.02023425 0.54972273 -0.5991517 -0.27542058 -0.29701734 -1.5087512 -0.016791202
0.029536534 0.15902533 0.003965285 -0.032597143 0.1372611 0.06109826 0.078710295 -0.1495896
-0.2512596 -0.36016637 -0.6967686 0.016547887 -0.022869742 0.09420016 -0.026303135 0.2131339
-0.0316378 0.043004144 -0.03342524 0.101783946 0.06961745 -0.20257732 -0.009587572 -0.061173942
-0.14133394 0.34605 0.02026206 0.15624206 -0.07898162 -0.01577372 0.047437612 0.6833963
-0.7075578 -0.41125244 -0.41764542 -1.9115379 0.099219084 0.023961026 -0.032566592 0.04962761
0.06426401 0.044184074 -0.15829071 0.24289845 -0.26889008 -0.37633616 -0.49859697 -1.496594
0.26866594 0.16649657 0.0720246 0.12956618 -0.18164489 0.1478781 -0.029571097 -0.09173019
-0.32760182 -0.33566037 0.12978475 -0.07284807 -0.057985682 -0.12847534 -0.23685442 0.2509192
-0.051020443 -0.20154938 -0.20133173 -1.0856296 0.05948363 -0.019386241 -0.19498311 -0.038406875
00000000: b948 b83d 3fa1 1cbd 1bb0 db3d ff4d 093e
00000010: 7814 20be 08e0 fa3e fdf5 0ebf 594b 03bf
00000020: ad15 9ebe eca1 11c0 60e4 2c3e b218 223d
00000030: 940f c83d 3881 3d3d f1ec 923b e153 be3d
00000040: 247d 763d 78e8 263d 9b1e 9ebd 9f1e d1bc
00000050: 54c0 ad3d a989 63bd cdd1 93bb 7127 c7bd
00000060: 23c8 b8bd 6c07 ff3c 3f57 0abe 0204 5abe
00000070: 82f3 08be 2e64 2ebe 005f 7c3d 4390 8c3e
00000080: 87a9 663e 0326 ea3c f026 28be fe6c 683d
00000090: 9cdd a63c 490f d2bb 5d8e de3d 89e2 a53c
000000a0: a0f7 dc3b ace4 513c 106c 8dbd 8d9e 5d3e
000000b0: 6a20 5dbc a5e8 8fbd 622e 893e e20a 13be
000000c0: 9685 e33d 2aa1 573d 5135 dfbd d5f8 443e
000000d0: f90d 0aba a13d 663e 9f2f 1ebd 77d5 f8bd
000000e0: 768e f03a e53e 6fbd f674 9e3d fa0f 34be
000000f0: 64f1 b93d e889 9fbe 211d 9e3e 7bca 9abe
00000100: 66cf 62bd bbd1 9e3d 0a7c a2bd 4eb1 733e
00000110: 36b4 b7be 7d5a cebe 09ef c3be 1316 98bf
00000120: c069 603e 5940 26bc 9545 b9bb b8e6 25be
00000130: e6c0 b5bd e912 0abe 7808 683c 27ae ab3e
00000140: 08d7 c0be 8465 b8be 1af9 f7bd 0031 05c0
00000150: 9c78 663e 5f93 3bbd 536e f63d 03c6 cbbd
00000160: 1438 9fbe 4b1d f5bc c870 85be 824b 323e
00000170: a31c c339 1e06 c6bd 7561 b93b a097 4fbe
00000180: 7dc8 4a3e 94d2 a9be 1890 99be 62db 83be
00000190: 2690 963c 3279 c33d c8f8 21be 4e47 cdbe
000001a0: c375 313e 33a4 d5be bbf3 9fbe dbd5 e8be
000001b0: 7c39 9dbf a0da 833e fab2 893d 8799 2e3e
000001c0: e93e 1e3e 39c3 a2be f533 6cbe 703e a53c
000001d0: b167 c9bc fa9e eebd 3d4b 23be fe26 123e
000001e0: 5cb8 423f 2b92 d53c b412 463c 359c 12be
000001f0: dd52 46be 78e0 dc3d 6ab8 0b3b 36f4 2dbe
00000200: eb20 41bb 807c 013e 9666 c13d 829c 0c3e
00000210: 32f3 74bd 2cb9 933d 9297 bcbd 37ec e43c
00000220: 8e5d 7cbe 88a4 95be ab01 173e 07ce d33d
00000230: 2236 013f 51b8 96bd 723b a63d 54f9 a2bd
00000240: 34c3 82be 6b46 9bbe 634a c23d a771 a53d
00000250: 1464 673e f690 1dbd 17d8 1f3d 8dcf fabd
00000260: 1530 383e e829 d73d 0dfa 0bbe 3214 48bc
00000270: b6ff 7c3c 8e0d 433e f8e8 093e 088c 2e3e
00000280: c7b5 153e 352f 863d f710 cebd 9002 8fbb
00000290: c1d9 213e 4fdf 44bd 2f6f 22bd f6d7 b33c
000002a0: f2f3 ba3d 5bcc 4b3d 2759 e5bd 7adf 3fbe
000002b0: 8c5b f9be 4c0b 35bc 4479 c0bc 3d63 5ebd
000002c0: 36ec 22be 4cc2 a5bc a1ba 0c3f 0162 19bf
000002d0: ed03 8dbe a812 98be c21e c1bf b48d 89bc
000002e0: 9af6 f13c 89d7 223e 39ef 813b 9584 05bd
000002f0: 2c8e 0c3e 2b42 7a3d dd32 a13d 042e 19be
00000300: 19a5 80be ba67 b8be 6d5f 32bf 6f8f 873c
00000310: 5359 bbbc 03ec c03d ac79 d7bc c63f 5a3e
00000320: a396 01bd 1d25 303d e8e8 08bd 1a74 d03d
00000330: 9893 8e3d 6e70 4fbe 3115 1dbc 8791 7abd
00000340: d8b9 10be 772d b13e 9ffc a53c ebfd 1f3e
00000350: 1ec1 a1bd e337 81bc f14d 423d 0ff3 2e3f
00000360: 8222 35bf ae8f d2be 9fd5 d5be 46ad f4bf
00000370: 6033 cb3d ea49 c43c 8c64 05bd 5246 4b3d
00000380: d99c 833d 5cfa 343d f616 22be 5fba 783e
00000390: f6ab 89be 22af c0be 1a48 ffbe 6490 bfbf
000003a0: 958e 893e 147e 2a3e a281 933d ffac 043e
000003b0: 1e01 3abe 5b6d 173e 163f f2bc 0add bbbd
000003c0: 6dbb a7be addb abbe 4be6 043e 5e31 95bd
000003d0: 6582 6dbd 0a8f 03be f789 72be 7b78 803e
000003e0: d0fa 50bd f662 4ebe e829 4ebe e9f5 8abf
000003f0: 1ba5 733d e5cf 9ebc a7a9 47be 8750 1dbd

network.0.bias f4 [64]
0.0454837 0.17561439 0.15383084 -0.07158856 0.0018021625 0.050355524 0.031232776 -0.02913037
-0.118631974 -0.12277481 -0.19814673 -0.088823214 -0.11039578 0.0047163465 -0.110883966 -0.1513941
0.059813514 0.21922989 0.09597147 -0.28457087 0.07685188 -0.06563814 -0.09621836 0.09942283
-0.07840422 -0.15382083 -0.095085055 -0.09499881 0.26633534 0.22043586 -0.15984853 -0.15441462
-0.03467216 -0.08841613 -0.03614681 0.09608094 0.034174845 0.13153513 0.29919267 -0.03762308
-0.28966126 0.012550415 0.09175942 -0.019217111 0.070185736 -0.19329052 -0.060005147 0.13542517
-0.09388274 0.122549675 0.07575753 0.04650757 -0.25608385 0.05183469 -0.025812248 0.036607645
0.28036812 0.1328555 0.09405436 -0.10657721 0.21617246 -0.096659616 0.15476482 -0.04263124
00000000: 1e4d 3a3d 42d4 333e d585 1d3e 069d 92bd
00000010: 8a36 ec3a 9841 4e3d e1db ff3c d0a2 eebc
00000020: 52f5 f2bd 5c71 fbbd fae6 4abe f2e8 b5bd
00000030: 2f17 e2bd 958b 9a3b 2217 e3bd 0e07 1bbe
00000040: 04ff 743d cd7d 603e b18c c43d 46b3 91be
00000050: 8564 9d3d 4a6d 86bd 220e c5bd 329e cb3d
00000060: 6492 a0bd 3583 1dbe f4bb c2bd bc8e c2bd
00000070: 1b5d 883e f0b9 613e 55af 23be de1e 1ebe
00000080: 6504 0ebd 8413 b5bd ad0e 14bd 15c6 c43d
00000090: ecfa 0b3d 25b1 063e c82f 993e a91a 1abd
000000a0: 7b4e 94be 41a0 4d3c 5dec bb3d 346d 9dbc
000000b0: 8abd 8f3d f3ed 45be f5c7 75bd e5ac 0a3e
000000c0: 9845 c0bd 53fb fa3d c426 9b3d b97e 3e3d
000000d0: 6c1d 83be 9d50 543d 3574 d3bc e6f1 153d
000000e0: 698c 8f3e 460b 083e 939f c03d 2745 dabd
000000f0: 505c 5d3e 7af5 c5bd ab7a 1e3e 189e 2ebd

network.1.weight f4 [32, 64]
-0.31177574 0.12521696 -0.18206052 0.031067148 -0.018640118 0.048136547 0.14725734 -0.3009892
0.36812913 0.1422103 0.007260519 -0.13229471 -0.101842046 -0.06983935 0.06927494 0.057881825
0.07224911 -0.08099427 0.10886075 0.33018965 0.08304819 -0.2536598 0.31978667 -0.059559572
0.17114703 -0.049550537 0.10405464 -0.07202883 0.18041325 -0.025189525 0.25067815 0.08274211
0.34672982 -0.252309 0.3819481 -0.026075585 0.06261787 0.114777535 -0.43662012 -0.1696409
-0.12933508 -0.12845132 -0.12920706 -0.31860328 0.07157851 0.16225871 -0.016409066 -0.32380572
0.32897624 0.1852151 0.12504695 -0.07146278 0.0074364548 -0.17863707 0.033459388 -0.058018655
0.049011126 -0.008640468 0.1379643 0.40244862 0.3966929 0.01773583 -0.042663615 -0.16035397
0.27012077 -0.13424823 0.19228266 0.011974274 -0.039528344 0.011635788 0.36370498 -0.21972468
0.016601652 -0.114063576 -0.24935059 0.050495096 -0.06905838 0.046414964 -0.049173124 0.042419028
-0.05668189 0.53235304 0.15869795 0.016397627 -0.18711996 0.17419352 0.15082005 -0.10045341
0.115379006 -0.15778562 -0.1288454 0.21016988 0.4139614 0.62054807 -0.25282678 -0.26210713
0.1600829 0.22712037 0.182299 -0.11291138 0.18750207 0.09574437 0.617749 -0.10690974
-0.05537295 0.37027082 -0.12303193 0.08584442 0.026954366 -0.025230737 -0.09895763 0.26924008
0.054044046 -0.35126466 -0.12020567 -0.06666546 -0.25409427 -0.10136415 -0.011993688 0.29263684
-0.030962825 -0.12995225 0.012413794 0.085246205 0.019450773 0.21744236 0.1705225 0.06868397
-0.29313463 -0.16201675 -0.14296985 0.110177755 -0.10167379 -0.24802822 -0.4486693 0.15577066
-0.11514126 -0.13600858 -0.023014655 0.028505646 0.036182754 -0.080332026 0.3269547 -0.19848932
-0.044939242 -0.3785445 -0.36349383 -0.057423525 -0.03723893 0.085040376 0.2446924 0.29497743
-0.33543828 -0.020092819 -0.06202274 -0.44398215 -0.018704997 -0.25720942 -0.12839939 0.20918289
0.2713292 -0.1503379 -0.30663314 -0.0926245 0.0068329317 0.7325009 -0.040016416 -0.18910213
-0.16119908 -0.14025933 0.6933398 -0.087024055 0.0415449 0.072975285 -0.18178059 -0.00829365
-0.2544726 -0.014726776 -0.06344226 -0.016144024 0.011586219 0.30837876 -0.3861896 -0.29454875
0.41411772 -0.04568571 0.046489157 -0.449663 0.0043294965 -0.17014621 -0.2212337 -0.18469237
-0.4170236 0.22552563 -0.1937593 0.03569287 0.22566645 -0.01391599 -0.22159076 -0.3828188
0.23624524 0.18568388 -0.063889794 -0.3949172 -0.064036295 -0.27264073 0.40767345 0.15587336
0.078071825 -0.28796032 -0.055665385 0.052220788 -0.07678922 0.42788357 0.14828902 0.31214812
-0.12983987 -0.15330337 0.2314295 -0.13720009 -0.15109003 -0.36577213 -0.09024831 0.1468453
0.5296067 -0.2607971 0.4368049 0.13241187 -0.05683755 0.43476993 -0.5148418 0.007855185
0.04207814 -0.5868561 0.3303127 0.14954235 0.34948912 0.14055794 -0.31682214 0.12735291
-0.09922521 0.092415676 0.36407533 0.021604294 0.37477353 0.0039030137 0.31912667 -0.28913286
0.29032952 -0.042016294 -0.23359296 0.042759363 -0.24000366 -0.037095208 0.5103765 -0.13516481
00000000: 12a1 9fbe e038 003e 136e 3abe 8880 fe3c
00000010: 29b3 98bc d42a 453d a1ca 163e 421b 9abe
00000020: 6c7b bc3e 949f 113e a6e9 ed3b 4478 07be
00000030: 9092 d0bd ef07 8fbd 05e0 8d3d 7e15 6d3d
00000040: 57f7 933d 53e0 a5bd 63f2 de3d 9e0e a93e
00000050: 2b15 aa3d b3df 81be 14bb a33e bdf4 73bd
00000060: 2b41 2f3e 81f5 4abd 991a d53d da83 93bd
00000070: 40be 383e 435a cebc e358 803e b274 a93d
00000080: 9286 b13e a52e 81be b48e c33e 779c d5bc
00000090: cc3d 803d 7c10 eb3d ac8c dfbe 58b6 2dbe
000000a0: 6a70 04be be88 03be db4e 04be f81f a3be
000000b0: c197 923d 2627 263e 4e6c 86bc ddc9 a5be
000000c0: 936f a83e 07a9 3d3e 4f0c 003e 145b 92bd
000000d0: 81ad f33b a3ec 36be b60c 093d f8a4 6dbd
000000e0: e4bf 483d c090 0dbc 8346 0d3e bf0d ce3e
000000f0: 551b cb3e bb4a 913c 0bc0 2ebd d533 24be
00000100: 454d 8a3e 5e78 09be bfe5 443e bf2f 443c
00000110: 79e8 21bd 08a4 3e3c 8a37 ba3e 82ff 60be
00000120: 3000 883c 2a9a e9bd c355 7fbe f2d3 4e3d
00000130: 7b6e 8dbd 9e1d 3e3d c269 49bd 93bf 2d3d
00000140: 452b 68bd 4a48 083f b781 223e 5154 863c
00000150: 609c 3fbe c95f 323e 9270 1a3e 84ba cdbd
00000160: d44b ec3d 8e92 21be 0cf0 03be c636 573e
00000170: c0f2 d33e 3ddc 1e3f 8372 81be e832 86be
00000180: c6ec 233e 3e92 683e 97ac 3a3e 153e e7bd
00000190: 8b00 403e a015 c43d cc24 1e3f 7ef3 dabd
000001a0: bfce 62bd 2394 bd3e 2af8 fbbd 33cf af3d
000001b0: 67cf dc3c b1b0 cebc 4caa cabd d6d9 893e
000001c0: 4a5d 5d3d f6d8 b3be 642e f6bd e787 88bd
000001d0: a518 82be 0298 cfbd 2c81 44bc 7fd4 953e
000001e0: c0a5 fdbc 3412 05be 3a63 4b3c 9095 ae3d
000001f0: 3a57 9f3c 36a9 5e3e 739d 2e3e 2eaa 8c3d
00000200: be15 96be b8e7 25be b066 12be e0a4 e13d
00000210: 593a d0bd 1cfb 7dbe fcb7 e5be 5882 1f3e
00000220: 2ecf ebbd d545 0bbe 3b89 bcbc ac84 e93c
00000230: 5e34 143d 1e85 a4bd 9b66 a73e c940 4bbe
00000240: 3612 38bd 96d0 c1be dd1b babe ee34 6bbd
00000250: d987 18bd a629 ae3d a590 7a3e 4807 973e
00000260: 91be abbe b299 a4bc 8e0b 7ebd a151 e3be
00000270: 393b 99bc f4b0 83be 217b 03be 0a34 563e
00000280: a9eb 8a3e 2ef2 19be 05ff 9cbe eab1 bdbd
00000290: c9e6 df3b 2e85 3b3f 41e8 23bd fda3 41be
000002a0: 5f11 25be 24a0 0fbe b87e 313f ab39 b2bd
000002b0: fc2a 2a3d 1174 953d b124 3abe 17e2 07bc
000002c0: 3c4a 82be 9348 71bc 04ee 81bd 7940 84bc
000002d0: 20d4 3d3c d2e3 9d3e a5ba c5be 18cf 96be
000002e0: 3d07 d43e f020 3bbd 6a6b 3e3d 3b3a e6be
000002f0: 73de 8d3b cf3a 2ebe 168b 62be ff1f 3dbe
00000300: 1e84 d5be 31f0 663e d768 46be b032 123d
00000310: 1b15 673e e4ff 63bc b0e8 62be d300 c4be
00000320: 46ea 713e ea23 3e3e a7d8 82bd 9632 cabe
00000330: 7625 83bd 9197 8bbe 93ba d03e 449d 1f3e
00000340: 1fe4 9f3d 896f 93be 6301 64bd 77e5 553d
00000350: ab43 9dbd 8e13 db3e 14d9 173e e1d1 9f3e
00000360: bef4 04be 8ffb 1cbe dbfb 6c3e 2e7e 0cbe
00000370: 58b7 1abe 7c46 bbbe 1bd4 b8bd 9d5e 163e
00000380: 4e94 073f 3387 85be e4a4 df3e fa96 073e
00000390: 7ece 68bd 2a9a de3e accc 03bf 09b3 003c
000003a0: 215a 2c3d 343c 16bf bf1e a93e a121 193e
000003b0: 3df0 b23e 6cee 0f3e 8336 a2be cd68 023e
000003c0: 9636 cbbd 6e44 bd3d 1568 ba3e 7dfb b03c
000003d0: 51e2 bf3e b4c9 7f3b 9264 a33e 3909 94be
000003e0: 12a6 943e 4719 2cbd fe32 6fbe 7124 2f3d
000003f0: 85c3 75be 25f1 17bd 09a8 023f a568 0abe

network.1.bias f4 [32]
-0.006692373 -0.099985175 0.08892953 0.016894324 -0.08119327 0.13650496 0.006769539 -0.10507679
-0.03828318 -0.0022421312 -0.050139386 -0.15399426 -0.17673428 -0.048335336 0.11914111 -0.18793559
-0.18511745 -0.102039784 0.04320291 0.13359962 -0.01160279 0.11348964 0.11444541 0.0047764005
-0.10442252 -0.09306684 0.06293986 0.07566643 -0.25069615 0.321491 -0.003910473 0.088550255
00000000: b24b dbbb 07c5 ccbd af20 b63d f765 8a3c
00000010: a848 a6bd f5c7 0b3e 02d3 dd3b 8032 d7bd
00000020: d3ce 1cbd b8f0 12bb f55e 4dbd acb0 1dbe
00000030: d5f9 34be 46fb 45bd 4100 f43d 3072 40be
00000040: 6e8f 3dbe 3cfa d0bd 89f5 303d 57ce 083e
00000050: a119 3ebc 426d e83d 5b62 ea3d 5a83 9c3b
00000060: 79db d5bd d499 bebd 9de6 803d 00f7 9a3d
00000070: 3f5b 80be 789a a43e 6d23 80bb d659 b53d

network.2.weight f4 [4, 32]
-0.07597435 0.26897603 -0.08762848 -0.930219 -0.2885634 -0.005490436 -0.33983994 0.17850226
-0.007220104 -0.06643074 -0.143135 -0.116924085 0.61388224 -0.4707932 -0.3629213 0.61202735
0.44560036 -0.0222166 -0.05931642 0.19289018 0.038212303 0.3488387 0.15506038 0.20112398
0.11894782 -0.087207556 -0.16564266 0.18851519 0.62799925 0.39394182 -0.13312756 0.15088516
0.54738826 0.113046534 -0.48836517 -0.49579638 -0.04383774 -0.2557596 -0.0034354322 -0.08100296
-0.7956036 0.40381286 0.042014252 0.46798623 -0.12392118 -0.40845612 -0.93184334 -0.6275871
-0.32645574 -0.23047127 -0.3943897 0.042639233 -0.45875627 0.04646799 0.35638884 0.12373807
0.08437249 -0.31663677 -0.3386956 -1.4539976 0.103103176 -0.454022 -1.2743706 -0.547328
0.3522234 -0.24471289 -0.7104732 0.26693824 0.41143015 -0.32448974 -0.46940476 -0.62641114
0.36792997 -0.06506777 -0.24683067 0.23977365 -0.2102542 0.4392772 -0.40005025 -0.3331247
-0.6742936 -0.54572105 -0.70655763 -0.4389001 0.33380464 0.08494964 -0.44431576 -0.35789832
-0.007398105 -0.32534724 0.3629798 0.5438486 -0.12636343 -0.14570893 0.10998089 -0.05281309
0.17185366 -0.4581892 0.49302796 0.2661298 -0.6972666 0.4343873 0.7947443 0.029383145
-0.70865303 -0.4414383 -0.07895508 0.23454423 -0.3880093 0.105592385 0.7544246 -0.21751821
-0.27120978 0.39425755 0.5443281 -0.0611512 -0.35017478 -0.44867292 0.20945263 0.080355495
-0.044537198 0.0032037643 -0.45318058 -0.70452535 -0.563403 0.12084313 0.1272223 -0.15545315
00000000: 7198 9bbd 3ab7 893e 8f76 b3bd d522 6ebf
00000010: 95be 93be 1ee9 b3bb 80ff adbe 4cc9 363e
00000020: 9f96 ecbb d70c 88bd fb91 12be e575 efbd
00000030: 6327 1d3f ce0b f1be d2d0 b9be d3ad 1c3f
00000040: bb25 e43e 96ff b5bc c6f5 72bd 0185 453e
00000050: 8184 1c3d fc9a b23e 26c8 1e3e 72f3 4d3e
00000060: ea9a f33d e099 b2bd 3b9e 29be 200a 413e
00000070: 8fc4 203f beb2 c93e 9752 08be a481 1a3e
00000080: a321 0c3f f184 e73d 000b fabe 06d9 fdbe
00000090: 348f 33bd ecf2 82be fd24 61bb e1e4 a5bd
000000a0: adac 4bbf 8fc0 ce3e 2317 2c3d e49b ef3e
000000b0: 63ca fdbd 2921 d1be 498d 6ebf 8ca9 20bf
000000c0: 3525 a7be a900 6cbe 72ed c9be 7aa6 2e3d
000000d0: 1ae2 eabe 3855 3e3d 9978 b63e 636a fd3d
000000e0: 7ccb ac3d 371e a2be 8269 adbe 981c babf
000000f0: c227 d33d 9275 e8be 931e a3bf b01d 0cbf
00000100: a056 b43e 0496 7abe 92e1 35bf 21ac 883e
00000110: f9a6 d23e 8523 a6be d255 f0be 7b5c 20bf
00000120: 5161 bc3e 4042 85bd 2ec1 7cbe 3987 753e
00000130: e14c 57be f1e8 e03e 63d3 ccbe 528f aabe
00000140: 819e 2cbf 60b4 0bbf f6e0 34bf 84b7 e0be
00000150: 71e8 aa3e 14fa ad3d 5b7d e3be 733e b7be
00000160: ce6b f2bb ea93 a6be 7dd8 b93e a939 0b3f
00000170: 6a65 01be b934 15be a93d e13d 8a52 58bd
00000180: 68fa 2f3e c697 eabe 296e fc3e 2a42 883e
00000190: 1080 32bf 0368 de3e 5d74 4b3f ecb4 f03c
000001a0: 496a 35bf 3304 e2be 33b3 a1bd 5d2c 703e
000001b0: 28a9 c6be d240 d83d f821 413f 18bd 5ebe
000001c0: 02dc 8abe 20dc c93e 1659 0b3f ae79 7abd
000001d0: 1c4a b3be 75b8 e5be c07a 563e 6c91 a43d
000001e0: a36c 36bd 3ff6 513b 4907 e8be c65b 34bf
000001f0: 2e3b 10bf 9a7c f73d 9046 023e 1c2f 1fbe

network.2.bias f4 [4]
-0.006360776 -0.08188283 0.1081871 -0.033690225
00000000: 0e6e d0bb 2fb2 a7bd 3391 dd3d c3fe 09bd
