data/network-weights/default_at_3.pth (torch_old, 19706 bytes, 6 tensors)

network.0.weight f4 [64, 37]
00000000: cf3d 9b3d cb1c ee3d 73df 003d 22b5 353e
00000010: d052 c6bd 4fa3 ec3d 9a40 abbc 69ec 0d3e
00000020: 4700 c3bd 05c5 88be 9697 9d3e 1c74 6c3d
00000030: dcc5 d0bd cac8 d0bd 46e4 273d f5b0 443d
00000040: b384 893d 2be9 893d a76a 9bbd 2e67 153d
00000050: 58e2 f03d 3099 18be 5439 b6bd decf 4e3d
00000060: f6bd abbe 835e 0abe 8519 e23d f3a8 c5bc
00000070: 2547 f2bc a14e 09be 8758 ac3e f6ee 09be
00000080: ddf6 b4bd 9fce b13d b604 97be e485 2e3e
00000090: e071 2dbd 41ca 8e3e acec aebe c0fc 39be
000000a0: 7c87 693d 33e0 2dbe 3e64 4a3d 8539 2d3e
000000b0: 8b9b 9b3d 4016 ccbe 4806 1c3e e5cf 523d
000000c0: a636 793d 410f 61be 41ec b4be 235a 08bc
000000d0: 6340 9fbe 3167 9c3e af93 46bd 710f d7bc
000000e0: 237a c13d 8bf9 98bd c0b4 37bd db04 12be
000000f0: c024 78bc fc59 323c 933f f53d 83a8 7dbe
00000100: a936 a13d 4970 65be 1bed 573d 24c0 2abe
00000110: 1ccd 94bd 5e10 29be 37c7 793d 24d5 d73d
00000120: 0def 963c 45c9 c2bd 5a32 1cbe a9ee 5fbe
00000130: bc49 13bd c370 d1bd 3ac9 d13d 9d6f 783e
00000140: a1b5 a9be 9567 8cbe 501b 98be d553 9cbf
00000150: 6fad 493e 9c75 edbd 38ae 303c 79ce 1dbe
00000160: 80d4 fdbe 9d83 66bc d679 973d 09a1 193d
00000170: cb78 01be 7cf9 013e 5d84 0e3d 7670 d5bd
00000180: ac08 d43b f88b ebbe ebae 1abf 7963 93be
00000190: 0c24 9dbd 7a40 0f3c d843 44be ce22 dcbe
000001a0: a0ac 773e 1320 dfbe afd0 8abe a527 21bf
000001b0: 250d c9bf 6665 89be 691c 613d 8879 fabc
000001c0: 5e40 36bd a2d3 02be bfe0 afbe 1e6f a8bd
000001d0: 10cf fd3d 0f0e fdbe 33a1 b0bd 598d 19bf
000001e0: 91be 9cbf f231 8dbd 2fb4 c5bc ffa0 92be
000001f0: a700 14be ca2a cebe 6ed5 c8bd 4293 8ebe
00000200: fbfc 143e 6cf8 2fbe 89bf 143d 3c42 a7bb
00000210: b006 97be 16d8 313e ee35 93be db36 d2be
00000220: fd20 3fbe 9e38 babd 5811 743d 054e 99be
00000230: 4964 a3be 0cf9 1cbe a498 14bc ffab a8bd
00000240: f2f9 4abe d9d9 dcbe 1d69 023e 7086 103e
00000250: b076 643e 48c2 d2bd 31b8 91bb cf4f c7bd
00000260: 9062 e53c 6e6c 97be 8755 513e e19a 723e
00000270: 2ade a73e 1e7b 8b3f fce3 683d eb9a a8bd
00000280: ca5c 5c3e e90e a73c af26 153e ee02 6cbe
00000290: 5cce 8f3b 5782 6d3d 1d13 8e3d 6e3b 183e
000002a0: 1310 68bd c1c4 14be 679e 01bd 8b4b 2c3e
000002b0: c852 383e b1df abbd e811 9fbd f19f af3d
000002c0: a2bc 61bd e03d ab3e 8956 873d 9f99 70be
000002d0: bea8 153e 4d96 df3d 1e2a 4c3e 3b67 77bd
000002e0: 8cb4 a43d bac9 e43d ea32 e2bb c522 81bd
000002f0: 38a5 70be 4fc9 993d a018 883d d8f2 8bbe
00000300: 8418 1cbe 57c5 a1be 7710 4fbf 1b18 ea3d
00000310: a369 0cbe 85be 5abe c239 82be 3eaa ffbe
00000320: 13f8 d7bd d105 47bc 1b49 173d 1d5b 84be
00000330: debf 5fbd b2af 54bd b0fb 91be 73d7 a5be
00000340: bfe1 b1be a180 21bf fd6f 2b3d 7517 15bd
00000350: c183 c3be d5aa 24be 0fb2 9bbe 3a31 923e
00000360: ab77 c7bd 261c 87be 0c09 acbe 0ae2 8abf
00000370: af69 3abe 816b ddba 2468 d73d adae b5be
00000380: e7d8 febe c405 debd 61f8 9dbe fdc4 843e
00000390: 70a3 cdbe ffc7 1abf aac1 31bf df4d 9ebf
000003a0: 1e7a 213d d8ea b33b a9c8 ab3d 7859 c7be
000003b0: ed76 c0bd 22ca b93c 8446 0ebf da61 d4be
000003c0: 3749 a6be 3f3c 22bf 771c 9f3a 37e4 46be
000003d0: 1f2e cbbe 276e 3abe 7175 37bf c886 a13e
000003e0: e84f c9be f3d0 ccbe 5a6f 09bf ff99 52bf
000003f0: 5cc2 9f3b aeff 7bbe d0fa bebd d322 06bf
0.075801484 0.116265856 0.031463098 0.17744878 -0.09683764 0.11554586 -0.020904828 0.13859715
-0.09521537 -0.26712814 0.30779713 0.057727918 -0.10193989 -0.101945475 0.040989183 0.048020322
0.067147635 0.067339264 -0.07588702 0.036475353 0.11761922 -0.14902186 -0.08897653 0.050491206
-0.33543366 -0.13512616 0.11040024 -0.024128413 -0.02957494 -0.13408901 0.3366129 -0.13470063
-0.08836148 0.08681988 -0.29495782 0.17043263 -0.042344928 0.27888682 -0.3416494 -0.18162823
0.057013974 -0.16980056 0.049412005 0.16916473 0.07598027 -0.39860725 0.15236771 0.051467795
0.060843132 -0.21978475 -0.35336497 -0.0083222715 -0.3110381 0.3054748 -0.048480686 -0.02625248
0.09447124 -0.074694715 -0.04485011 -0.14259665 -0.015145481 0.010885712 0.119750164 -0.24771313
0.07871754 -0.22406115 0.052716356 -0.16674858 -0.07265684 -0.1651015 0.060981 0.105387
0.018424535 -0.09511045 -0.15253583 -0.21868385 -0.03595899 -0.10226586 0.10243459 0.24261327
-0.33146384 -0.27422777 -0.29708338 -1.2213084 0.19695066 -0.11594698 0.0107837245 -0.15410794
-0.49576187 -0.014069465 0.07396285 0.03750709 -0.12643735 0.12692827 0.0347942 -0.10421841
0.0064707603 -0.46005225 -0.60423154 -0.2878683 -0.07672891 0.0087434 -0.19166505 -0.42995304
0.24186945 -0.43579158 -0.27112338 -0.6295112 -1.5707136 -0.26835173 0.054958735 -0.030575529
-0.04449498 -0.12776044 -0.34351155 -0.08224319 0.1239301 -0.49424788 -0.08624496 -0.59981304
-1.2245656 -0.06894292 -0.02413377 -0.28638455 -0.14453374 -0.4026702 -0.098063335 -0.27846724
0.1454963 -0.17184609 0.036315475 -0.0051043313 -0.2949729 0.17367586 -0.28752083 -0.41057476
-0.18664928 -0.0909283 0.059586853 -0.29942337 -0.3191245 -0.15329379 -0.0090695955 -0.08235931
-0.19821909 -0.43134955 0.1273541 0.14113784 0.223109 -0.102909625 -0.004447006 -0.09732019
0.0280011 -0.29574913 0.20442782 0.23691894 0.32786685 1.0896947 0.056858048 -0.08232673
0.21519771 0.020392852 0.14565538 -0.23047993 0.0043886136 0.05798563 0.06937239 0.1486642
-0.056655955 -0.1452818 -0.031645205 0.16825692 0.18000329 -0.08392275 -0.07767087 0.08575428
-0.055111535 0.33445644 0.06608302 -0.23496102 0.14615151 0.109173395 0.19937941 -0.060401183
0.08042249 0.11171289 -0.006903042 -0.0630546 -0.23500526 0.075091 0.06645322 -0.27333713
-0.15243727 -0.3159587 -0.808845 0.11430379 -0.13712172 -0.2136174 -0.2543469 -0.49934572
-0.10545363 -0.012147383 0.036934953 -0.25850764 -0.05462634 -0.05192537 -0.28512335 -0.32390937
-0.34742543 -0.630869 0.041854847 -0.036399323 -0.38186458 -0.16080792 -0.30409285 0.28553182
-0.09739622 -0.26388663 -0.33600652 -1.0850232 -0.18204378 -0.0016893 0.1051791 -0.3548483
-0.49774858 -0.108409435 -0.3085356 0.2593154 -0.40163755 -0.6046142 -0.6943613 -1.2367514
0.0394231 0.005490642 0.08387882 -0.38935447 -0.09397683 0.022679392 -0.5557635 -0.41480905
-0.32477733 -0.6337318 0.001213922 -0.19422995 -0.39683625 -0.18206082 -0.71663576 0.31548142
-0.39318776 -0.40003166 -0.53685534 -0.8226623 0.0048754644 -0.24609253 -0.093251824 -0.5239689

network.0.bias f4 [64]
00000000: a73b e8bd 05cd 823d 0dc0 553e 4c45 783c
00000010: 5d01 2cbe 4876 fcbb 7672 3f3d 41cf 94bc
00000020: 1def 15be e4ce ab3d a866 f5bd c8a2 b5bd
00000030: 467e 10be 7b30 10bd 1d37 62be 515a 2cbe
00000040: b46c acbc 0f7e 3d3e 6dfe e23d 1ac3 d1bd
00000050: 0d29 06bd 0c67 08be d42c 8ebd 2ea3 2ebe
00000060: aab4 85bd 9d0a 4bbe 7046 e2bd 2b54 f2bc
00000070: 21d5 123d 10f6 263e 8d0c 14bd b1a3 1cbe
00000080: 1cf5 f9bd 7cac 36be df3b 2cbe 9dd8 3f3e
00000090: 5bfe 4f3d 9b20 a03d e161 3e3e 3d00 a4bd
000000a0: d22a 5abe c9ce cc3d 4dea 37be f302 64bc
000000b0: fa0d 8c3d 5450 bdbd 41c8 19be 7201 273d
000000c0: 09a5 5cbe b0bd 4c3c 5957 5bbc 4640 d73d
000000d0: 4b64 19be 364e 1fbd 9690 1d3d 668e f93d
000000e0: 1c2a 363e c7f0 333d 2954 84bd 07db 5bbc
000000f0: 7088 dd3d 40f3 75bd 1645 373c 3081 fabd
-0.11339503 0.063867606 0.20874043 0.01515324 -0.16797395 -0.00770453 0.046740018 -0.018165233
-0.14641996 0.08389071 -0.11982471 -0.08868939 -0.1411067 -0.035202485 -0.22091337 -0.16831328
-0.021047927 0.18505119 0.11083684 -0.10242291 -0.032753993 -0.1332056 -0.06942144 -0.17054436
-0.065285996 -0.19828267 -0.11048591 -0.02958115 0.035847787 0.16304803 -0.03614478 -0.15296818
-0.12204954 -0.17839235 -0.16819714 0.18734975 0.05077968 0.07818719 0.18592025 -0.08007858
-0.21305397 0.10000379 -0.17960472 -0.013916719 0.06838603 -0.09243837 -0.15017797 0.040772863
-0.21547331 0.012496397 -0.0133875245 0.10510306 -0.14979665 -0.038892947 0.038467966 0.121853635
0.17789501 0.043930795 -0.06461365 -0.013418919 0.10817039 -0.060046434 0.011185905 -0.12231672

network.1.weight f4 [32, 64]
00000000: 3f2a 7abe 8385 24be 88e5 4e3d 0776 863e
00000010: 330c 563c 4b83 20bc 8bd0 aabd 69f8 8dbe
00000020: 5f76 9cbd a213 bd3d 172e 00be 1d15 7d3d
00000030: f2f2 dcbc 2503 81be 3950 d6bd 68cd a43e
00000040: 625b 113c 215c 62be 2ac0 8bbd c198 883e
00000050: 5697 27bc 512c 333d 18ff 1bbe 3e8c 81be
00000060: 2b46 c23d 145d 92bc ce4e e1bd ad31 b2bd
00000070: 1735 0e3e a60d 953d 7a1a bf3c 7e34 113e
00000080: 6c4b 1abe b0f8 6abe 89a6 a63e d960 f23d
00000090: 34ee 363e 1371 15be 73fc 5dbe 1a29 d1be
000000a0: 29f9 8d3d 87c6 8a3c c97c 45be 2491 83bd
000000b0: 0f29 a13d 8490 5d3e 200a 34be 2bd7 43be
000000c0: 4858 7ebe d969 7fbd 744d 4a3d d806 1cbe
000000d0: 29e5 15be 0155 ffbb 216c 5cbe bf7b 113e
000000e0: cdfd ec3d 7d51 f13d a848 8bbe 4b85 283e
000000f0: ebb7 923d 31d0 37be f28c 67be 9f0a f33d
00000100: c327 5a3e 541f f33d 9675 333e 4e3b 51be
00000110: a682 46bd d9fe acbc 85c6 45be da90 59bd
00000120: 3391 583d 7da5 0ebe 22d7 63bd b3b0 c0bd
00000130: 5385 13be 0ef2 bebc 2f8a 00bd 309c ba3c
00000140: c831 9cbd c970 5b3e a776 2b3e 98f5 74be
00000150: 07db 1cbd b1d9 9b3d d153 723e af29 5ebe
00000160: 90d0 8abd fe33 bcbd 28c9 c6bd ab40 723d
00000170: e82e 933d a893 1b3e 8e5d 883d 4f57 a1bd
00000180: 9aa7 cdba 0a5a dc3c 0162 f5bd 5a62 82bd
00000190: 9160 37be 870b 7b3c eb19 2d3e 2e69 73bc
000001a0: 84d6 acbe 02f0 963d 3635 873c 87db e33d
000001b0: 21b0 563e 566a 00be c36f 853c 4e46 b03d
000001c0: 8ccb f53c 070a 1c3c d68e 7a3b 5b6e 4dbd
000001d0: 04cc 88be bc72 89bd e2b5 953d 49fe 68be
000001e0: d0f1 3e3e 9168 1abe a3ca 543d 1d26 d5bd
000001f0: e869 11ba 71b7 cb3d 0501 3e3d e17b 52bd
00000200: fdba 5ebe 9ebe 193e a765 473e 7baa 163e
00000210: 89c0 fbbc b182 e5bc 8f02 47bd 75ac e83d
00000220: 971e 443e fc23 e8bd 8e7d 1cbc 7d5d 3d3e
00000230: 3126 e7bc 3bd3 cd3d 5213 be3d 3546 c73d
00000240: 8377 81be e112 8cbe b0ef 35be df68 403e
00000250: 588e e0bc 50de a3bd 091f 7e3e 3bdb 99bd
00000260: 6c25 b5bd 9507 46be 275e c2bd 7d1b 41bd
00000270: af44 1c3e 10b6 2fbc 14cc cabe 3167 31be
00000280: b56b 383d f4c8 9fbd 2680 863e 74d8 6d3e
00000290: b6c0 053e 0786 573e 5fad 703d 0d1e 8fbe
000002a0: 1561 8abc e7ea d2bd bb08 61be 731b 2d3e
000002b0: e09a 84be ed83 293e aa45 85bc 43f8 dbbd
000002c0: 9521 ae3d 956c 12be b781 aa3d 983a 973c
000002d0: 4cd1 343d f7ac 12bd 031c babe e751 aa3d
000002e0: a9a0 be3b 3c26 a63d 68c0 50be 24e1 24be
000002f0: de0a eb3d b8a4 3cbe c812 ffbd d74a 123e
00000300: c858 b9bd b8a2 0e3e 1004 0bbd 33c4 c73d
00000310: 2bb6 08be 0f48 26bd 00dc 1c3e c0b3 2dbd
00000320: c3e7 c93d 8267 7bbc 8751 90bd 4d6d 2ebd
00000330: 6bbd 25bd f25b 2bbd c92c 04bd 32d9 f53d
00000340: 38c1 3ebd 1ce6 b83b d25f 423d 0ee9 693d
00000350: 028e 6abe e4c1 163e 1cd8 10bc 78a9 b4bd
00000360: ff1b d6bd b0f3 a2bd e1fb c5bd f46d a5bd
00000370: eacf f43d 4307 9a3d 804f 13be ade8 0bbe
00000380: b981 e13d bf75 6fbe f832 ccbb fc3c 80be
00000390: d15c d0bd 5352 8c3d c72b 83be ab24 f8bd
000003a0: cca3 c5bd 916f 0dbe 9351 c0bd 8cce c23d
000003b0: 79de f2bc 93d3 01be 661b ca3c 8fba 263e
000003c0: e6f9 54be aa27 11bd 6c7c 61bd e804 66bd
000003d0: d44b acbc 24c5 8bbe 2a9d cc3d 41b2 79be
000003e0: 682e ab3d e818 f4bc 7889 d7bd 4faf 003e
000003f0: 9e80 8abd 7455 933d c90e cebd 6b9b 42bd
-0.24430178 -0.16066556 0.050511867 0.26261923 0.013064432 -0.009796928 -0.08340558 -0.27728584
-0.07639765 0.0923226 -0.12517582 0.061787713 -0.026971314 -0.25197712 -0.1046452 0.32187963
0.008871885 -0.22105457 -0.06823762 0.26679042 -0.010228952 0.043743435 -0.1523403 -0.2530231
0.0948604 -0.017866649 -0.11001359 -0.08700881 0.1388744 0.07277994 0.023328055 0.1418018
-0.15067834 -0.22946429 0.3254893 0.118348785 0.17864305 -0.14593916 -0.21678333 -0.4085167
0.06932289 0.016940368 -0.19285883 -0.06424168 0.078691594 0.2163716 -0.17581987 -0.19125049
-0.24838364 -0.062356804 0.04939027 -0.15236986 -0.14638199 -0.0077921157 -0.21525623 0.14207362
0.11571846 0.11783121 -0.2720387 0.16457097 0.07163986 -0.17950512 -0.2261236 0.1186726
0.2130423 0.1187121 0.17525324 -0.20432779 -0.04846444 -0.021117615 -0.1931401 -0.053116657
0.052872848 -0.13930316 -0.05562509 -0.09408703 -0.14406328 -0.02330878 -0.031381782 0.022779554
-0.076266825 0.21429743 0.16744481 -0.23921812 -0.03829482 0.07609881 0.23664786 -0.21695589
-0.067780614 -0.09189604 -0.09706336 0.059143703 0.07186681 0.15193045 0.06658469 -0.07877981
-0.0015690208 0.026898403 -0.119815834 -0.06366415 -0.17907931 0.015322573 0.16904418 -0.01485662
-0.33757412 0.073699966 0.016504865 0.11125856 0.20965625 -0.12540564 0.016288644 0.086071596
0.030004285 0.009523875 0.003823211 -0.05015407 -0.26718152 -0.06711337 0.07310082 -0.22753252
0.18646932 -0.15078951 0.051951062 -0.1040766 -0.00055470923 0.09947098 0.04638769 -0.05138767
-0.21751018 0.15014121 0.19472371 0.1471347 -0.030731456 -0.02801642 -0.048586424 0.113610186
0.19152294 -0.113349885 -0.009551419 0.18492694 -0.028216453 0.10050055 0.09281029 0.09730188
-0.25286493 -0.27358153 -0.17767215 0.18790005 -0.027411625 -0.08001387 0.24816526 -0.07512518
-0.08845028 -0.1933883 -0.094906144 -0.047145355 0.15260576 -0.010724559 -0.39608824 -0.1732452
0.045024592 -0.07802001 0.26269644 0.23227102 0.13061795 0.21047221 0.05875909 -0.27952614
-0.016891995 -0.1029871 -0.21975987 0.16905002 -0.2589941 0.16554232 -0.01626857 -0.107407115
0.08502499 -0.14299233 0.083255224 0.018460557 0.044144914 -0.035809483 -0.36349496 0.08316403
0.005817492 0.081127614 -0.20385897 -0.1610151 0.11476682 -0.1842221 -0.12454754 0.14286362
-0.09050137 0.1392926 -0.03393942 0.09754219 -0.13350742 -0.040596064 0.15318298 -0.04240775
0.09858658 -0.015344502 -0.070468 -0.042584706 -0.040463846 -0.041835733 -0.032269273 0.12004317
-0.046570987 0.0056426656 0.047454663 0.057107024 -0.22905734 0.14722401 -0.008840587 -0.08821386
-0.104545586 -0.07956636 -0.09667183 -0.080776125 0.11953719 0.07520916 -0.14385796 -0.13662978
0.11011071 -0.2338476 -0.006231662 -0.25046527 -0.10173953 0.068516396 -0.25619337 -0.12116369
-0.096503824 -0.1381209 -0.09390559 0.09512052 -0.029647099 -0.12678365 0.024671268 0.16282104
-0.20798454 -0.035438217 -0.0550503 -0.056157023 -0.021032251 -0.27298844 0.09990914 -0.24384405
0.08358461 -0.029797032 -0.10524267 0.12566875 -0.06762813 0.07194033 -0.10061414 -0.0475115

network.1.bias f4 [32]
00000000: 440e 443b 6dfe 16be 348b be3d 7029 013e
00000010: bd4a 1abe ae14 193d 5131 d53c 4899 ecbc
00000020: 108e 1dbe 8ed1 efb9 fc24 95bd e2fa c43c
00000030: 5c82 92bb e143 d93c ef0d 263e 15f9 20bc
00000040: 5a4f 173d ba28 ffbd 07c5 9f3d c2ff af3d
00000050: 947b 25be 1076 89bd 262c 273e 414d 4b3d
00000060: fa22 e43c 68b5 31bc 1fa6 5e3c cd8b 863d
00000070: b2dc 23ba 4ea7 6d3d dc1c cabd 9d80 74bd
0.002991573 -0.14745493 0.09303895 0.12613463 -0.15067573 0.037373237 0.026024492 -0.028881684
-0.15386224 -0.00045741763 -0.07282445 0.024045411 -0.0044711065 0.026521625 0.16216253 -0.009825011
0.03694091 -0.1245894 0.07801252 0.08593704 -0.16160423 -0.06711972 0.16325435 0.049634222
0.02784871 -0.010846473 0.013589411 0.06569634 -0.00062508427 0.058020882 -0.09868786 -0.059692968

network.2.weight f4 [4, 32]
00000000: 1ec9 16be 44b5 353e fff9 87be 184f 99be
00000010: 9a92 11be 024c 8fbe 7c83 01be 0e92 993e
00000020: e6ea 62be e6b8 20be d179 21be 0ca2 30be
00000030: e999 a3bb 7f7b 66be b313 3c3e a027 963e
00000040: 59df d43d 5cac 85bd ee27 363e 4f49 c23d
00000050: eace a6bd 0300 943e 3bbc 4b3e c0fb 733e
00000060: 8b71 643e c9b1 73be 5de9 a5bd 8ca0 9a3e
00000070: 826d a53e 54ca 803e ae8b 6ebe d8c4 4fbd
00000080: d8eb af3e 8124 753d 1eff 273e 3f3d c53d
00000090: b667 2ebd 4c05 863d 45c0 ef3d 0a67 88be
000000a0: 71ee 153d 9b85 4a3e 2d50 c13d 75f9 823e
000000b0: af8e 2ebe 040d 29be 3eea 09bf e003 6abe
000000c0: f0ef 93be 8d76 3c3e d682 c8bd 52ff 18be
000000d0: 9943 983d efdc 78bd 7187 783c 9e7b bdbe
000000e0: ca6d c13d f152 f8bd 317b e83d 5a98 adbe
000000f0: 7cc9 e3be 34f7 34be 3b18 103e 9bd3 17be
00000100: bf58 e73d 004a 57be e8f9 73bd 8e44 8fbc
00000110: 2844 25bd 948c 04bc ee56 da3d 3cbe 3fbe
00000120: 9490 a63e 71d5 32be 3d62 1abe 4a38 a03d
00000130: cdf6 f4bd 9647 803d d024 183e 6148 4b3c
00000140: 6fff 65be f4e7 a6bd b6e6 4fbe 8ee9 b0bd
00000150: 1850 0b3e 1605 50bc 3b46 7fbe 671d 25be
00000160: a5e3 79bd d232 333c 989a e6bd 718b 28bd
00000170: 9770 02bf ad7b d6bc 9a96 0a3d f973 5bbd
00000180: a5ee 693e e707 26be f482 3b3e f242 9abd
00000190: 4a2b 72bd 42f6 123e d9f3 f23d 6804 25be
000001a0: f82b 2c3d d13a 57be 5d1a 8abd 15a5 66bd
000001b0: a970 663e cf4e 043b d6be 4dbd f40e 53be
000001c0: 4ab3 e5bd f50f 103e 1d85 ec3d 3f3d 403d
000001d0: bf67 bcbd ca2d b8bd ec2c 763e e8e6 f0bb
000001e0: c8a2 8fbe 29b2 dabc 3eaa 6abe 69b1 823d
000001f0: 5c03 dc3d 965e 8d3c fbc0 833d f904 c43d
-0.14725158 0.17744929 -0.2655792 -0.29943156 -0.1421608 -0.27987677 -0.12647814 0.29994243
-0.22159919 -0.15695533 -0.15769126 -0.17249316 -0.0049927128 -0.22508048 0.1836689 0.29327106
0.10394163 -0.065270156 0.1778867 0.09486639 -0.081449345 0.2890626 0.19896023 0.23826504
0.22308938 -0.23798288 -0.08101151 0.30200613 0.3231011 0.25154364 -0.23295471 -0.050724834
0.34359622 0.059849266 0.16405913 0.096308224 -0.042579375 0.06543979 0.117065944 -0.26641113
0.03660435 0.19777529 0.094391204 0.25580946 -0.17046617 -0.16508871 -0.5387305 -0.2285304
-0.28893995 0.18404599 -0.0979058 -0.14941147 0.07434768 -0.060757574 0.0151690105 -0.37008375
0.09444769 -0.12125195 0.11351622 -0.33905298 -0.44489658 -0.17672426 0.14071743 -0.14826815
0.11296224 -0.21024323 -0.0595645 -0.017488744 -0.040348202 -0.008090157 0.10661112 -0.18724912
0.3253218 -0.17464234 -0.15076537 0.07823236 -0.11961136 0.06263654 0.14857793 0.012407393
-0.22460721 -0.0814971 -0.20302853 -0.08638297 0.13604772 -0.012696525 -0.24929135 -0.16124497
-0.061008114 0.0109374095 -0.11259955 -0.041148607 -0.5095305 -0.02618202 0.03383503 -0.053577397
0.22844942 -0.16213952 0.18311673 -0.075323 -0.059123315 0.14351752 0.118629165 -0.16114962
0.04203412 -0.2101853 -0.0674331 -0.05630978 0.22503914 0.0020188575 -0.050230823 -0.20611173
-0.11215837 0.14068587 0.11548827 0.04693341 -0.091994755 -0.089931086 0.24040574 -0.007351745
-0.2805388 -0.026696282 -0.22916505 0.063814946 0.10742828 0.017257016 0.064332925 0.09571261

network.2.bias f4 [4]
00000000: 6370 c0bc 0b9e b93c af32 923c f9a9 9fbc
-0.02349109 0.022658369 0.017846433 -0.019490229
