data/network-weights/default_at_10.pth (torch_old, 19706 bytes, 6 tensors)

network.0.weight f4 [64, 37]
0	0x3e362689	0.17788137
1	0x3d6ae681	0.057348732
2	0xbc6d5396	-0.0144852605
3	0x3e31b770	0.17355132
4	0xbebcce4c	-0.36876142
5	0x3e57ae68	0.21062624
6	0xbccf27be	-0.025287505
7	0x3c87ca06	0.016575824
8	0xbd0fba93	-0.03509004
9	0xbf48df31	-0.78465563
10	0x3d3a7628	0.04552284
11	0x3ddd0a15	0.107929386
12	0x3e37f1fe	0.17963406
13	0xbc8c1639	-0.01710044
14	0x3e51102c	0.20416325
15	0x3e039997	0.12851559
16	0x3e767c50	0.24070859
17	0xbe424522	-0.18971685
18	0xbec9977c	-0.39373386
19	0xbec3a3b5	-0.38210836
20	0xbca0347e	-0.01955628
21	0x3ddbd283	0.10733511
22	0xbda3a2a8	-0.079900086
23	0xbe35c7fa	-0.17752066
24	0x3e26b40c	0.1627962
25	0x3efa0554	0.4883219
26	0xbf8ecb70	-1.1155834
27	0xbf44f99a	-0.7694336
28	0xbec9d692	-0.39421517
29	0xc0183750	-2.378376
30	0x3e20daae	0.1570842
31	0xbde5b705	-0.11216549
32	0x3e0cf3e2	0.13764909
33	0x3dd494c5	0.10379938
34	0x3e6e4d67	0.23271714
35	0x3dc81c02	0.09770967
36	0x3ce0fef4	0.027465321
37	0x3cb101a4	0.021607228
38	0x3dbf814a	0.09350832
39	0x3d5cfd40	0.053952456
40	0xbcd17015	-0.02556614
41	0xbcf6f85a	-0.03014772
42	0x3ec27f7b	0.37987885
43	0x3da0151b	0.078165255
44	0xbe21fa47	-0.1581813
45	0xbea1d8ff	-0.31610867
46	0xbfa36e63	-1.2768062
47	0xbe8b282a	-0.2717908
48	0x3e6e9233	0.23297958
49	0x3e2b1404	0.16706854
50	0xbdcb4863	-0.09925916
51	0xbdc7c232	-0.09753837
52	0xbe5a68fe	-0.21329114
53	0x3e799eb7	0.24376951
54	0x3e00cfc4	0.12579256
55	0x3ded4c75	0.11586849
56	0x3d2d4d11	0.042309824
57	0xbd959eba	-0.07305665
58	0x3de9540a	0.11392982
59	0x3de715ac	0.112834305
60	0x3e1c491a	0.15262261
61	0xbe6c055f	-0.23048924
62	0xbcbc8300	-0.023011684
63	0x3cf13235	0.029442886
64	0x3e0d0763	0.13772349
65	0x3e4e211a	0.20129815
66	0x3eb7dd4c	0.35911024
67	0xbe488dfa	-0.1958541
68	0x3e45adcc	0.1930458
69	0xbdb9ee66	-0.09078674
70	0x3e4fd212	0.20294979
71	0x3e244b31	0.16044308
72	0x3d0b686e	0.03403514
73	0x3d1b2490	0.037876666
74	0x3db1aae8	0.08675176
75	0xbed33679	-0.41252497
76	0xbe5ba61a	-0.21450081
77	0xbe0b435c	-0.13599914
78	0xbe9e9b65	-0.30977932
79	0x3eb1eb7e	0.3474998
80	0xbf0ac74b	-0.54210347
81	0xbf129987	-0.57265514
82	0xbebc5a37	-0.36787578
83	0xc008a76b	-2.1352184
84	0x3e7df4a1	0.2480035
85	0xbdc18585	-0.09449295
86	0xbe07fca1	-0.13279964
87	0xbed43bf0	-0.4145198
88	0xbe36ff0f	-0.17870735
89	0x3e1125eb	0.14174621
90	0xbd5d1b28	-0.053980976
91	0xbe79f9bf	-0.24411677
92	0xbebb9378	-0.36635947
93	0xbdd244af	-0.102670066
94	0xbb5fb5f8	-0.0034135561
95	0xbe8f5146	-0.27991694
96	0xbd8b8951	-0.068133004
97	0xbe76f09f	-0.24115227
98	0xbecf9fa9	-0.405515
99	0xbe160f89	-0.14654364
100	0xbe8e4c3b	-0.27792534
101	0xbe665762	-0.22494271
102	0xbf0649b1	-0.52456194
103	0xbf2926f1	-0.66075045
104	0x3e1b0e2e	0.15142128
105	0xbecf6ad3	-0.40511188
106	0xbe7bd635	-0.24593432
107	0xbead7725	-0.33879963
108	0xbee0c1f8	-0.43897986
109	0xbd4f66ac	-0.050635025
110	0x3dd7e39f	0.10541462
111	0xbe2fb3f0	-0.17158484
112	0x3dab1f29	0.08355553
113	0xbe158f1a	-0.1460537
114	0xbdf6b43a	-0.12046094
115	0xbcdb7dfb	-0.02679347
116	0xbe5f14c3	-0.21785264
117	0xbec1be83	-0.3784066
118	0xbd8f25e3	-0.06989648
119	0x3ec8d873	0.39227638
120	0x3f9b90df	1.2153586
121	0xbdc52d4a	-0.09627779
122	0x3cab896f	0.020939557
123	0xbe81a23a	-0.25319082
124	0xbc3c1eb7	-0.011481932
125	0x3d7f1131	0.062272254
126	0xbdc836b9	-0.097760625
127	0xbe0f1204	-0.13971716
128	0x3d6411e1	0.055681113
129	0x3ced5bdf	0.028974472
130	0x3e57d204	0.21076208
131	0x3d89f670	0.06736457
132	0xbdff038f	-0.124518506
133	0xbe0724a1	-0.13197567
134	0xbe3d25ee	-0.184715
135	0xbc575e86	-0.013145095
136	0xbe804534	-0.25052798
137	0xbe85f238	-0.2616136
138	0x3d2e3300	0.042529106
139	0x3e145fe7	0.14489709
140	0x3e931847	0.2872946
141	0x3ca326e3	0.019916004
142	0xbe9d88e0	-0.3076849
143	0xbe64fe55	-0.22362645
144	0xbe7448f5	-0.23855956
145	0xbe179f7d	-0.14806934
146	0x3edbeed1	0.4295564
147	0x3dcfec9f	0.10152554
148	0x3ecfd852	0.40594727
149	0xbf098a81	-0.53726965
150	0xbda37c4c	-0.07982692
151	0xbe25ef93	-0.16204672
152	0xbf4d35de	-0.8016032
153	0xbed51832	-0.41620022
154	0x3e808177	0.25098774
155	0xbe8d0f91	-0.2755094
156	0x3e530967	0.20609055
157	0xbf384892	-0.71985734
158	0xbe2612e5	-0.16218145
159	0xbbc24de6	-0.0059296964
160	0x3d77616e	0.06039565
161	0x3d4b857c	0.049687847
162	0xbd8a8553	-0.06763711
163	0x3e10a628	0.14125884
164	0x3c821f83	0.015884167
165	0xbf0d761f	-0.55258363
166	0xbf075776	-0.5286783
167	0xbf730720	-0.94932747
168	0xbe5a6aea	-0.21329847
169	0x3df07f91	0.11743081
170	0xbbca73b7	-0.006178345
171	0xbe78a26d	-0.2428071
172	0x3e3c860f	0.18410514
173	0x3e83cf73	0.2574421
174	0xbec59a2a	-0.3859418
175	0xbf0b057c	-0.54305243
176	0xbf3e12f4	-0.7424767
177	0xbfcdd338	-1.6080084
178	0x3d45cfef	0.048294004
179	0xbe522fc6	-0.20526037
180	0xbd253fbb	-0.04034398
181	0xba9f2eb0	-0.0012144651
182	0xbe40c8c2	-0.18826583
183	0x3dd7b1c5	0.10531954
184	0x3dadc8c2	0.08485557
185	0x3e487cca	0.19578853
186	0xbe28ab8d	-0.16471691
187	0xbd7a7343	-0.06114508
188	0xbd434d32	-0.04768104
189	0xbedb99bf	-0.42890736
190	0x3dbfe4d8	0.0936982
191	0xbe658aa8	-0.22416174
192	0xbe85c7f8	-0.26129127
193	0xbe33324c	-0.17499655
194	0xbfac6421	-1.3468057
195	0xbdd53918	-0.104112804
196	0xbd1404d1	-0.036137406
197	0xbd2c7969	-0.042107973
198	0xbde05dd2	-0.10955395
199	0x3da5485d	0.08070443
200	0xbd0dcfca	-0.03462199
201	0xbe7ba181	-0.24573328
202	0x3d96ee77	0.07369702
203	0xbebffd2f	-0.3749785
204	0xbeef2ba6	-0.4671299
205	0xbc9417d9	-0.018077778
206	0xbeb41d9c	-0.3517884
207	0xbe81fbd7	-0.2538745
208	0x3d1226fb	0.035681706
209	0xbcb3087c	-0.021854632
210	0x3de94032	0.113891974
211	0xbdf9c265	-0.12195281
212	0xbedf49cd	-0.43610993
213	0xbe00ef44	-0.12591273
214	0xbf97701a	-1.1831086
215	0x3deffa00	0.117176056
216	0x3de5e062	0.11224438
217	0xbe0cdf1c	-0.13756984
218	0xbd1571ef	-0.03648561
219	0x3d3c2766	0.04593601
220	0xbe1f69af	-0.15567659
221	0x3d8f9ee2	0.07012726
222	0x3d011be3	0.031520735
223	0xbdb1c4f4	-0.08680144
224	0xbd637131	-0.05552787
225	0x3d9e0a72	0.07716836
226	0x3d4b5fe3	0.04965199
227	0x3f0019aa	0.5003916
228	0xbf7dcfcb	-0.9914519
229	0xbf2defac	-0.67943835
230	0xbf3109ca	-0.6915556
231	0xc017f068	-2.3740482
232	0x3e51e00c	0.20495623
233	0x3dcdbcde	0.10045789
234	0xbd1d862f	-0.038458046
235	0xbd2b92c6	-0.04188802
236	0xbc020e2d	-0.00793795
237	0xbd20243a	-0.03909705
238	0xbd989afa	-0.074514344
239	0xbe04d4c8	-0.12971795
240	0xbe005d2f	-0.12535547
241	0xbc9cf863	-0.019161409
242	0x3babecbb	0.0052467263
243	0xbdaf8a31	-0.0857128
244	0xbdf11c8a	-0.117730215
245	0x3c49937b	0.0123032285
246	0xbde34aca	-0.11098249
247	0x3d93f1c6	0.07223849
248	0x3dd1f11a	0.102510646
249	0xbcf94e63	-0.030432886
250	0xbe8aa6fe	-0.2708053
251	0xbe689d70	-0.22716308
252	0x3def53ad	0.11685882
253	0xbc862c44	-0.01637853
254	0xbdf4dab3	-0.11955776
255	0xbef3999e	-0.47578138

network.0.bias f4 [64]
0	0x3e381fc3	0.17980866
1	0x3e8845e6	0.26615828
2	0x3e435e7e	0.19079015
3	0xbe2dded5	-0.16979535
4	0x3da3354b	0.07969149
5	0xbdbd949e	-0.09256862
6	0x3e4248f9	0.1897315
7	0xbd8c9c12	-0.068657055
8	0xbe8964bf	-0.26834676
9	0x3d695d68	0.056973845
10	0xbd99eaa6	-0.07515459
11	0xbdafc91a	-0.08583279
12	0xbdf6010d	-0.12011919
13	0xbdbb1956	-0.09135692
14	0xbe4e9c4c	-0.2017681
15	0x3dfdf92c	0.124010414
16	0x3db887f9	0.0901031
17	0x3dbbe1b7	0.09173911
18	0x3e35181c	0.17684978
19	0xbcfa08de	-0.030521806
20	0x3df5da14	0.12004486
21	0xbe0fae6e	-0.14031383
22	0xbe6384f5	-0.22218688
23	0xbda8e949	-0.082476206
24	0xbd3a26ca	-0.04544715
25	0xbddd9039	-0.10818524
26	0xbd9be0bb	-0.07611223
27	0xbe863d5b	-0.26218686
28	0x3e8ee9f9	0.27912882
29	0x3e7ab2b2	0.2448223
30	0xbdc8eb1c	-0.098104686
31	0xbde3388d	-0.110947706
32	0xbd9e3dca	-0.07726629
33	0xbe2ef599	-0.17085876
34	0xbdbbcc55	-0.091698326
35	0x3da42067	0.08013993
36	0x3e265924	0.16244942
37	0xbdaf3c16	-0.08556382
38	0x3e7526d2	0.2394059
39	0xbe7e343e	-0.24824616
40	0xbd29982a	-0.04140488
41	0x3e8016f8	0.25017524
42	0x3cbe7b24	0.023252077
43	0x3c1ef875	0.009702791
44	0x3d8ba1a1	0.06817938
45	0xbdd7eb8d	-0.105429746
46	0xbe6dc2b6	-0.23218808
47	0x3e5c3539	0.21504678
48	0xbe03b1c4	-0.12860781
49	0x3db8828b	0.09009274
50	0xbb222387	-0.0024740414
51	0x3e0e385e	0.1388869
52	0xbe099ae9	-0.13438
53	0x3d93c136	0.072145864
54	0x3e15aa88	0.14615834
55	0x3e19488f	0.14969085
56	0x3e8cf12b	0.27527747
57	0x3d90f118	0.07077235
58	0xbd1fa6d0	-0.038977444
59	0xbcb594ca	-0.022165675
60	0xbb4aec07	-0.0030963437
61	0xbd6ff90d	-0.058587123
62	0x3de5effa	0.112274125
63	0xbe8d0b4f	-0.2754769

network.1.weight f4 [32, 64]
0	0x3d8368b1	0.06416453
1	0x3d9e87d7	0.07740753
2	0x3eb8c513	0.36087856
3	0x3ddda567	0.108225636
4	0x3e1c3d4b	0.15257756
5	0x3f0b02e1	0.5430127
6	0x3eae0ee1	0.33995727
7	0xbe33606e	-0.17517254
8	0x3dc228d8	0.094804466
9	0xbbda8214	-0.0066683386
10	0x3e23146e	0.15925762
11	0xbe191f70	-0.14953399
12	0xbd9b38a5	-0.075791635
13	0x3df9ca4f	0.121967904
14	0xbe781294	-0.24225837
15	0x3e6ffa00	0.23435211
16	0xbe01a4c0	-0.12660503
17	0xbe5d9297	-0.21637951
18	0x3e80f653	0.2518793
19	0xb98f92c3	-0.0002738443
20	0x3e232cc4	0.15935045
21	0xbe875cb9	-0.2643793
22	0xbdb527f1	-0.08845509
23	0x3caabe29	0.020842629
24	0x3e9eee01	0.31040958
25	0x3e32f36d	0.17475672
26	0x3f0d6193	0.5522701
27	0xbe4513ba	-0.19245806
28	0x3e5e26a7	0.21694432
29	0x3e367471	0.17817856
30	0x3c004f74	0.007831443
31	0x3e37d3d7	0.17951904
32	0x3ea12a1c	0.3147744
33	0xbe218fd9	-0.1577753
34	0x3e8ed5fe	0.27897638
35	0xbe4a6209	-0.1976396
36	0x3e5d8616	0.21633181
37	0xbedbb1f9	-0.4290922
38	0x3d207e4f	0.039182957
39	0xbdba6596	-0.09101407
40	0x3eb760a1	0.3581591
41	0x3e8157c7	0.2526228
42	0xbdd1754e	-0.10227452
43	0xbdf2e466	-0.1185997
44	0x3ecb46cc	0.3970245
45	0x3d1064a7	0.03525224
46	0xbd8b49e6	-0.068012044
47	0x3c86499b	0.01639252
48	0xbd487579	-0.048940156
49	0x3e28dba1	0.16490032
50	0x3c1b1ee0	0.00946781
51	0x3e3c4f8a	0.18389717
52	0xbe605ec0	-0.21911144
53	0x3ce8e69c	0.028430276
54	0xbe52cfeb	-0.20587127
55	0x3eab3950	0.33442163
56	0xbd047a49	-0.032343183
57	0x3ef5a81a	0.47979814
58	0xbd6f64ff	-0.058445927
59	0x3ecd442f	0.40091082
60	0xbc5f0ddd	-0.013614145
61	0xbf06d0b3	-0.526622
62	0x3dc50e04	0.09621814
63	0xbe08c230	-0.13355327
64	0x3b73af12	0.0037183207
65	0x3e8a2812	0.26983696
66	0x3e40b70e	0.1881983
67	0xbcd06571	-0.025438996
68	0x3e1342d7	0.14380966
69	0x3cdb6d84	0.02678562
70	0x3e14cecf	0.14532016
71	0xbdfece79	-0.12441725
72	0xbe91c605	-0.2847139
73	0xbdcf58a9	-0.101243325
74	0xbdfd7445	-0.12375692
75	0x3da60854	0.08107057
76	0xbbd4c34e	-0.0064930087
77	0x3bac216a	0.0052530067
78	0xbeba535e	-0.3639173
79	0x3eaa839f	0.33303544
80	0xbd416bcd	-0.047221947
81	0x3dbdd033	0.092682265
82	0x3f026cff	0.50947565
83	0xbe0a7f98	-0.13525236
84	0x3c9fce27	0.01950748
85	0xbe37d372	-0.17951754
86	0x3e5b8009	0.2143556
87	0x3db91fba	0.090392545
88	0xbb5c64cb	-0.0033629413
89	0x3b9aa42f	0.0047192792
90	0x3e8b5e0c	0.2722019
91	0x3d82ffbe	0.06396435
92	0xbe207b9d	-0.15672155
93	0x3ec726df	0.38896844
94	0xbe3f1cb9	-0.186633
95	0x3cbf745c	0.023370914
96	0x3df236fb	0.11826893
97	0x3d928dcb	0.07155951
98	0x3e6528e9	0.22378887
99	0xbebaa5dd	-0.3645467
100	0x3ccebb24	0.02523572
101	0xbe3ce5db	-0.18447058
102	0x3e36699e	0.17813727
103	0xbdc524c1	-0.09626151
104	0x3da29933	0.07939377
105	0x3f006c01	0.501648
106	0xbe694a71	-0.22782303
107	0xbea95fb8	-0.3308084
108	0x3d2b96f4	0.041892007
109	0xbe337ff8	-0.17529285
110	0xbe5f855d	-0.21828218
111	0x3ea77f73	0.32714424
112	0xbd4699b3	-0.048486423
113	0xbd032abd	-0.03202318
114	0xbe2e4ede	-0.17022273
115	0xbda84812	-0.08216871
116	0xbe307208	-0.17231
117	0x3ec26e22	0.3797465
118	0xbdca40de	-0.09875654
119	0x3d22f0d3	0.03978045
120	0x3e7daee3	0.24773745
121	0x3def8e77	0.11697095
122	0xbe0cf814	-0.1376651
123	0x3aabd831	0.0013110695
124	0x3da8aa40	0.082355976
125	0xbcc8cfa2	-0.02451307
126	0xbd231aa8	-0.039820343
127	0xbd55d7c4	-0.052207723
128	0x3e96949b	0.29410252
129	0xbdf00794	-0.117201954
130	0xbd857809	-0.065170355
131	0xbdb7dbf3	-0.08977499
132	0x3f04c0d0	0.5185671
133	0xbddbb9b1	-0.10728777
134	0xbe58b1bb	-0.21161549
135	0xbd7a7d9c	-0.061154947
136	0xbe3de428	-0.18544066
137	0xbe9fd4f1	-0.3121715
138	0x3eb1b140	0.34705544
139	0xbe972405	-0.29519668
140	0xbcbd468c	-0.023104928
141	0xbe2aa4cd	-0.16664429
142	0x3dca609c	0.09881708
143	0xbeb22832	-0.34796292
144	0xbd6de945	-0.05808379
145	0xbcdf39e9	-0.027249293
146	0xbe8d1552	-0.2755533
147	0x3e0d7acf	0.13816379
148	0xbdd529d2	-0.10408367
149	0xbdf1628d	-0.11786375
150	0x3df92d03	0.121667884
151	0xbbe35042	-0.0069370577
152	0xbea3a5e3	-0.319625
153	0x3e14db42	0.14536765
154	0xbdf06b28	-0.117391884
155	0xbd68dd32	-0.056851573
156	0x3ef4c3f2	0.47805744
157	0xbe39bd3a	-0.1813859
158	0xbc7a5169	-0.015278199
159	0xbe498692	-0.19680241
160	0xbe36ade2	-0.17839769
161	0xbd45bfaf	-0.048278507
162	0xbd6dda97	-0.05806979
163	0x3c25e1a9	0.010124602
164	0x3f094d6c	0.5363376
165	0x3e26f4b1	0.1630428
166	0x3e7cf11c	0.24701351
167	0xbdaa9a2c	-0.08330187
168	0xbe8d7410	-0.2762761
169	0xbe7e4793	-0.24831991
170	0x3df709aa	0.1206239
171	0xbd3f4854	-0.046699837
172	0x3e83e714	0.25762236
173	0x3d8ce2ba	0.06879182
174	0xbda8cf34	-0.08242646
175	0xbdcb7e7a	-0.09936233
176	0xbe4679bf	-0.1938238
177	0xbeb29960	-0.3488264
178	0x3e9c3331	0.30507806
179	0x3d4cfa2c	0.05004327
180	0x3dbfa8f3	0.093583964
181	0xbdc3516a	-0.09537013
182	0xbe44a2a3	-0.19202666
183	0xbd049445	-0.032367963
184	0xbdfa2969	-0.122149296
185	0xbdb502fb	-0.08838459
186	0xbe062746	-0.13100919
187	0x3d74dc7a	0.059780575
188	0x3e520a0f	0.2051165
189	0xbe2d796a	-0.16940847
190	0xbec92781	-0.39287952
191	0x3e7404c1	0.23829938
192	0xbd822b68	-0.06355935
193	0x3e1be267	0.15223084
194	0xbe1ad157	-0.1511892
195	0xbe15fa6c	-0.1464631
196	0x3eeff6b7	0.46867916
197	0xbe72cdae	-0.23711273
198	0xbe6cbf66	-0.23119888
199	0xbd39ef9a	-0.045394517
200	0xbe51eb49	-0.2049991
201	0x3db7b248	0.08969551
202	0x3e4a2126	0.19739208
203	0xbd158058	-0.03649935
204	0x3d831a9b	0.06401559
205	0xbdb0724e	-0.08615552
206	0xbe8a214d	-0.2697853
207	0x3d8c43cc	0.06848869
208	0xbc50261b	-0.012704398
209	0x3e5f77ea	0.21823087
210	0x3d072489	0.032993827
211	0x3eefc07f	0.4682655
212	0xbdcfcae1	-0.10146118
213	0xbd484bf7	-0.04890057
214	0xbcb06f1d	-0.021537358
215	0x3d9cc020	0.076538324
216	0x3ebd9a1d	0.37031642
217	0x3ca2ba56	0.019864243
218	0xbdd03a38	-0.10167354
219	0x3e2c273c	0.16811842
220	0x3e1752b9	0.1477765
221	0x3de8cfd0	0.11367762
222	0xbd5ada03	-0.05343057
223	0xbc0c6ed7	-0.008571348
224	0x3dcfed3d	0.101526715
225	0xbe81cd35	-0.25351873
226	0x3e897e86	0.26854342
227	0x3d98830a	0.07446869
228	0x3d5b9648	0.053610116
229	0x3dba0758	0.09083432
230	0x3cc70930	0.024296373
231	0x3e77aefc	0.24187845
232	0xbdb92e8f	-0.090420835
233	0xbf066ee9	-0.52512985
234	0xbe0bddcb	-0.13658826
235	0x3e850c8d	0.25986138
236	0x3e4b7a1d	0.19870801
237	0xbe5756bf	-0.21029185
238	0xbcbc0f77	-0.022956593
239	0x3ea6a5c4	0.32548344
240	0xbc98219d	-0.018570716
241	0xbdb3ca0a	-0.0877877
242	0x3e8e25a3	0.2776309
243	0x3c40c94f	0.011766746
244	0x3e1b2a03	0.15152745
245	0xbec79a90	-0.3898511
246	0x3d5d9d8c	0.054105327
247	0x3986217c	0.0002558342
248	0x3e026aec	0.127361
249	0xbd5d1d49	-0.053983007
250	0xbd5ca305	-0.053866405
251	0x3eca04d1	0.394568
252	0xbda3717b	-0.07980629
253	0x3e2bfb18	0.16795003
254	0x3bc8b3cb	0.0061249486
255	0x3e90aa3a	0.28254873

network.1.bias f4 [32]
0	0xbd61a5dd	-0.05508982
1	0x3cfa7965	0.030575464
2	0x3d9a9c05	0.075492896
3	0x3e51bba7	0.2048174
4	0xbe34c2dc	-0.17652458
5	0xbde8e363	-0.113714956
6	0x3e1037f1	0.1408384
7	0xbe032382	-0.12806514
8	0xbe34cb18	-0.17655599
9	0x3ce4eaea	0.027944047
10	0x3cbb7b24	0.022885866
11	0xbbd765d1	-0.0065734168
12	0x3cd8f582	0.026484255
13	0xbbc8462e	-0.0061118817
14	0xbdd4988c	-0.103806585
15	0xbda27a13	-0.0793344
16	0x3dcbfc2f	0.099602096
17	0xbdb7b2cc	-0.0896965
18	0x3c9e6faa	0.019340355
19	0x3e9cf380	0.30654526
20	0xbe23011a	-0.15918389
21	0xbdc7dce8	-0.097589314
22	0x3c15e4bd	0.009148774
23	0xbe1945a9	-0.1496798
24	0xbd596322	-0.053073056
25	0xbe2336ee	-0.15938923
26	0xbd337f5c	-0.04382263
27	0xbdba8c7e	-0.09108828
28	0xbd4bf332	-0.049792476
29	0x3e094d3c	0.13408369
30	0xbd7bc08e	-0.06146293
31	0x3e155698	0.14583814

network.2.weight f4 [4, 32]
0	0xbce4f632	-0.027949426
1	0x3e9f3bc2	0.3110028
2	0xbea7b3ff	-0.32754514
3	0xbf114654	-0.5674794
4	0xbe348ee3	-0.17632632
5	0xbdfd878d	-0.1237937
6	0xbde9f50a	-0.114236906
7	0x3e84f474	0.25967753
8	0x3cb77c45	0.022398124
9	0xbe854eee	-0.2603678
10	0xbe85d8ee	-0.26142067
11	0xbdf7c99e	-0.12099002
12	0x3d927c0b	0.071525656
13	0xbe0100e6	-0.12597999
14	0x3eab1f77	0.33422443
15	0x3eef348f	0.46719787
16	0x3e3cd527	0.18440686
17	0x3e926d53	0.28599033
18	0x3e83341f	0.25625703
19	0x3deb004d	0.11474667
20	0x3b8d99f1	0.0043213298
21	0x3f21c296	0.6318754
22	0x3e048255	0.12940343
23	0x3e93084c	0.28717268
24	0x3e884de3	0.26621923
25	0x3e9827dd	0.29717913
26	0xbed20824	-0.41021836
27	0x3f0a80b4	0.54102635
28	0x3e50e448	0.20399582
29	0x3ea03bd7	0.31295654
30	0xbd0e5b3b	-0.034754973
31	0xbd466215	-0.048433382
32	0x3f02a874	0.5103829
33	0xbdc98197	-0.098391704
34	0xbed8d752	-0.42351776
35	0x3e4de84b	0.20108144
36	0x3dfae224	0.12250164
37	0xbdca8ba5	-0.09889916
38	0xbf0b7b65	-0.5448516
39	0xbcf0652d	-0.02934512
40	0x3e59d9da	0.2127451
41	0x3e4c911d	0.19977231
42	0xbe7d7a9f	-0.24753807
43	0x3e2b235e	0.1671271
44	0xbef15ad4	-0.4713961
45	0xbdf585a4	-0.119883806
46	0xbf51930f	-0.8186502
47	0xbeb14e8a	-0.34630233
48	0xbe4a65b6	-0.19765362
49	0xbd681935	-0.056664664
50	0x3c3254ad	0.010884446
51	0xbd637eeb	-0.05554096
52	0x3ea306b5	0.31841055
53	0xbea6e0a5	-0.32593265
54	0x3cfe8d90	0.031073362
55	0xbd3b326d	-0.045702387
56	0x3e03928e	0.12848875
57	0x3ce017a0	0.027355015
58	0xbf6b4087	-0.91895336
59	0xbeaeffab	-0.34179434
60	0x3dd15cad	0.102227546
61	0xbeb94c47	-0.36191007
62	0x3dc99b9f	0.098441355
63	0xbf9b6f4a	-1.2143338
64	0xbe8d25eb	-0.27567992
65	0xbe42d4cb	-0.19026487
66	0xbf1ec2de	-0.62016094
67	0xbd5f66c0	-0.05454135
68	0x3d434227	0.04767051
69	0xbd91ef5d	-0.07125733
70	0x3ed17281	0.40907672
71	0xbdd41048	-0.10354668
72	0x3ebc448d	0.3677105
73	0xbdabbe15	-0.08385865
74	0xbf0e468f	-0.55576414
75	0x3df38208	0.11890036
76	0x3e83a187	0.25709173
77	0x3d958f62	0.07302739
78	0xbdc650b0	-0.09683359
79	0xbed0cf2d	-0.40783063
80	0xbea9adf0	-0.33140516
81	0xbea86c6a	-0.32895213
82	0xbeba8823	-0.3643199
83	0xbf03763e	-0.513523
84	0xbdb0effe	-0.08639525
85	0xbee40af2	-0.445396
86	0x3de7fac8	0.113271296
87	0xbe979444	-0.29605305
88	0x3e49b39e	0.19697425
89	0xbe01b277	-0.12665735
90	0x3f4f15cf	0.8089265
91	0xbec8258e	-0.39091152
92	0xbf018e83	-0.5060808
93	0x3c72262f	0.0147796115
94	0xbe0f0688	-0.13967335
95	0xbf580c65	-0.8439391
96	0xbe7fdbae	-0.24986145
97	0xbf078c4b	-0.52948445
98	0x3f02efe1	0.51147276
99	0x3dc4f110	0.096162915
100	0xbe3979f5	-0.18112929
101	0x3ccd3942	0.025051717
102	0x3dd803bf	0.105475895
103	0xbdc63169	-0.09677393
104	0xbe854d4f	-0.26035544
105	0xbe416d94	-0.18889457
106	0x3e802be1	0.25033477
107	0xbdecd177	-0.1156339
108	0xbee2e4e8	-0.44315267
109	0xbe193b73	-0.14964084
110	0xbe5b9ee9	-0.21447338
111	0xbeff8dc7	-0.49912855
112	0xbecc1439	-0.3985918
113	0xbe36cb35	-0.17850955
114	0xbe5a278c	-0.21304148
115	0x3e3929f0	0.18082404
116	0xbeac7819	-0.33685377
117	0xbf1e1213	-0.6174633
118	0x3de28d23	0.11062076
119	0x3c033611	0.008008496
120	0xbe73a1f2	-0.23792246
121	0xbf22eb75	-0.6364053
122	0xbf86ba05	-1.0525519
123	0xbe96ba05	-0.29438797
124	0xbb9f7e64	-0.004867362
125	0xbc3e76d9	-0.011625015
126	0xbdacd169	-0.08438379
127	0x3f09899c	0.537256

network.2.bias f4 [4]
0	0x3dab9661	0.08378292
1	0xbda9c4ec	-0.08289513
2	0x3d7baf66	0.06144657
3	0xbe192682	-0.14956096
