data/network-weights/default_at_05.pth (torch_old, 19706 bytes, 6 tensors)

network.0.weight f4 [64, 37]
00000000: a3c3 f93c ea3c 093e e490 bf3b ebef c6bc
00000010: 5b4a 803c b34d ed3d 1246 24be 2392 4fbd
00000020: 0c68 60bd 85c1 f8be 6474 103e 81b1 f23c
00000030: 8f17 e43c da6d 9cbb be0a 163b 226c 783d
00000040: cbc5 a73d 681d ebbd ce12 35be a417 13be
00000050: 1bdd 86bb 996c 3cbe 6878 27be 1bae 79bd
00000060: 0dc9 92be 09dc 74bc 7128 41be be4b 7abe
00000070: 0945 0dbe cee7 d7be 05e5 663e efb5 5bbe
00000080: 18b1 afbd e112 0cbe 6ea8 f1be 3539 5e3d
00000090: 8fbe 313d 1431 533e 7af1 bd3d a275 3bbe
000000a0: ae0c 033d fbab 8bbd e0ed 4b3d c2a7 0a3e
000000b0: 7eba 8b3d e652 c0bb 1685 243c 3b0a e43c
000000c0: b1db a33d 0b6a 0ebe d254 c6bd f7fa b6bd
000000d0: 922e 08be 117a 2d3e a03a c33d dffc 64bd
000000e0: 0755 c03d 2207 023e f02c 783d e65f 04be
000000f0: 3a56 5abc 3ea4 1bbe 7664 583e f052 31be
00000100: 4573 383d 8b41 94bd 6418 ae3d b1a6 7b3c
00000110: 3236 2abe 0b21 07be 6855 283e bd9e f2bc
00000120: 1ba1 1e3e a8ed 3ebd e79f c6be 93e4 81bd
00000130: 8115 99bd 0e0c 85bd 81f8 ac3d 7bfc 5f3e
00000140: 5d7c 92be 2f6b 5cbe 2d57 febd 269b cabe
00000150: 4914 193e f792 c8bd f719 f93c c211 39be
00000160: 21fe 14be 3360 733d 5e3c 003d 2014 f8bd
00000170: 0741 063c 69bd b6bd 5278 96bd 5e7f 8dbe
00000180: 2b1f bd3d 13ac 4dbe 808d 7abe bb5a a9bd
00000190: 6d13 99be fa1a 09bd 2574 62be e1a3 ccbe
000001a0: 317b a93d 9604 8cbe aa7a 8bbe d314 8ebe
000001b0: 4536 06bf 5244 1dbe 0c7f 0d3e c609 3d3d
000001c0: 5aad d13c 6673 5abe e1c7 b6bd 9bbd 04be
000001d0: 351b 03bd 189b 2cbe 3cb2 f9bc 5bcc eebd
000001e0: c430 923d dc52 b9bd c41e 91bc 06fa cdbd
000001f0: 885e 02be e458 21bd 1b66 e6bd 4809 1cbe
00000200: c3e3 e33d 0d28 373d 0ba6 0b3e 8245 cc3c
00000210: 967e d3bd 622c d43d 5ead 6abd 11a0 9d3d
00000220: d804 40be 2744 1dbe 9ee1 d73c 113d e43c
00000230: ae28 0c3e 3306 4cbe a4b6 343e 3978 b3bd
00000240: eb06 87bc f464 e73d bcfa f33c 77d2 d33d
00000250: 92e8 ee3c da5f 14be 1007 b33d 2cad 0abe
00000260: 26ea 03bd c71e b7bd b624 85bd 6938 debd
00000270: 1ccf 743c aa0e 75be d8a3 8f3d 68df 3cbe
00000280: b3b3 f13c 70d5 e23d 835f 5abd e2dd aebd
00000290: 91c0 333c e957 2b3c 8289 3cbe 473a 6dbc
000002a0: 1313 bb3d 9e31 95be 72d4 0abe c8e0 0dbe
000002b0: b2e3 eabc 61e6 9c3c 497f 8cbe f03c 82bd
000002c0: b1c0 86be 6751 dcbd a205 5b3e ef1f 8abe
000002d0: 5da3 8cbd 7b96 67bc f4fd 80be 9907 77bd
000002e0: d867 823d 32b1 003e 7007 84bc 44f4 a3bd
000002f0: c654 8dbd 4f7a ecbd edf1 91bd 1ec4 d5bd
00000300: 2dc1 f63d 49ef 5d3d 4078 e9bd fa7f 85bd
00000310: e528 bfbd 08ca efbd d1e0 d43d 091f 043c
00000320: e100 1fbe 1a38 17be b23c 433e 5710 b43c
00000330: 1260 e7bd 3e46 0ebe 3445 38be 560a 03be
00000340: b568 11be 7ec0 763d 8f88 5c3d 421d 863d
00000350: 100d 08be c950 f7bd d31b b9bd b7ef be3d
00000360: ea6e 19bd 3680 8dbd 111e 793d 39cc dfbd
00000370: 22c8 a4bd be92 bb3d 08c5 74be 107c eabb
00000380: ff11 bdbd 78e1 ffbc 8044 223e 7ecc 103e
00000390: bb0a 61be 1a31 50be dc9b b0be e361 1fbe
000003a0: e0aa 013e dea1 ed3d 12df afbc d2a5 a83c
000003b0: 7b66 9fbd b2f5 b8bd efac 2dbe 7769 24be
000003c0: 24ff ecbc a2e8 82be e334 813d 28b0 87be
000003d0: 2974 c3bd d04b 81be 9afb 92be f116 153e
000003e0: 9bea 46be 27da 283d bbb8 46be c576 aebe
000003f0: 5089 443d 780a 2ebe 5f6b 3cbe 395a 8ebe
0.030488795 0.13402143 0.0058461297 -0.024284324 0.015660455 0.115870856 -0.16042355 -0.050676476
-0.054786727 -0.48585144 0.141069 0.029625656 0.027843265 -0.0047738375 0.0022894586 0.06065
0.08192023 -0.11480218 -0.17682955 -0.14364487 -0.0041157133 -0.18400802 -0.16354525 -0.060957056
-0.28669015 -0.014945039 -0.18863083 -0.24442956 -0.13795866 -0.4216904 0.22548302 -0.21456121
-0.085787 -0.13679077 -0.47198814 0.054253776 0.04339462 0.2062419 0.092745736 -0.18306592
0.031994514 -0.06819912 0.049787402 0.13540557 0.0682268 -0.0058692573 0.010041496 0.02783691
0.08000887 -0.1390764 -0.09684147 -0.089345865 -0.13299015 0.16941096 0.09532666 -0.05590522
0.09391218 0.12698033 0.06058973 -0.12927207 -0.013326222 -0.15199372 0.21132073 -0.17316794
0.045031805 -0.07239064 0.08500746 0.015359567 -0.16622236 -0.13196199 0.1643883 -0.029616708
0.15491144 -0.046613365 -0.3879387 -0.06342425 -0.07474805 -0.0649644 0.08445836 0.21873657
-0.28610507 -0.21525262 -0.12418971 -0.39571494 0.14949144 -0.09793656 0.030407889 -0.1807318
-0.14550067 0.059417915 0.03130757 -0.121132135 0.008194215 -0.08922846 -0.07347168 -0.27636236
0.092344604 -0.20085172 -0.2446804 -0.082692586 -0.29897633 -0.033472992 -0.22114618 -0.3996878
0.0827545 -0.2734725 -0.27242023 -0.27750263 -0.5242656 -0.15358093 0.13817996 0.0461519
0.025595356 -0.21333084 -0.089248426 -0.12962954 -0.03200837 -0.16856039 -0.030480497 -0.116600715
0.071382076 -0.09049007 -0.017714866 -0.10057454 -0.12731373 -0.039391413 -0.11249944 -0.15237916
0.111274265 0.04471593 0.13637559 0.024935488 -0.10326879 0.10360028 -0.057294242 0.07696546
-0.18751848 -0.1535803 0.0263527 0.02786115 0.13687393 -0.1992424 0.17647797 -0.08763165
-0.016482791 0.11298552 0.029782645 0.10342877 0.029163633 -0.1448969 0.087415814 -0.13542622
-0.032205723 -0.08941417 -0.06501143 -0.10850603 0.014941957 -0.23931375 0.070136726 -0.18444598
0.029504633 0.11075866 -0.053313743 -0.085384145 0.010971204 0.010457971 -0.1841183 -0.014479226
0.091344975 -0.29139417 -0.13557604 -0.13855278 -0.028673027 0.019152822 -0.2744086 -0.06359279
-0.26318887 -0.10757714 0.21388867 -0.26977488 -0.068670966 -0.014134998 -0.2519375 -0.06030998
0.06367463 0.12567595 -0.016116828 -0.08005574 -0.06900935 -0.11546766 -0.07126222 -0.10437797
0.12048564 0.05418328 -0.11399889 -0.0651855 -0.09333972 -0.11708456 0.10394443 0.00806404
-0.15527679 -0.14767495 0.19066122 0.021980448 -0.11297621 -0.13893983 -0.17995149 -0.12796912
-0.14200099 0.06024217 0.05384117 0.06548549 -0.13286233 -0.120759554 -0.0903851 0.09323066
-0.03745929 -0.0690922 0.06081969 -0.10927624 -0.08045985 0.09158848 -0.23903286 -0.0071559027
-0.09231948 -0.031235442 0.15846443 0.14140508 -0.2197675 -0.20331231 -0.3449391 -0.15564685
0.1266284 0.11603139 -0.021468673 0.020586882 -0.077832185 -0.09031238 -0.169605 -0.16055857
-0.028930254 -0.2556811 0.063089155 -0.26501584 -0.0954364 -0.25253153 -0.28707582 0.14559533
-0.19425432 0.04122367 -0.19406407 -0.3407499 0.047982514 -0.16996181 -0.18400334 -0.2780321

network.0.bias f4 [64]
00000000: e66a b9bd 8f35 133e 2a91 173e c1a2 57bd
00000010: ad8c 0bbe eb78 efbd 0170 28bd 1935 0a3c
00000020: d069 26be f81c 023d 794d 8abd 31e4 3dbd
00000030: e109 bbbd 6161 2ebd b827 0bbe cc93 cebd
00000040: 87cd 94bb 5073 f93d 814a 013e 3519 1cbe
00000050: fa53 663d a590 b1bd 6724 05be a6a7 0bbd
00000060: 2d31 cfbd 2134 0ebe 1d7b 21be 4743 19be
00000070: 7884 063e 886d b13d a1dd bbbd 8323 d7bd
00000080: 6004 27be d414 bebd 1d42 d8bd d56a d03d
00000090: 3e53 063d 1009 a4bd 6f59 013e e7da 16be
000000a0: b20d 3abe c23b 363d ae9c cdbd d461 923d
000000b0: 79bd bd3d 678e a9bd df4e 29be 7028 723d
000000c0: 2e90 21be 80b8 173e 399e eebd a6a4 773d
000000d0: 3ba7 0fbe 795b cbbd db0d a13d d4e8 033d
000000e0: 9e87 233e f94c dd3d befd 3fbc 9256 77bd
000000f0: 47a2 9f3d 0498 38bd 8edb ac3b 0ddc 30be
-0.090535924 0.143759 0.1480147 -0.05264545 -0.13627882 -0.11692985 -0.04112244 0.008435511
-0.16251302 0.031765908 -0.06753058 -0.0463602 -0.091327436 -0.042573337 -0.1358937 -0.10086784
-0.0045411023 0.12180197 0.12626077 -0.1524399 0.05623243 -0.08670167 -0.13002168 -0.03409543
-0.101168014 -0.13887073 -0.1576962 -0.1496707 0.1313647 0.086634696 -0.09173132 -0.1050482
-0.16310263 -0.092813164 -0.10559485 0.101766266 0.03279423 -0.08009541 0.12631772 -0.14731942
-0.18169287 0.044490583 -0.1003965 0.071475655 0.09264655 -0.08279114 -0.16533993 0.059120595
-0.15777656 0.14816475 -0.11651272 0.060459755 -0.14028637 -0.099295564 0.07863971 0.032204464
0.15969703 0.10805697 -0.011718212 -0.060385294 0.07794624 -0.04506685 0.0052751964 -0.17271443

network.1.weight f4 [32, 64]
00000000: bd6b b3bd c9d5 b43d 5be5 c8bd 9510 a53d
00000010: e730 1b3c 1272 863c a9bd a03d e517 a5bd
00000020: 854b 17bd 10ae 963c d2f9 b13c 237f 0cbe
00000030: 1c09 293b b2e5 0ebe a3b9 d839 e062 723d
00000040: 09e5 87bd 604f 94bc e0da 14bd b830 b73d
00000050: fb67 8a3d 17c5 843c a9eb aebd 3282 f6bd
00000060: 7a91 933d c965 c13c a31c bb3d 909d 09be
00000070: 647a f83d ecfb 5bbc d411 7c3d 875d b33d
00000080: e27a 8c3b 9b19 92bd 924b ba3d 01aa ccbd
00000090: 5b9b 483d d857 e9bd 7e42 bdbd d38c a3bd
000000a0: 733d 6ebd 1101 403d 2311 c8bd de5e f6bd
000000b0: 31eb c03d 52c2 2f3d 5076 2fbd ae18 ecbd
000000c0: ab7a 39bc 15be 2cbd 612b bf3d a774 6f3c
000000d0: dacb 5cbd 111b b6bd b443 9fbd a9dc db3c
000000e0: 716b b03d ae2c 04bc 78da a2bd aedc b33d
000000f0: 1afb 0dbd 4caa a6bd 98f4 fdbd 1829 1bbd
00000100: ce50 103e 0df6 3e3d 809a 023e ce93 80bd
00000110: 2041 dc3d b1b3 69bd 1a0f e83c 5254 a8bd
00000120: d5a8 f3bd 15e3 e9bd 156b 09be cdfb 57bd
00000130: 9c19 a43d 1c11 81bd 79c8 81be e911 383e
00000140: 0ae6 52bd 88a5 d53d abe1 333d 448b f5bd
00000150: e11a 47bd b412 df3d da44 83bc 880f 55bd
00000160: b154 f13d 9ed5 7cbe fb23 2abc a538 063e
00000170: 0508 49bc 5bca 233e bca1 02bc 406c f8bc
00000180: b004 ad3d 1f2a 9ebc fd27 95bc 9eb8 5fbe
00000190: c72e 4ebb 42f8 aebd c19c 3c3e 79ab 6a3c
000001a0: 7f87 acbc 0977 953d 6dfe ad3c 2ab4 e8bd
000001b0: 4e32 8a3d 72df 96bb ac4f ffbd b52d fc3d
000001c0: e3f9 f73c 93f1 82bd fa19 d3bd 28db c6bd
000001d0: 8cc1 7cbe 21ab 663d 1faf 093e 16de 24bd
000001e0: f9e8 0f3e 8c26 a1bd 3a93 62bb 8c70 73bd
000001f0: efef 58bc d29d 993c 9bd9 433d 936c c6bb
00000200: 424f b4bd 8a22 943d dc79 873d 9a25 df3c
00000210: 7e66 a7bd a401 403b 7677 9ebd 049b 9e3d
00000220: 43c1 e83c 09cd 273d 82ed 6d3c b3f5 693d
00000230: 387b ccbd dcd1 c13d adfd 2e3d 47c5 0ebe
00000240: 68d1 f9bc 3072 3abe 375e c1bd 9e6a 523d
00000250: 472b 3c3d 423d 68bd 4727 b33d 441e 3bbd
00000260: b41d 7bbd af46 85bd 2d8a 493c 48f0 9abc
00000270: 40fa 2b3e 240e 9fbd 975a 90bd 3d64 8d3c
00000280: 669f f13d dfe1 d73c ed5e 8e3d aabe fa3c
00000290: 9715 d13d 8b83 a93d 13eb e43b 7c7f 5ebd
000002a0: 168f 88bd 8b7a 53bd dc55 1a3d aa0b b13d
000002b0: 86aa fdbc 19db d03d 5a1c a5bc f501 e33c
000002c0: c1f0 8d3d d75d 10bc 6c39 ae3d 06f7 873c
000002d0: 8941 873d 824f cabd 5c90 34bd 9e54 423c
000002e0: c484 b93d 3386 873d eb64 6d3d d681 11be
000002f0: b517 cb3c 0ac6 dcbd 8d3b 13be 1243 993b
00000300: 1e47 0abe 7489 a1bc febf 98bd f79d 193d
00000310: 2fa1 923d 6eef e5bd d37a 9d3d 2130 81bd
00000320: 34e0 49bd 9166 a73d f4f8 fcbd 6a14 bebd
00000330: 3ac1 703d 5246 a8bb 69f0 463d 6093 a13d
00000340: 0a26 d4bd 4f20 8aba c92f f53d 0f40 36bc
00000350: 26f3 0dbe 4fd4 be3d b092 b8bd 9569 48bd
00000360: 3981 b13c efd4 44be 48e5 b1bc 3365 00bb
00000370: daa9 e23c b528 0cbe 2333 23be 3572 99bd
00000380: 68f2 c3bc 8e34 b9bd 2a85 9a3c ab3e 8fba
00000390: 78d0 a9bd 3b8b 9abc 174b b5bd 1cf5 69bd
000003a0: 0df4 7fbc 5901 d5bd 9463 33be d832 973c
000003b0: a5bf 6cbc d57c babd 8475 57bc adfb cd3d
000003c0: 8cab 0cbe f122 acbd 9f37 17be 03b8 51be
000003d0: 654f 03bd d82a b8bd 0706 013e 6e2d edbd
000003e0: b5e1 113e 4433 88bd 90f6 c2bc 6ab2 433d
000003f0: a318 59be 3239 073e dfad 8cbc efe1 4dbd
-0.08760784 0.08829839 -0.09809371 0.080598034 0.009472108 0.016411815 0.07848675 -0.08061198
-0.036937255 0.018393546 0.021725569 -0.13720374 0.0025792783 -0.1395481 0.0004133704 0.059176326
-0.06635482 -0.018104255 -0.036341548 0.08944839 0.06758114 0.016207261 -0.08541042 -0.120365515
0.07205482 0.023608105 0.091363214 -0.13439012 0.12132719 -0.013426762 0.06154044 0.08758073
0.0042871097 -0.0713379 0.09096445 -0.09993363 0.048976284 -0.11393708 -0.09241198 -0.079858445
-0.05816407 0.046876017 -0.097688936 -0.12029813 0.09419859 0.042909928 -0.04283744 -0.11528145
-0.01132075 -0.042173464 0.09334446 0.014615214 -0.053905345 -0.08891881 -0.07776585 0.026838617
0.08614243 -0.008067293 -0.07951826 0.08782326 -0.034663297 -0.0813795 -0.12400168 -0.037880987
0.14093325 0.04662137 0.1275425 -0.062781915 0.10754609 -0.057056133 0.028327513 -0.08219208
-0.118974365 -0.114202656 -0.13419755 -0.05273037 0.08012697 -0.063020915 -0.2534826 0.17975582
-0.051488914 0.10431963 0.043916386 -0.119894534 -0.048609618 0.10892239 -0.016024042 -0.052016765
0.11783732 -0.24690863 -0.010384555 0.13107546 -0.012269978 0.15995161 -0.007973131 -0.030325055
0.0844816 -0.019307194 -0.018207544 -0.2184777 -0.0031460987 -0.08543445 0.18419172 0.014323109
-0.021060703 0.07298095 0.021239484 -0.113624886 0.06747876 -0.0046042735 -0.12466368 0.123134054
0.030270522 -0.06393733 -0.10307689 -0.097097695 -0.24683207 0.056315545 0.1344571 -0.04025086
0.14053716 -0.0786868 -0.0034572617 -0.059433505 -0.013240798 0.018752012 0.047814947 -0.0060554235
-0.0880418 0.0723315 0.0661504 0.02723961 -0.08173846 0.0029297853 -0.07737629 0.07744411
0.028412467 0.04096702 0.014521958 0.057119083 -0.099844396 0.094638556 0.042722393 -0.13942443
-0.03049536 -0.18207622 -0.09441798 0.05137121 0.04593971 -0.056699045 0.08747726 -0.04568316
-0.061307624 -0.065076225 0.01230101 -0.018913403 0.16794682 -0.07766369 -0.07048529 0.017259711
0.11797981 0.02635282 0.069516994 0.030608494 0.10209196 0.08277043 0.006986031 -0.054320797
-0.066679165 -0.051630538 0.037679538 0.08644803 -0.030965101 0.101980396 -0.02015512 0.027710894
0.06930686 -0.008811436 0.08507046 0.016597282 0.06604297 -0.09878446 -0.044082984 0.011860995
0.09058526 0.06617393 0.05795757 -0.14209685 0.024791578 -0.107799605 -0.14378186 0.004677185
-0.13503692 -0.019718863 -0.074584946 0.037504163 0.071596496 -0.11227308 0.076894425 -0.06308008
-0.049286082 0.0817386 -0.123521715 -0.092812374 0.058778025 -0.005135336 0.048569117 0.07889438
-0.10358818 -0.0010538193 0.11972005 -0.011123671 -0.13862285 0.093178384 -0.090123534 -0.048928816
0.021668063 -0.19221853 -0.021715775 -0.001959157 0.027668882 -0.13687404 -0.15937476 -0.074924864
-0.0239193 -0.09043227 0.018862326 -0.0010928711 -0.082917154 -0.018865218 -0.08852213 -0.05711852
-0.015622151 -0.10400648 -0.17518455 0.018456861 -0.0144499885 -0.09105841 -0.0131505765 0.10057769
-0.13737315 -0.08405102 -0.14767312 -0.20480351 -0.03205814 -0.08992547 0.12599955 -0.11580931
0.14246257 -0.06650403 -0.02379921 0.04777757 -0.21200804 0.13205412 -0.017172752 -0.050264295

network.1.bias f4 [32]
00000000: 012e 3fbd 8bc1 04be daf7 ce3d 03ba e73d
00000010: d07a e4bd 7af5 a13c b158 9c3d 5687 f0bd
00000020: ae6b 0fbe 63a7 c73b d11b d0bb cd5f 0e3d
00000030: d779 d3bc fca5 e3bc 53f5 ab3d ed91 b2bb
00000040: 12d4 883b b42a cbbd bd5b 963c 8083 c83d
00000050: 0bb9 13be 3e44 f4bc 1868 c53d c3e3 20bc
00000060: 86e2 3fbd 6e7f ebbc 4c6a 87bd 840e 063c
00000070: d4af 77bd 7f6c a83d 899a e4bc 7e3f 26bd
-0.046674732 -0.12964456 0.10105868 0.11314776 -0.11156237 0.019770373 0.07634104 -0.11744563
-0.1400592 0.006092952 -0.006350972 0.03475933 -0.025814934 -0.027789108 0.08396401 -0.0054495246
0.0041756714 -0.09920254 0.018354291 0.09790707 -0.14426057 -0.029817697 0.09638995 -0.009819928
-0.04684689 -0.028747287 -0.066120714 0.008182172 -0.060470417 0.08223819 -0.02790572 -0.040587895

network.2.weight f4 [4, 32]
00000000: 5ff3 c63b e210 243e 2176 d8bd 08ea f1bd
00000010: 47ad a9bd 001f dcbd afa0 d5bc 9463 653d
00000020: d189 12be 6df5 d8bd 6f1f 0ebe 5940 7dbd
00000030: 9157 873c 3ce2 c7bd b945 c23c 2d65 0e3e
00000040: 6337 e1bb e682 bb3c d320 c0ba cbde 8a3e
00000050: e760 dcba 21dd 353e 1957 263e 0e81 0e3e
00000060: fba0 d13d 2cfb f2bc 0303 dabd 159a 033e
00000070: 03fb 303d 602a 353e 6583 303d e79b 0cbd
00000080: d246 c83d 01a0 8fbd 598c f83d fa94 fbbd
00000090: d914 cfbd 8198 e43c 5bb7 1e3d 8dd5 2abe
000000a0: 2f4e 22bd 9134 d63d b3cb c3bc a147 1c3e
000000b0: c8d5 81bd 5caf 9ebd f17d 1ebe 9938 6fbe
000000c0: 97b4 3fbe 9573 a93d 1ca9 953c 62d3 87be
000000d0: 0f29 0a3e ae9f b73c 4cff 433d c074 c6bd
000000e0: d3dc 573d b679 7dbe 97dc ec3d 0986 1dbe
000000f0: 407b 8a3d 1d6d c6bd efca 903d ce56 1dbe
00000100: 3133 3cbd e7ff 8cbd 5b6c ddbd cf74 27bd
00000110: 4742 19bd fd35 f2bc 10b1 803d b9af 38bc
00000120: 8db0 253e 90ad bcbd b9b3 93bd 9e74 42bd
00000130: 9265 d2bc d4b9 7c3c 8193 c73d b324 6f3d
00000140: cfb0 24be 60f8 aebc 84e3 be3c 0d58 32be
00000150: 6b69 753d bf3a ee3d 122e 533d 92d3 59bc
00000160: 4115 cc3c cc05 e8bd 1ea4 d8bc c7bc 0b3e
00000170: d403 79bd 3f39 f13c a712 40be 2407 3dbd
00000180: aa5c d5ba c3a5 69be e4b2 9e3d 33ce 81be
00000190: 1084 ebbd a05c cc3d 2bbe 4f3e a1a7 ff3c
000001a0: 153b ccbd 244f 1cbe bfe8 29bd b552 38bd
000001b0: cbba d33d bbe6 0abe e100 e13d 33d4 c0bd
000001c0: f9b8 a2bd 6d27 0e3e d125 e43d 37c6 99bd
000001d0: b6f7 ffbd d2fa 8abd 037b 393d e7cf f13d
000001e0: f538 b2bd 2e5f 48be c67a 3ebe c0ac 8f3d
000001f0: b370 1d3e d19d d13d b86c 29be 7fa5 d23d
0.0060714926 0.16022065 -0.10569406 -0.11812216 -0.08285003 -0.107481 -0.026077596 0.05600317
-0.14310385 -0.10593686 -0.13879178 -0.061828945 0.016521247 -0.09759948 0.023714887 0.13905783
-0.0068730577 0.022889566 -0.001465822 0.27123103 -0.0016813547 0.17760135 0.16244163 0.13916418
0.10235783 -0.029660784 -0.10645106 0.12851746 0.043208133 0.17691946 0.043094058 -0.034328368
0.09779133 -0.0701294 0.12136144 -0.122842744 -0.10111398 0.02790475 0.03874908 -0.16683026
-0.039625343 0.10459245 -0.023900842 0.152617 -0.06339604 -0.07748291 -0.1547773 -0.23361434
-0.18721233 0.08273999 0.018269114 -0.2652846 0.13492225 0.022415008 0.047850892 -0.09690237
0.05270083 -0.2475346 0.11565512 -0.15383162 0.06761789 -0.096887805 0.070699565 -0.15365145
-0.045947257 -0.06884747 -0.10811683 -0.04088288 -0.037416723 -0.02956676 0.06283772 -0.011272364
0.1618063 -0.09212792 -0.07212014 -0.047474496 -0.025683198 0.015425164 0.09744931 0.05838461
-0.16083072 -0.021358669 0.023301847 -0.17416401 0.059914988 0.11632299 0.051557608 -0.013295071
0.024912478 -0.11329231 -0.026445445 0.13646232 -0.060794666 0.029446242 -0.18757115 -0.046149388
-0.0016278226 -0.2281714 0.077489644 -0.2535263 -0.11499798 0.09978604 0.20287387 0.031207861
-0.099722065 -0.15264565 -0.04148173 -0.04500075 0.10338362 -0.13564579 0.10986496 -0.09415474
-0.07945437 0.13882227 0.111400254 -0.075085096 -0.12498419 -0.067861214 0.04528333 0.11807232
-0.0870227 -0.19567558 -0.18601522 0.07015371 0.15375023 0.10235179 -0.16545379 0.10285472

network.2.bias f4 [4]
00000000: 4e48 ebbc 0d02 fd3c 77a3 793d 900f b7bd
-0.028721001 0.030884767 0.060946908 -0.08938515
