data/network-weights/default_at_13.pth (torch_old, 19706 bytes, 6 tensors)

network.0.weight f4 [64, 37]
00000000: 6eae 643e f4e1 b83d e1be cebd e45c 5f3e
00000010: a772 f43d 742a 403e 14da 2c3c 52a5 a7bc
00000020: 98c0 1b3e 04f0 e43d 381a 123f 07bd 8bbe
00000030: 7972 4abd 9645 f5bd 3bf1 12bf 5ffb 473d
00000040: ab6d c13d 75e5 963d d810 d9bd f626 6d3e
00000050: 7268 ea3e b295 70be 64a3 dbbe 40fe cdbe
00000060: 935e 99bf 77a8 833b 3235 f43b 42bd 91be
00000070: 7ab9 6a3d aa97 5e3d b3e6 fc3e 612f 6f3e
00000080: 0777 93be 2339 0cbf 541a 8dbf 8892 833e
00000090: 3d9f 1ebc 3d55 383f 972d b6bf 1dfb 1fbf
000000a0: f9c0 d0be f328 efbf 0b4d 1c3d b876 5e3d
000000b0: af30 47be fc9c 723c 2e61 a9be cec8 97bd
000000c0: 60f5 ccbb 0f3e ea3d a778 9d3d dc8b 0d3e
000000d0: 5fdf 6cbb fedf b63d bc57 f4be 77eb 9ebe
000000e0: d4db 5fbf 1634 72be 838e 553d 8092 b83d
000000f0: 1830 aa3d 7694 a63d 3bed 8fbd da31 f7bc
00000100: d421 e3bd 6a49 6cbe 7b06 89be 8aa7 c8be
00000110: 8707 9cbd 783e c13d 75c2 5c3e 399d 873e
00000120: 2c12 943d 498e 3e3d 09a1 b63d 8fa6 c0be
00000130: f73e 9f3d bf24 c2bd 4ebb 523d 80b1 c13e
00000140: f22f 0abf 30e4 a6be 4b29 24bf bafc 0fc0
00000150: 154b 913e ffe7 06be 5e70 d2bd bd14 aebe
00000160: 6138 fcbd 0ccc 8c3d b2e3 84be 4fb2 4c3d
00000170: 6192 fabd 45c4 543d b64c a13e 3a8c 16bf
00000180: 80b6 bebc ce2e d8be 92fe 3ebf 079c 77bd
00000190: 5e36 6abe b18c 583d c894 96be 72c1 91bd
000001a0: cdaa a83e b6b2 84be 766b 39bf 38a5 dabe
000001b0: 931a c5bf 1543 c4be a7b6 ba3d 4da5 55bd
000001c0: 0cc1 b33c 3c5d a4bc 657b 50be 3c18 193e
000001d0: 36a9 773d f17f 44be acc7 79be 2462 8a3c
000001e0: 14cf a13e 6780 533d b21e 9fbd 2351 d7bd
000001f0: 2a49 0dbe 66c3 843e 4b25 43be 385b 13bc
00000200: 63e5 e03d dbd5 5b3d 7834 df3e b9c0 cbbd
00000210: 3f56 5dbe 16f5 4a3e 58d5 ee3d cf47 0c3f
00000220: 360a 49be 3b58 f7be 3f23 6e3d 8b77 383e
00000230: d69f 4a3f 3c9b cfbc 6473 b1be 2dbf 0cbd
00000240: 12d5 823e f207 553f 40a2 d03d e6ba ee3c
00000250: 4a0b 66be b213 c73b ddd0 663e 417e 103e
00000260: ac51 a23d 0865 b9be c8d3 033e 8596 8dbe
00000270: d596 613d 6dd0 a1bf 125c 6e3e 532e 8dbc
00000280: dfde cdbb 0fb4 0ebe eb74 a1be 82ba 13be
00000290: 8853 263d b12f 34bd 7072 fc3c 2b20 873d
000002a0: 8947 cd3e d67a 2abf 5013 edbe 5eee d5bd
000002b0: 62f8 c8bf f8df 66bd 49a9 87be 4ac7 53bd
000002c0: 458a 1ebe 4379 9d3e 3765 0e3f 0d05 f8be
000002d0: c33e 06be 2d99 16bf 2397 e9bf 0901 1d3e
000002e0: adc2 353d 78fb 433d e357 f23d d750 103d
000002f0: 27f1 b73d 3b80 08bd 3977 153f aa05 39bf
00000300: 4fa8 d3be d922 26bf 9b09 2fc0 ef06 c63d
00000310: 01fa 633c 8aff 49be 7ef0 f93c c76d f13c
00000320: fe12 16be f1b2 e13c 9d91 163e 7ca9 053c
00000330: e04c 553e fd5b 97bd d333 fdbc a1ab b6bd
00000340: f814 55be 49b8 61bd 6493 24bd 9136 153e
00000350: 15f1 f83d 6b1b 3a3d d1af 3fbe 62ca 923e
00000360: a77a 333d f375 573d 3d61 65be a764 9ebe
00000370: 79b0 9cbe 92f2 f53d d017 5dbc 7b13 8cbd
00000380: 2707 c83d e998 9a3c 3bb9 d03d 9872 853e
00000390: 22f1 cebe be68 b6be 411a 44bf de8e c1bf
000003a0: 5685 2bbe dacf 3d3e 3437 0a3e eddb a93d
000003b0: fbba 9c3c 82d0 46be 3b21 85bb 787e 58bd
000003c0: 40df 94bc b949 b13d 34ab 6f3e be8b b4bd
000003d0: 8fae a7be 11bd 17bf 745e 57bf 00a2 e33d
000003e0: e52b 3bbd 337e 463e 2d7f 6fbd 22fd 813e
000003f0: 3059 c23d c735 01bf fcb7 e6bd c499 00bf
0.22332165 0.09027472 -0.10095001 0.21812779 0.11935931 0.18766195 0.010550041 -0.020464573
0.15210187 0.11178592 0.57071257 -0.27292654 -0.049425576 -0.11976163 -0.5739934 0.04882371
0.09444746 0.07367984 -0.10598916 0.23159394 0.4578281 -0.23494604 -0.42898095 -0.4023304
-1.1981987 0.0040178853 0.0074526304 -0.28464705 0.05730579 0.054343857 0.4939476 0.23357917
-0.28801748 -0.54774684 -1.102366 0.25697732 -0.00968152 0.72005063 -1.4232663 -0.62492543
-0.40772226 -1.8684372 0.03815941 0.054312438 -0.19452165 0.014807936 -0.33081955 -0.07411347
-0.006254837 0.11437618 0.07689028 0.13822883 -0.0036143882 0.08929442 -0.47723186 -0.3103902
-0.87444806 -0.23652682 0.052137863 0.09012318 0.083099544 0.081337854 -0.0702767 -0.030175138
-0.110904366 -0.2307488 -0.26762757 -0.39190322 -0.07618623 0.09435743 0.21558554 0.2648714
0.072300285 0.046522412 0.08917434 -0.37627074 0.077756815 -0.09479665 0.05144816 0.37830734
-0.5397941 -0.32595968 -0.6412551 -2.2498002 0.28377596 -0.13174437 -0.102753386 -0.34000197
-0.12315441 0.06874856 -0.25954968 0.049974736 -0.12234951 0.05194499 0.31503838 -0.5880772
-0.023280382 -0.4222321 -0.74607193 -0.060451534 -0.22872302 0.05286855 -0.29410386 -0.07116975
0.3294281 -0.25917596 -0.724296 -0.42704177 -1.5398735 -0.3833243 0.091168694 -0.052159596
0.021942638 -0.020063989 -0.20359571 0.14950651 0.060464107 -0.19189431 -0.24392575 0.0168925
0.316033 0.051636126 -0.077695265 -0.105135225 -0.13797441 0.25930327 -0.19057195 -0.008993916
0.10981252 0.053670745 0.43594718 -0.09948868 -0.21614932 0.19820055 0.11661786 0.5479707
-0.19632801 -0.48309502 0.058139082 0.18014352 0.7915014 -0.025342576 -0.3465835 -0.034362007
0.25553185 0.8321525 0.10187197 0.029141854 -0.22465244 0.006075346 0.22540613 0.14110662
0.07925734 -0.36209893 0.12873757 -0.276539 0.055075485 -1.2641732 0.2327731 -0.017234003
-0.006282672 -0.13935874 -0.31534514 -0.14426616 0.040607005 -0.043990795 0.030816287 0.065979324
0.4009364 -0.6659368 -0.46303797 -0.104458556 -1.57008 -0.056365937 -0.26496342 -0.05170373
-0.15482433 0.30756578 0.5562319 -0.48441353 -0.13109879 -0.5882748 -1.8249248 0.15332426
0.04437511 0.04784724 0.11833169 0.035233345 0.08981543 -0.033325415 0.58385044 -0.7227427
-0.41339347 -0.64896923 -2.7349613 0.09669291 0.013914586 -0.19726387 0.030510183 0.029471291
-0.14655682 0.027551146 0.14703985 0.008158084 0.20830107 -0.07390592 -0.0309085 -0.08919454
-0.2080878 -0.05510739 -0.040179625 0.14571597 0.12155358 0.045436304 -0.18719412 0.2867003
0.043818142 0.05260272 -0.22400375 -0.30936167 -0.30603388 0.12009157 -0.013494447 -0.06839653
0.09766989 0.018871741 0.1019158 0.2606399 -0.40418345 -0.35626787 -0.7660256 -1.5121725
-0.16750082 0.1853632 0.13497621 0.08293901 0.019132128 -0.19415477 -0.0040627993 -0.052854985
-0.01817286 0.086566396 0.23405153 -0.08815716 -0.32750365 -0.5927287 -0.841285 0.111148834
-0.045696158 0.19384079 -0.058470894 0.25388438 0.094896674 -0.5047268 -0.11265561 -0.5023463

network.0.bias f4 [64]
00000000: 298d 1c3e cac5 b73e 2799 5e3e e857 43be
00000010: 4812 313e 2972 0b3e bf5b 87bc 8e4d 953e
00000020: c37d 76be c5f2 d6bb 6843 72bd a893 81be
00000030: 805e 68be 8415 a43d a658 09be 9b5c 843d
00000040: 4257 72bd ba52 803e e9fb b83d ba0b abbd
00000050: 893e 193e f57a 563e c014 aebd f10c e33c
00000060: cd9b 0d3e b170 b2bd 9768 a9be 7ca6 52be
00000070: d2aa 913e 40e1 d83e 81a9 3c3d 072d c0ba
00000080: e1d5 13be 524c 01be 26eb 193d 526c e83d
00000090: 7402 e03d d44b 3b3e 4051 c03e f0be f9bd
000000a0: 4edb 02be 2cc5 1f3e b446 38bd dd38 35bc
000000b0: 2e74 123e 6e3c 9dbe 13eb 85bd dccc c43d
000000c0: 75f8 81be ff09 9a3d 1f04 15be 478e 183e
000000d0: 1064 e0bd e40b 1a3d 1c2c 2a3e 6b26 3b3d
000000e0: 0d88 433e 5bee 0f3e 9ea1 d83d 7c58 adbd
000000f0: e93e a13d a20d 763d b02b 033d cb66 8cbe
0.15288223 0.3589309 0.2173811 -0.19076502 0.1729213 0.13617767 -0.01652324 0.29160732
-0.24071412 -0.006559702 -0.059146315 -0.25307965 -0.22692299 0.08011916 -0.13412723 0.064629756
-0.059165247 0.25063115 0.09032423 -0.08351846 0.14965262 0.20945342 -0.085000515 0.027716132
0.13828965 -0.087129004 -0.33087608 -0.20571321 0.28450638 0.42359352 0.04606009 -0.0014661857
-0.14437057 -0.1262677 0.03757777 0.113487855 0.10937968 0.18290645 0.3756199 -0.121946216
-0.1277897 0.15602559 -0.044989303 -0.011060921 0.14302132 -0.30710167 -0.065389775 0.09609386
-0.2538487 0.07521438 -0.14552353 0.14898024 -0.109565854 0.037608996 0.16618389 0.045690935
0.19094868 0.14055769 0.10577701 -0.08464143 0.07873327 0.060071595 0.032024086 -0.27422175

network.1.weight f4 [32, 64]
00000000: 2f07 033d 22aa 2e3d 8552 0d3d 46de 82bd
00000010: 4d6e 39be a5b3 7f3e cc50 fe3e e6ba 1abe
00000020: a0d9 28bd 1e12 503e a55e cdbc 2168 4fbe
00000030: c6bc e6bd 67c9 3dbe a65f 62bd 6167 6e3e
00000040: d0f9 1f3e 1f99 173c 680f 1b3d e37b 053e
00000050: 6862 cf3e 9366 b53e 8bb2 9dbe 60b6 213d
00000060: 982f 01bd b0b0 293e 6310 85be f5ff 40be
00000070: 7555 ca3d d721 82be d0c6 75be 23ef 923d
00000080: 44f1 ea3d 2257 19be e5e5 b33e 15ab 8ebc
00000090: 8382 953e ee07 ed3d f191 6d3e 75fe 81be
000000a0: e9f8 1ebf 3d1f e63e e81b c4be a127 403e
000000b0: 569d afbd 79bc 28bd f92b 76bd 3d7d 54bd
000000c0: 3eb8 f83d 8950 19be 96e2 683d 75aa 133e
000000d0: 9c66 f93d 5d74 5f3b 106f e0be 6f82 8dbd
000000e0: ce1c c03d d702 113e dc04 31be 6bd9 5ebd
000000f0: b83c 683e b4a2 edbd 32e1 3fbc 0759 b4b9
00000100: 288c dcbc d654 b03e 9861 ab3e cad8 b83b
00000110: e331 a43e 8435 db3d b26a d53e 0888 93ba
00000120: b29c 88be 03f7 923b f87f 07be cf45 413d
00000130: b7c8 10be 241d e73d b9b1 8abd e2ee 3e3e
00000140: 101b 9dbe 48be 30bd dda8 713e a56a 8ebd
00000150: ae8d 24be feb2 e93d ae30 043f 8caa 13bd
00000160: d057 a33d a097 f43c 9a2f 9abe 9a2d 28bb
00000170: 3a1d 783e 92e5 9a3e ecbd 933d f347 e8be
00000180: 90b7 ce3d 6b34 0f3e 3049 643e 31d0 b4be
00000190: bd15 893e 5725 333e c517 053f d37a 0ebf
000001a0: 6b90 acbe 7992 a23e 3767 f7bd 6046 cc3c
000001b0: 22f1 e23d ea78 c0bd 5d51 31be bf1f 8f3e
000001c0: fc29 593e aff5 07be 3d03 a1bb bdb2 d9bd
000001d0: 1ae3 b1be 504a 1c3b 0cd9 f5bb 473c 8a3c
000001e0: c2bb c4bd b9aa 75bd 9cba 8fbe 6c6c 7abe
000001f0: bfbd 0ebd e47f 96bc 7f45 5fbc 1c51 b1be
00000200: 19c4 99bc 93d5 93bd de2a 613e fae9 923d
00000210: 8312 633e 025d 5b3e 72d1 b53e 77e0 123e
00000220: faf4 d43d 4fe9 95bd b70f 0d3e 1953 8dbd
00000230: 1a6e f2bd dc12 c93d 9f6e 063e c65f 193e
00000240: 83f6 c63c e4cb c43c 7795 0fbd 53fa 133c
00000250: 5f6e 50bd 5d0e ac3d 4fc6 bd3e cd40 61be
00000260: 3bde b8bd a5a2 1a3e 8b9a 1cbb 8cad e8bd
00000270: ddf7 523e 81d5 dcbd 6c8f a3be 70bf 843d
00000280: c8ca 87be dcd7 ad3c 6451 b53e 49dd d8bd
00000290: 2dd5 d93e 2efd 2b3d bc94 da3e 77f9 06bf
000002a0: d54f 11bf 27b1 733e f617 2bbe 9feb 0b3e
000002b0: 1e01 ed3c 65cf 193c d941 b6ba 40ec 153e
000002c0: b3bf 1bbd 4cdd 2d3d 0358 00be 0178 69bd
000002d0: cf21 bbbd e08e ba3c d42c f3be 98d6 00bd
000002e0: 76ae 013b 6126 703d 3dfa 833c f9ff afbe
000002f0: 9f3a b03e 8ea0 0c3e 4395 eb3c 309b dabd
00000300: b5d0 ddbd d8fa 85bd 5842 05bc 73bd bbbd
00000310: d996 063e a00b 94bd 7c53 523e e646 71bd
00000320: d0c4 3abc f06c abbe 5131 30bd 6b39 8ebe
00000330: e9e6 393d 4f19 983c 0c18 5b3d 9f52 dd3d
00000340: bf4e d6bd d407 acbe 9556 49bc 40d2 bebb
00000350: eb47 29be 0919 07be c285 07bf 7bc3 be3a
00000360: 3839 20bd a33a 94be f86b aabe 9369 2cbe
00000370: d912 6b3d 0440 093d d539 bdbe 68b1 3abe
00000380: 5c71 863e b5c2 b2be ac90 efbd ef5d 17bd
00000390: 7fb0 1a3e b502 793d c84d 61be 203d 24be
000003a0: 2c9b 55be 80b7 3ebe bc83 c1be ca00 02be
000003b0: 5111 c4bd 5472 653d b6dd 853e 3610 d5bd
000003c0: 7e98 82be ba9f 34bd 1521 fdbd a627 dabe
000003d0: 161c 02be 27d3 963d b4f1 033e 3c85 39be
000003e0: 5f74 29bd a3e2 e5be 629d 6abd d4de c23b
000003f0: caaf aa3c 1dc8 b13e 7146 8fbe 2d94 04be
0.031989273 0.04264272 0.034502525 -0.063900515 -0.18108483 0.24970873 0.49671018 -0.15110359
-0.04122317 0.20319411 -0.025069544 -0.20254566 -0.112664744 -0.1853386 -0.055267 0.23281623
0.1562264 0.0092528155 0.03785649 0.1303554 0.40504766 0.3542982 -0.3080028 0.039480567
-0.03153953 0.16571307 -0.25989065 -0.1884764 0.09879581 -0.25416443 -0.24001622 0.07174518
0.11471799 -0.14974645 0.35136333 -0.017415563 0.29201135 0.11573778 0.23200203 -0.25389448
-0.62098557 0.44945708 -0.3830254 0.18765117 -0.08574931 -0.041195367 -0.06010053 -0.05187725
0.121445164 -0.14972128 0.056856714 0.14420493 0.12177774 0.0034096458 -0.43834734 -0.06909644
0.09380494 0.1416124 -0.1728701 -0.054406565 0.22679412 -0.11603299 -0.011711406 -0.00034398606
-0.0269223 0.34439725 0.33472896 0.0056410776 0.3206931 0.10703567 0.41682965 -0.001125575
-0.2668205 0.0044850125 -0.1323241 0.047185715 -0.14139067 0.11284855 -0.06772179 0.18645814
-0.3068471 -0.043150216 0.23599572 -0.069539346 -0.16069672 0.11411093 0.5163678 -0.036051318
0.07975733 0.029857457 -0.30114442 -0.0025661946 0.24229899 0.30253273 0.07213959 -0.45367393
0.100936055 0.1398484 0.22293544 -0.35315087 0.26774397 0.17494713 0.51989394 -0.55656165
-0.33703932 0.31752375 -0.120802335 0.024935901 0.11081149 -0.093980625 -0.17316194 0.27953908
0.21207422 -0.13277315 -0.004913716 -0.10629795 -0.34743577 0.0023848005 -0.0075026806 0.016874446
-0.096061245 -0.059977267 -0.2807206 -0.24455422 -0.034848925 -0.01837153 -0.013627409 -0.34632194
-0.018770264 -0.072184704 0.21989009 0.07173534 0.2217503 0.21422198 0.35511357 0.14343439
0.10398288 -0.07319891 0.13775526 -0.06900615 -0.118374065 0.0981805 0.13128136 0.14977941
0.024287468 0.024023004 -0.03505465 0.00903185 -0.050886508 0.08401177 0.3706536 -0.21997376
-0.09026762 0.15101106 -0.0023895826 -0.113612264 0.20602365 -0.1078291 -0.3194536 0.06481826
-0.26521897 0.021221094 0.3541366 -0.10589082 0.42545453 0.041989498 0.426916 -0.52724403
-0.5676244 0.23798047 -0.16708359 0.13664101 0.028931197 0.009387826 -0.0013905122 0.14640903
-0.038024615 0.042447373 -0.12533574 -0.05699921 -0.09137308 0.022773206 -0.4749514 -0.031454653
0.0019787825 0.05863035 0.016110534 -0.3437498 0.34419724 0.13733122 0.028757697 -0.10674131
-0.10830823 -0.06541985 -0.008133493 -0.09166994 0.13143481 -0.0722878 0.2053966 -0.058905505
-0.011399463 -0.3348155 -0.04301578 -0.2777818 0.04538623 0.018566756 0.05348973 0.10806774
-0.104642384 -0.33599722 -0.012288709 -0.0058234036 -0.16531341 -0.13193144 -0.52938473 0.0014554107
-0.039117068 -0.28950986 -0.332855 -0.16837148 0.05739102 0.033508316 -0.36958185 -0.18231738
0.2625836 -0.34914175 -0.11697516 -0.036954816 0.1510639 0.060793597 -0.22002327 -0.16038942
-0.20859975 -0.18624687 -0.37795818 -0.12695614 -0.09573615 0.056017235 0.26145715 -0.104034826
-0.25506967 -0.04409764 -0.123598255 -0.42608374 -0.12706026 0.07364493 0.12885171 -0.18117231
-0.041370746 -0.44899473 -0.057279 0.0059469733 0.020835776 0.34722987 -0.2798343 -0.1294715

network.1.bias f4 [32]
00000000: 8233 3c3e 57f5 b43c 9c5c 183e 0bbc 093e
00000010: b088 31be 8b15 353d 5dd5 fd3d 632a 37be
00000020: ad26 ddbd 6c4c 783d b811 c9bd 068d 2a3e
00000030: 4efb 48be 1995 cc3c 1f2a 053e 5017 dcbd
00000040: 9122 35bd ae78 153d 4c89 093d 12d6 ff3c
00000050: e518 13be f064 3dbb e82b 3c3e c2b1 04bc
00000060: 9c94 163e c7bf 1f3e b7af 1b3e aef1 a23e
00000070: fd6f 04bc 1741 e53e 7d34 03bd 21f9 62bd
0.18379024 0.022089643 0.14879078 0.13450639 -0.17337298 0.044209998 0.123942114 -0.17887263
-0.107983924 0.060619757 -0.09817833 0.16655359 -0.19627115 0.024973439 0.13004349 -0.10746634
-0.04422242 0.036492042 0.033578202 0.031230006 -0.14364965 -0.0028899275 0.18376124 -0.008099021
0.14705127 0.15600501 0.15203749 0.31825012 -0.008083341 0.44776222 -0.03203248 -0.05541337

network.2.weight f4 [4, 32]
00000000: 66f4 90bd 9a53 193e 7c43 5a3e 80e0 edbe
00000010: 90e1 26be d840 0bbf b93a 553c 2ba6 563f
00000020: 6d1b 48be 6d0f b4be 5d88 cbbe 483e a1be
00000030: 297e b63e 7335 6f3e 6cd9 4cbe 8826 aa3e
00000040: 6f1d 193f a31f 923e 495c e1be efbe 293f
00000050: c613 19bd d481 e0bd 247e f13b 3125 f5bd
00000060: f880 ae3e 6e9d 96be a044 5d3e b2fa 323e
00000070: 0336 ab3d 03e7 a23e 2fe8 57be 9a81 c6bd
00000080: babc 353f b399 46be a1da 40be 7626 8bbd
00000090: 4f8a 12be 967d 98bd 72a5 78bf 2e10 05bf
000000a0: 5e40 83be 9035 213e 4600 9f3e a259 33bf
000000b0: d32d 263f 11f8 ecbe f43a 01bf b476 c3be
000000c0: 2a50 473f e5c6 90bf b905 94bd 2270 d23d
000000d0: 819d 293e caec 84bf e4d5 b43e ad3f 153e
000000e0: b6db 55bd 6584 c1bf 3b6a 483e 7d59 6ebf
000000f0: 17b3 29bf 3c0a 54bf 3ed5 913e beb5 02be
00000100: 1bc6 1ebe 2b8c 403e a58b 0abe b67a a03d
00000110: 25b7 073e ecbd a13e da05 24bf b589 f4be
00000120: e5f5 893e 688f 2c3d 4be5 d13d bfda 313f
00000130: 5d00 85be fa45 41be ce2c 3d3e ccca 8a3e
00000140: 9d46 75be 25e6 71bf a741 bfbd 7e09 d8be
00000150: d2c7 03bd aaec 1e3f c5bb 063f bd94 4bbe
00000160: bfa2 5cbe 6e73 8bbf 7149 93be 39af f63e
00000170: 64e3 1fbf 16e9 97bd a012 85be 51b0 9cbd
00000180: 0bf9 9d3c bfac 47bf 5ae6 aabe a056 b53d
00000190: 62ef 3abd fc94 1c3e 03fe ee3e 7ad2 09bf
000001a0: 2bc0 3abe 876f 33bd b9eb a13e 43ac 08bf
000001b0: 2eff 18bf 8568 57bf fb0c f53e 6808 a5be
000001c0: b689 2fbf bbe0 313e 438f 093f b099 3ebf
000001d0: dbe6 c2bd 6e1d c7be e0e0 4fbe 2736 be3e
000001e0: c7d2 c1be 7e27 113f 5531 0cbf c772 56bf
000001f0: b469 e53e edce d63d a8d0 bfbd d51e af3d
-0.07077865 0.14973298 0.21314806 -0.46460342 -0.16296983 -0.5439582 0.013014489 0.838473
-0.19541712 -0.3516802 -0.39752474 -0.3149283 0.35643128 0.23360233 -0.20004815 0.33232522
0.5981054 0.28539762 -0.4401572 0.66306967 -0.037372373 -0.10962263 0.0073697735 -0.11969984
0.3408277 -0.29416984 0.2160821 0.17478445 0.08359911 0.31816873 -0.21084665 -0.09692688
0.709911 -0.19394569 -0.188334 -0.06794445 -0.14310573 -0.074458286 -0.9712745 -0.51977813
-0.25635046 0.15743089 0.31054896 -0.70058644 0.6491367 -0.4628301 -0.5048058 -0.381765
0.77856696 -1.1310698 -0.07227654 0.10275294 0.16563989 -1.0384762 0.35319436 0.14575072
-0.052211486 -1.5118529 0.19571774 -0.931053 -0.66288894 -0.82828116 0.28483003 -0.12764642
-0.15505259 0.1880347 -0.13529833 0.07835905 0.13253458 0.3159021 -0.6407143 -0.47761312
0.26945415 0.04212895 0.10248812 0.69474405 -0.2597684 -0.1887435 0.18474123 0.27107847
-0.23952718 -0.944918 -0.09338694 -0.42194742 -0.032172985 0.6207987 0.52630264 -0.19880958
-0.21546458 -1.0894601 -0.2876697 0.4818056 -0.62456346 -0.074175045 -0.25990772 -0.07650817
0.019283792 -0.77997965 -0.3337887 0.08854413 -0.04563845 0.15291208 0.4667817 -0.53836787
-0.18237369 -0.043807533 0.31625155 -0.5338785 -0.59764373 -0.8414386 0.47861466 -0.32232976
-0.68569505 0.17370884 0.53734225 -0.7445326 -0.095166884 -0.3888964 -0.20300627 0.3715069
-0.37856123 0.56700885 -0.54762775 -0.83768886 0.44807208 0.10488687 -0.0936597 0.085508026

network.2.bias f4 [4]
00000000: 873a 653d a56c 3fbf c19c 853e 7b20 74bd
0.05596402 -0.74775153 0.26096156 -0.05960129
