data/network-weights/doubledqn-default.pth (torch_old, 19706 bytes, 6 tensors)

network.0.weight f4 [64, 37]
0	0xbd9b68d6	-0.07588355
1	0xbc3e8907	-0.01162935
2	0x3c3e16ab	0.011602084
3	0xbe75fe03	-0.24022679
4	0x3d8dfcaa	0.069329575
5	0xbe645087	-0.22296344
6	0xbc9829b3	-0.018574571
7	0x3e4abe0f	0.19799064
8	0x3dca296c	0.09871182
9	0xbbd63750	-0.0065373555
10	0x3e9397a1	0.2882662
11	0xbd2bd357	-0.041949596
12	0x3dc97df3	0.09838476
13	0xbd589c25	-0.052883286
14	0xbdbb59ad	-0.09147964
15	0xbef39073	-0.47571144
16	0xbde958dc	-0.11393902
17	0x3e195333	0.14973144
18	0xbe487197	-0.19574581
19	0xbe111880	-0.14169502
20	0xbe7bede0	-0.24602461
21	0xbe08185c	-0.13290542
22	0xbe91ea00	-0.2849884
23	0xbebb4f8e	-0.36584133
24	0xbe2a08d2	-0.16604927
25	0xbeb7462d	-0.35795727
26	0xbf139c45	-0.57660323
27	0x3a97c02e	0.001157766
28	0xbe64e35f	-0.2235236
29	0xbeab8251	-0.3349786
30	0xbe111679	-0.14168729
31	0xbea5473b	-0.32280907
32	0xbd358f30	-0.044326007
33	0xbd9f0103	-0.07763865
34	0xbd9b075d	-0.07569764
35	0xbe960203	-0.2929841
36	0xbeb0e676	-0.34550828
37	0x3e117539	0.14204873
38	0x3e544a6b	0.20731513
39	0xbe1a0cca	-0.15043941
40	0x3d4e2bb4	0.050334647
41	0xbe39b3aa	-0.18134943
42	0x3c7c2964	0.015390728
43	0xbd9e5843	-0.07731678
44	0x3ebb2461	0.36551192
45	0xbdfc88ed	-0.12330804
46	0x3e17571d	0.14779325
47	0x3cd72bb8	0.026265964
48	0xbd0587a1	-0.03260005
49	0x3d6f2204	0.05838205
50	0xbe31edb7	-0.17375837
51	0xbc83074a	-0.015994687
52	0xbd5379f4	-0.051629975
53	0xbbd122a5	-0.006382304
54	0x3e4c192a	0.19931474
55	0xbe8477fe	-0.25872797
56	0xbe58b527	-0.21162854
57	0xbe193128	-0.14960158
58	0xbb89016d	-0.004181078
59	0x3d8b69e3	0.06807306
60	0x3e101f2b	0.1407439
61	0x3e231163	0.15924601
62	0x3e9eed8a	0.31040603
63	0xbe6bdfc9	-0.23034586
64	0xbdb7583a	-0.08952375
65	0xbe2c9fe2	-0.16857865
66	0xbf3bce3c	-0.73361564
67	0xbc630ef2	-0.013858544
68	0xbef437ad	-0.47698727
69	0x3d7f9c57	0.062404957
70	0x3e4247d0	0.18972707
71	0x3f232283	0.63724536
72	0x3e7089a9	0.23490013
73	0x3d16570e	0.036704116
74	0x3e16dfba	0.14733782
75	0xbe7e65b4	-0.24843484
76	0xbd35d2c6	-0.044390462
77	0xbdf6e79f	-0.12055897
78	0x3d933a25	0.071888246
79	0x3ecc962c	0.39958322
80	0xbe8660f2	-0.26245838
81	0xbe79b58f	-0.24385665
82	0xbf3c3719	-0.7352157
83	0xc0200954	-2.5005693
84	0x3c0cdeec	0.008598071
85	0xbdfe54de	-0.12418531
86	0x3e776263	0.24158625
87	0xbd2ff770	-0.042960584
88	0xbd8ca67f	-0.06867694
89	0x3d89929b	0.06717416
90	0x3cd50024	0.026001044
91	0x3dc9c464	0.09851912
92	0xbcbce410	-0.023057967
93	0xbd84fc8d	-0.06493483
94	0xbd3ab4cd	-0.04558258
95	0xbd9b6f6e	-0.07589613
96	0xbccc99fe	-0.024975773
97	0xbd8b6a78	-0.06807417
98	0xbe83970d	-0.2570118
99	0x3d35249c	0.044224367
100	0xbdf35b3d	-0.11882637
101	0xbdeac4ca	-0.11463316
102	0xbef068aa	-0.46954852
103	0xbcedb036	-0.029014688
104	0x3d774be5	0.060375113
105	0xbeaa5464	-0.3326751
106	0xbe57dd03	-0.21080403
107	0xbf305f47	-0.6889538
108	0xc005f227	-2.0929048
109	0xbe9ed533	-0.31022033
110	0x3d32bca8	0.043636948
111	0x3b25f8dd	0.0025325336
112	0xbdbcb1a9	-0.092135735
113	0xbe6486f4	-0.22317106
114	0xbeaac910	-0.33356524
115	0xbe390c37	-0.18071066
116	0xbe9bc35b	-0.30422482
117	0xbd40636f	-0.046969827
118	0xbdfce428	-0.12348205
119	0xbe2ca653	-0.16860323
120	0x3e9d3b13	0.30709133
121	0x3d3c629e	0.045992486
122	0xbebfddcf	-0.37473914
123	0xbdef79f9	-0.11693186
124	0xbf162719	-0.5865341
125	0xbed4d27b	-0.41566834
126	0x3d4433e0	0.047901034
127	0xbea4b734	-0.32171023
128	0xbe091b43	-0.13389306
129	0x3de723bb	0.11286112
130	0xbebd58ea	-0.369819
131	0x3e956654	0.29179633
132	0xbf4df332	-0.8044921
133	0x3c72807b	0.01480114
134	0xbeefa51b	-0.46805653
135	0xbfb11e7e	-1.383743
136	0xbe3383cc	-0.17530745
137	0xbe1e1f37	-0.15441595
138	0xbdde1065	-0.10842971
139	0xbd05866b	-0.032598894
140	0xbe683614	-0.22676879
141	0x3d22b090	0.039719164
142	0x3e28e3ed	0.16493197
143	0xbea2120d	-0.31654397
144	0xbf477548	-0.7791333
145	0xbf757e2a	-0.95895636
146	0x3eb7c784	0.35894406
147	0x3e4d71e7	0.20062982
148	0x3c60ab56	0.013712725
149	0x3c85a863	0.016315645
150	0xbdeafe10	-0.1147424
151	0x3e80481e	0.2505502
152	0x3e9130ff	0.28357694
153	0x3cec444f	0.028841166
154	0x3e2214ed	0.15828295
155	0xbe960815	-0.2930304
156	0xbf2c9b92	-0.6742488
157	0xbf89f235	-1.0777041
158	0x3ed62dcb	0.41831812
159	0xbe740c9b	-0.23832934
160	0xbcf8736c	-0.030328475
161	0x3e7521ed	0.23938723
162	0x3b8ffd09	0.004394178
163	0xbd9eb1ee	-0.07748781
164	0xbd2983dc	-0.041385517
165	0xbdc077d6	-0.09397857
166	0x3d88a6a4	0.06672409
167	0x3ec5cef8	0.38634467
168	0x3cd1f928	0.025631502
169	0xbc41513d	-0.011799154
170	0xbe141e4e	-0.14464685
171	0xbd445ef4	-0.047942117
172	0x3f3597e3	0.70934886
173	0xbe0c8355	-0.13721974
174	0xbdf5d9f1	-0.1200446
175	0xbe440ddc	-0.19145912
176	0x3e555faa	0.20837274
177	0x3ececa5b	0.4038876
178	0x3da4e701	0.08051873
179	0xbe9f40eb	-0.31104216
180	0x3d0b3b21	0.033991937
181	0x3d761bb3	0.06008501
182	0x3f396d68	0.72432566
183	0x3e1cd6da	0.15316334
184	0x3d8226d6	0.063550636
185	0x3db2fa4a	0.08739145
186	0xbd87474b	-0.06605395
187	0xbe1c8d94	-0.15288383
188	0xbe8af0a2	-0.27136713
189	0xbe888d15	-0.26670137
190	0x3cd8e501	0.026476385
191	0xbe6439d5	-0.22287686
192	0xbdec67f8	-0.11543268
193	0xbe4f54ec	-0.20247239
194	0xbf95a236	-1.1690128
195	0xbe751aa2	-0.23935941
196	0xbe8196d4	-0.25310385
197	0xbd133f4a	-0.03594903
198	0xbd4c3e03	-0.049863826
199	0xbe3b0457	-0.18263374
200	0xbe4ecbca	-0.20194927
201	0xbd03ea4e	-0.032205872
202	0xbdc9560d	-0.09830866
203	0xbe264956	-0.16238913
204	0xbeb96ebf	-0.36217305
205	0xbe713408	-0.23555005
206	0xbe2fe2f6	-0.17176422
207	0xbec009c4	-0.3750745
208	0xbe007ba6	-0.12547168
209	0xbe39d141	-0.1814623
210	0x3dc002de	0.09375547
211	0xbe16b00d	-0.14715596
212	0xbeb32dce	-0.34995884
213	0xbe828d67	-0.25498506
214	0xbf764fb7	-0.96215385
215	0x3e46cae6	0.19413337
216	0xbd219699	-0.03945026
217	0xbe67da9e	-0.2264199
218	0xbea0c6da	-0.31401712
219	0xbf2a1441	-0.66437155
220	0xbe3309c0	-0.17484188
221	0xbd333ed9	-0.043761108
222	0x3e3b9642	0.18319038
223	0x3b56bd4d	0.003276664
224	0xbdebeaf0	-0.1151942
225	0xbbadbe36	-0.005302216
226	0x3e2efa95	0.17087777
227	0x3e7f2dfc	0.24919885
228	0xbf1205f9	-0.57040364
229	0xbef3ad0d	-0.47592965
230	0xbf291a17	-0.66055435
231	0xc02399b7	-2.556257
232	0x3e241cac	0.16026562
233	0x3d544cfb	0.051831227
234	0x3d9cad1a	0.07650204
235	0x3d84f11f	0.06491303
236	0xbdf8d935	-0.12150804
237	0xbcb78e01	-0.02240658
238	0x3d3bd872	0.045860715
239	0xbd51c1d8	-0.051210254
240	0x3b8f090d	0.0043650926
241	0xbeb1759d	-0.34660044
242	0x3ca447e6	0.020053815
243	0xbe86e9d2	-0.26350266
244	0xbd43dd75	-0.04781862
245	0xbe78e820	-0.24307299
246	0xbe80d913	-0.25165614
247	0x3e67fdbe	0.22655389
248	0x3dfaedb9	0.12252373
249	0xbe31ee40	-0.17376041
250	0xbdd25034	-0.10269204
251	0xbfe55cb9	-1.7918922
252	0xbe651585	-0.2237149
253	0xbd191b59	-0.037379596
254	0x3de2ab82	0.11067869
255	0xbee55dd9	-0.44798163

network.0.bias f4 [64]
0	0xbe113a2c	-0.14182347
1	0x3d8f1e93	0.069882534
2	0x3e4389de	0.19095561
3	0x3e0b2b9f	0.13590859
4	0xbe1f64ba	-0.15565768
5	0xbe32ae10	-0.17449212
6	0x3cdba963	0.026814168
7	0x3de205e0	0.11036277
8	0xbd23726e	-0.03990405
9	0xbe417bf1	-0.18894936
10	0x3c231702	0.009954216
11	0xbe174485	-0.14772232
12	0xbd6dc890	-0.0580526
13	0xbdd15681	-0.102215774
14	0x3d20f8ed	0.039299894
15	0xbdfa68c0	-0.12227011
16	0x3d948385	0.07251648
17	0x3e8708b8	0.2637384
18	0xbd273168	-0.0408186
19	0xbd3f0404	-0.04663469
20	0x3d2e4be4	0.042552844
21	0x3d7bf68f	0.061514433
22	0xbd82be7d	-0.06383989
23	0xbdfe92a0	-0.1243031
24	0x3d4a8164	0.049439803
25	0xbe88baa2	-0.2670489
26	0xbc2c9729	-0.010534086
27	0xbd00fb04	-0.031489387
28	0x3e4628be	0.1935148
29	0x3eb672d5	0.35634485
30	0xbe158c56	-0.14604315
31	0xbe0d4d75	-0.13799079
32	0x3d23375f	0.039847728
33	0xbe316cee	-0.1732671
34	0xbc292589	-0.0103238905
35	0x3e2ae148	0.166875
36	0xba71cb8f	-0.0009223753
37	0xbdb69f7d	-0.08917139
38	0x3e8c6ce1	0.27426818
39	0x3d13fa4b	0.03612737
40	0xbe5d4880	-0.21609688
41	0x3e46eb2b	0.19425647
42	0xbdfb8355	-0.12280909
43	0xbce9de59	-0.028548406
44	0x3e6c92de	0.231029
45	0xbd35a1f4	-0.044343904
46	0x3b165c5e	0.0022943239
47	0x3e9a948b	0.30191454
48	0xbd90b29c	-0.07065317
49	0x3ecd38ba	0.4008234
50	0xbdc5e231	-0.09662283
51	0x3e59ad69	0.21257557
52	0xbe12862d	-0.14308996
53	0xbe094c43	-0.13407998
54	0x3d2a3dd1	0.04156286
55	0xbd21239e	-0.039340608
56	0x3e886164	0.26636803
57	0x3de8237d	0.11334894
58	0xbe23bbad	-0.15989561
59	0x3db6a02c	0.08917269
60	0xbcccf23a	-0.025017846
61	0xbe2e0f17	-0.16997944
62	0x3d011089	0.03150991
63	0xbd76ff9f	-0.060302373

network.1.weight f4 [32, 64]
0	0xbd54c1b7	-0.051942553
1	0x3dcf8910	0.101335645
2	0xbe5bb5be	-0.21456048
3	0x3dacc18c	0.08435354
4	0xbdb04301	-0.0860653
5	0x3b1868fd	0.0023255937
6	0xbd23f8cf	-0.040032204
7	0x3e452fb4	0.19256479
8	0x3cbe75ab	0.023249468
9	0xbe4103ca	-0.18849102
10	0x3e5daab5	0.21647151
11	0xbdab53da	-0.08365603
12	0xbd0267ce	-0.031837277
13	0x3d64c23a	0.05584929
14	0x3ce17951	0.027523668
15	0xbd9b2268	-0.07574922
16	0xbd4fe7b2	-0.05075807
17	0x3dcdaf6c	0.10043225
18	0xbabd332d	-0.0014434807
19	0x3dcf4591	0.101206906
20	0x3beba134	0.007190848
21	0xbe66312c	-0.22479695
22	0xbe4971d0	-0.19672322
23	0xbe1e06ec	-0.15432328
24	0x3ee54b82	0.4478417
25	0xbe165314	-0.1468013
26	0x3e1797cf	0.14804004
27	0xbe91fcb3	-0.28513107
28	0x3e0c0a7b	0.13675873
29	0xbd805ba8	-0.06267482
30	0x3d279843	0.040916692
31	0x3d899873	0.067185305
32	0xbe7e5233	-0.24836044
33	0xbe66e1f2	-0.22547129
34	0x3dc68dfc	0.0969505
35	0xbdd4b412	-0.10385908
36	0x3db15649	0.08659036
37	0xbe6d6d9f	-0.23186348
38	0xbec3090d	-0.38092843
39	0xbe71bac5	-0.23606403
40	0xbd0dfe1c	-0.034666166
41	0xbe7cf9fc	-0.24704736
42	0xbe1c1e1e	-0.15245864
43	0xbe071c26	-0.13194332
44	0xbd81263f	-0.06306123
45	0x3d234c6b	0.0398678
46	0x3b67ef63	0.0035390488
47	0xbed69518	-0.41910625
48	0xbebc67d1	-0.36797956
49	0xbe899fe2	-0.26879793
50	0x3def29c5	0.11677889
51	0xbd8aab7b	-0.067709886
52	0xbdcf66d7	-0.10127037
53	0xbf05e02a	-0.5229517
54	0xbe5f435e	-0.21803042
55	0x3d0a7667	0.033804324
56	0x3f2e0d19	0.67988735
57	0x3e91554d	0.28385392
58	0xbe8bf009	-0.2733157
59	0x3e6b2021	0.22961475
60	0x3e2d8362	0.1694465
61	0xbeb57c6a	-0.35446483
62	0xbe83d8d8	-0.25751376
63	0xbe212526	-0.15736827
64	0xbda090bc	-0.07840106
65	0xbda1384e	-0.078720674
66	0x3e1acb8e	0.15116712
67	0x3d5978b7	0.05309364
68	0x3e0e94c4	0.13923937
69	0x3da1b3a4	0.07895592
70	0x3ec2e166	0.3806259
71	0xbc6aeb04	-0.014338259
72	0xbc79d0d0	-0.015247539
73	0xbd0c7966	-0.034295462
74	0xbe028466	-0.12745818
75	0xbd052647	-0.032507207
76	0x3ece1ff1	0.40258744
77	0x3e370f75	0.1787699
78	0xbde10a42	-0.10988285
79	0x3effcd5f	0.49961373
80	0x3ca7fd33	0.020506477
81	0x3e5f41cd	0.21802445
82	0x3e3eb050	0.18621945
83	0xbe986ff9	-0.29772928
84	0xb9e42069	-0.00043511696
85	0x3daef38f	0.08542549
86	0x3f03f4b3	0.51545256
87	0x3f56173e	0.83629215
88	0x3e99b6a2	0.3002215
89	0xbe17047f	-0.14747809
90	0x3e568094	0.20947486
91	0x3f6b7a93	0.9198391
92	0x3d88f412	0.06687178
93	0x3dff09e5	0.12453059
94	0xbbd1f296	-0.0064070923
95	0xbd59721f	-0.05308735
96	0x3dc475db	0.09592792
97	0x3e5cee4c	0.21575278
98	0x3ec66931	0.3875213
99	0x3e86575c	0.26238525
100	0x3e9906ce	0.29888004
101	0x3cc46805	0.023975382
102	0x3e0efe32	0.13964155
103	0xbde12d5b	-0.10994979
104	0xbeeb5480	-0.45962906
105	0x3ea9bca7	0.33151743
106	0x3da854cd	0.082192995
107	0x3e9d1db5	0.30686727
108	0x3e610e39	0.21978082
109	0xbebad6b6	-0.36491936
110	0xbf02d434	-0.51105046
111	0x3e89cc5e	0.26913732
112	0x3d644c99	0.05573711
113	0x3d0a85ed	0.033819128
114	0x3c74b997	0.014936826
115	0xbe91215f	-0.28345773
116	0x3ea823bf	0.32839772
117	0x3da08277	0.07837384
118	0xbdd866e2	-0.10566498
119	0x3d604a54	0.054758385
120	0x3dfa6a73	0.12227335
121	0xbf002231	-0.5005217
122	0xbda35299	-0.07974739
123	0xbd862610	-0.065502286
124	0xbdbe2594	-0.09284511
125	0x3c2bf932	0.0104964245
126	0xbe831cf3	-0.25608024
127	0xbc97972b	-0.0185047
128	0xbd0686f2	-0.032843538
129	0xbdca1754	-0.09867731
130	0xbe8b2d54	-0.2718302
131	0x3ec06092	0.37573677
132	0x3db380b7	0.08764785
133	0xbcb5e6cf	-0.022204785
134	0xbd5021d9	-0.05081353
135	0xbe20419e	-0.15650031
136	0xbe965d5f	-0.29368111
137	0x3d657f0f	0.056029376
138	0x3ec9f932	0.39447933
139	0x3e177510	0.1479075
140	0xbec46f24	-0.38366044
141	0xbe961ed3	-0.29320392
142	0x3f310107	0.6914219
143	0xbec8e51a	-0.3923729
144	0xbe3426a1	-0.17592861
145	0x3e7e6cf9	0.24846257
146	0xbc6beaef	-0.014399274
147	0x3edfdc2e	0.4372267
148	0xbdde4a74	-0.108540446
149	0xbed86a7e	-0.42268747
150	0x3ecb469e	0.39702314
151	0xbe94f380	-0.29092026
152	0xbe321001	-0.17388918
153	0xbe24875c	-0.1606726
154	0xbedf839c	-0.43655097
155	0xbd8312f9	-0.06400103
156	0x3eefd6ff	0.46843717
157	0x3f23c5f5	0.63973933
158	0xbdc04c21	-0.093895204
159	0xbdaccd06	-0.084375426
160	0xbe8c4592	-0.27396828
161	0xbedf4dda	-0.43614084
162	0x3df99121	0.12185884
163	0x3e2dfa39	0.16989984
164	0x3f01f6dd	0.5076731
165	0x3e81312b	0.25232825
166	0xbe9769a7	-0.29572794
167	0x3e5c177d	0.21493335
168	0x3e0766c9	0.13222803
169	0xbf4b8863	-0.79504985
170	0x3e5e568f	0.21712707
171	0x3dd32938	0.10310596
172	0xbce882f1	-0.02838275
173	0x3dcbe674	0.09956065
174	0xbcd50673	-0.026004052
175	0xbed03997	-0.40668938
176	0xbec7969e	-0.389821
177	0x3e9bf37c	0.304592
178	0x3de2f069	0.11081011
179	0x3e38c91f	0.18045472
180	0xbcc56e2e	-0.02410039
181	0xbf0cbc13	-0.5497448
182	0x3eaceed6	0.33775967
183	0xbcec9527	-0.028879715
184	0x3f1f1141	0.621357
185	0x3e2fbe3c	0.17162412
186	0x3d37f12a	0.044907726
187	0x3da8acf4	0.08236113
188	0xbcc1faa9	-0.023679094
189	0x3d95f060	0.073212385
190	0xbee95ade	-0.4557714
191	0x3e08f5a4	0.13374954
192	0xbdd4b24f	-0.10385572
193	0x3d498e5f	0.04920804
194	0x3c597c29	0.013274231
195	0x3e4bc820	0.1990056
196	0x3e88297c	0.2659415
197	0xbe87abdd	-0.2649831
198	0x3e48aebd	0.19597907
199	0xbe828b4a	-0.25496894
200	0x3d162e63	0.03666533
201	0x3eb9473d	0.36187163
202	0xbd0c4887	-0.034248855
203	0xbe4640e9	-0.19360699
204	0x3d9801b4	0.074222
205	0xbe48de20	-0.19615984
206	0x3d233638	0.03984663
207	0x3e06a6dd	0.13149591
208	0xbdff5dd1	-0.12469066
209	0x3e0e3a71	0.13889481
210	0xbc9e9606	-0.019358646
211	0x3d52b504	0.05144216
212	0x3d41120e	0.04713636
213	0x3caaa4d6	0.020830553
214	0xbe71a185	-0.23596771
215	0xbea7fbde	-0.32809347
216	0x3dee9a8c	0.11650571
217	0x3e7a1330	0.24421382
218	0xbf3815f6	-0.7190851
219	0xbc85ce1e	-0.016333636
220	0x3eb28ad2	0.34871536
221	0x3e8da070	0.27661467
222	0xbcaeab5e	-0.021321949
223	0xbdbe4bb0	-0.0929178
224	0xbe2fee72	-0.17180803
225	0xbe6ca940	-0.23111439
226	0x3d52f599	0.05150375
227	0x3e29d19d	0.16583867
228	0x3e905b9b	0.2819489
229	0xbd54703b	-0.051864844
230	0x3c5e6b72	0.013575422
231	0xbe177b3e	-0.14793107
232	0x3e0e9c61	0.13926841
233	0xbebaee8f	-0.3651013
234	0xbed8c12b	-0.42334875
235	0x3f0c2e79	0.5475841
236	0xbe303171	-0.1720636
237	0x3dcf84bc	0.10132739
238	0xbd8918d1	-0.066941865
239	0xbe64a918	-0.22330129
240	0xbe2781e9	-0.1635815
241	0xbebe7bbe	-0.37203783
242	0x3d8b694a	0.06807192
243	0xbee9deb6	-0.45677727
244	0x3cd2f63d	0.025752181
245	0xbd99870e	-0.07496463
246	0x3ec6b17d	0.38807288
247	0xbd406233	-0.04696865
248	0x3dc426a1	0.095776804
249	0x3cadb9a5	0.021206686
250	0xbd11eb15	-0.035624582
251	0x3ee62d53	0.44956455
252	0xbef69ae5	-0.4816505
253	0x3ea281c4	0.31739628
254	0x3e4d3367	0.2003914
255	0x3e921b0f	0.2853627

network.1.bias f4 [32]
0	0xbd45232c	-0.048129246
1	0xbea35d02	-0.31906897
2	0x3deacb7c	0.11464593
3	0xbc13c87b	-0.009019966
4	0xbd587859	-0.052849147
5	0xbd628e99	-0.055311773
6	0x3e67c229	0.2263266
7	0x3db7f646	0.0898252
8	0xbcfc5f14	-0.030807056
9	0x3be29906	0.0069152145
10	0x3ce813be	0.028329726
11	0x3dd06405	0.10175327
12	0x3dff006e	0.12451254
13	0xbdf87cd2	-0.121331826
14	0x3e052412	0.13002041
15	0xbda10595	-0.07862393
16	0xbe0692c6	-0.13141927
17	0xbe11761d	-0.14205213
18	0xbdcd12f8	-0.100133836
19	0x3dcd4b3a	0.10024114
20	0xbddcb229	-0.10776169
21	0xbd8c8b32	-0.06862487
22	0x3dda462c	0.106579155
23	0xbdfbe157	-0.122988395
24	0xbdb639aa	-0.08897717
25	0x3cde8baa	0.027166206
26	0x3cd8cad0	0.026463896
27	0x3b3c1d06	0.0028703823
28	0xbdbbef7f	-0.0917654
29	0x3ebb4a6d	0.3658022
30	0xbd42b153	-0.04753239
31	0x3ea48e45	0.32139793

network.2.weight f4 [4, 32]
0	0x3dc558f1	0.09636105
1	0x3ea34638	0.3188951
2	0xbed23038	-0.41052413
3	0xbec182a0	-0.3779497
4	0xbeacb175	-0.3372914
5	0xbc96bb9c	-0.018400006
6	0xbf144dcc	-0.5793121
7	0x3e0c7292	0.1371558
8	0xbe9833cb	-0.29727015
9	0xbe9fb49a	-0.31192476
10	0xbeaf3909	-0.34223202
11	0xbe831eb9	-0.25609377
12	0xbeecb6c5	-0.46233192
13	0x3dcc4696	0.09974401
14	0xbe626c31	-0.22111584
15	0x3dad509e	0.08462642
16	0x3f14d802	0.581421
17	0xbdd5bac1	-0.10436011
18	0x3e9cee4a	0.3065055
19	0x3efdc6a0	0.495656
20	0x3e3d080f	0.18460105
21	0x3e502e98	0.20330274
22	0xbf1b8448	-0.6074872
23	0xbc136cf6	-0.008998146
24	0xbe155473	-0.14582996
25	0xbee41cc4	-0.44553196
26	0xbe934828	-0.28765988
27	0xbdcdff00	-0.10058403
28	0xbad42524	-0.0016185385
29	0x3ed404a2	0.41409785
30	0xbe1b198b	-0.15146463
31	0xbd1b98f9	-0.037987683
32	0x3e66300b	0.22479264
33	0x3e120cc7	0.14262687
34	0xbfd3645d	-1.6515003
35	0xbe8cfa20	-0.2753458
36	0xbd3e544f	-0.04646712
37	0x3dc4db0f	0.096120946
38	0xbeb54a21	-0.35408118
39	0xbf07da51	-0.530675
40	0x3e866c5d	0.2625455
41	0x3e3c611f	0.18396424
42	0x3e7e1401	0.24812318
43	0x3ec0cc2f	0.3765578
44	0xbea6ff26	-0.32616538
45	0x3e77536c	0.24152917
46	0xbe644b76	-0.22294411
47	0x3ed49213	0.41517696
48	0xbfd254aa	-1.6432087
49	0xbdeb9469	-0.11502916
50	0x3e8e89a5	0.2783939
51	0xbe5657e1	-0.2093196
52	0x3ed5c423	0.41751203
53	0x3ac88cd4	0.0015300759
54	0xbf261e99	-0.6489044
55	0xbe63bfdb	-0.22241156
56	0x3da4c5f0	0.08045566
57	0xbc4e5206	-0.012592798
58	0xbf7f1b43	-0.99650973
59	0xbe236f3a	-0.15960398
60	0x3eaf364a	0.34221107
61	0xbebf0709	-0.37310055
62	0xbf06a268	-0.5259156
63	0x3ed7fa75	0.4218327
64	0x3f0da35c	0.5532739
65	0xbef17f5a	-0.47167474
66	0x3e9e08aa	0.30865985
67	0x3d696814	0.056984022
68	0x3dfe0d1e	0.12404846
69	0xbd5dcd6d	-0.054150987
70	0xbea98e78	-0.33116508
71	0xbf799a48	-0.9750104
72	0x3ecd8d2d	0.4014677
73	0xbf03918d	-0.5139397
74	0xbeb3ca44	-0.35115254
75	0x3ea9ba74	0.33150065
76	0xbeaba285	-0.3352243
77	0xbeb9096e	-0.36140007
78	0x3dc190d1	0.0945145
79	0xbebf2f56	-0.37340802
80	0xbf862c43	-1.0482258
81	0xbe169b22	-0.14707616
82	0x3e08de17	0.1336597
83	0xbf301dcf	-0.68795484
84	0xbe94bfdb	-0.29052624
85	0x3e002cea	0.12517133
86	0xbe3e77a1	-0.18600322
87	0x3dc7f3c7	0.09763294
88	0x3db66aa0	0.08907056
89	0xbdd0970d	-0.10185061
90	0x3f3fdc88	0.7494588
91	0x3e9ff36e	0.3124041
92	0xbedb1cfd	-0.42795554
93	0xbcaed24e	-0.021340515
94	0xbf336496	-0.70075357
95	0xbe883c16	-0.26608342
96	0xbec2228a	-0.37916976
97	0xbf2aac1d	-0.66668874
98	0x3e99814d	0.2998146
99	0x3de9fa00	0.11424637
100	0x3e17016c	0.14746636
101	0x3e04f500	0.12984085
102	0x3f3352f4	0.7004845
103	0x3eaab9e0	0.33344936
104	0x3e2131dc	0.15741676
105	0xbe1c7997	-0.15280758
106	0xbd380987	-0.04493096
107	0x3e1274c3	0.14302354
108	0x3f06250f	0.52400297
109	0xbedc4013	-0.43017635
110	0x3e93cc7e	0.28866953
111	0xbe6e8ae9	-0.23295178
112	0xbe95eea6	-0.29283637
113	0x3e8abe66	0.27098387
114	0xbd36f917	-0.044671144
115	0xbead1b48	-0.33809876
116	0xbed8aa9d	-0.42317668
117	0xbdc0df70	-0.09417617
118	0x3f39440f	0.72369474
119	0x3e378881	0.17923166
120	0x3ea85663	0.32878408
121	0x3e03c026	0.12866268
122	0xbf71627f	-0.9429092
123	0x3e1a9d20	0.15099001
124	0xbe8c0ace	-0.27351993
125	0xbe04afe2	-0.12957719
126	0x3eb821c9	0.35963276
127	0x3e695e8f	0.22789977

network.2.bias f4 [4]
0	0x3df5068d	0.1196414
1	0xbf01e385	-0.5073779
2	0x3ec28f97	0.38000175
3	0xbe8af146	-0.27137202
