data/network-weights/dqn-default.pth (torch_old, 19706 bytes, 6 tensors)

network.0.weight f4 [64, 37]
00000000: 651e 4c3e b238 173e 41ea 023c a6f1 e63d
00000010: 502a 003d f821 513e b25a 46bf ea70 e6be
00000020: 4828 07bf 87b2 25c0 56d7 3c3e 61ef a33d
00000030: 67ce ecbc 7522 193e 419e b9bd a1b3 543e
00000040: 9289 4c3e 51d1 f1bd 99c6 d53d 1457 bbbc
00000050: abe0 f73d 4d09 32be 0969 04be fb0c 333e
00000060: ed24 25be 66c9 b73c f8ad 6d3e 3a93 29be
00000070: b072 26be 6f22 aabe 651f cb3d fb40 473e
00000080: bff4 053e 2e81 02bd 8883 0abf 69a1 14be
00000090: cd3d 3cbd dbeb b43d d390 853d 7553 c7bc
000000a0: b9f7 c13d 9c8b 2dbe 6fa5 3b3d 1020 6c3e
000000b0: 70ef e53c e0ae 06bd 4c66 1ebb 0508 16bd
000000c0: ebc6 3e3d 18a6 9dbd ad80 2c3e 480c 0ebd
000000d0: 4f75 3bbe 4c14 0abc 4f46 db3d 2171 ac3d
000000e0: 6cc3 89be 5459 ed3d 9313 403b cefc 26b7
000000f0: 2a9d e6bd 2842 1cbf 5149 6a3d cbf1 95bd
00000100: a031 1a3d 31a8 41bd 3cc8 873e 6f90 ac3e
00000110: dd0d 3fbf d400 0dbf f388 23bf ffe6 f9bf
00000120: 85cb 983e 85ea 853c 3ae6 cfbe c80d 71bd
00000130: a494 89be 4a69 083e 1c86 913d 8834 133e
00000140: 8bd3 f3be 5a43 c4be d041 5ebe 050a 1bc0
00000150: b975 e03c 6a0c cebc 6bbd 14bc b033 aebe
00000160: 3789 ecbe 68ad 9fbc 9021 ae3d 3704 bfbd
00000170: ebc0 e53d ac90 2e3e 34ff f33d d235 bcbe
00000180: 5a83 cabd b057 84be 45e1 44bf 023b 88be
00000190: dc35 bfbd ff87 dd3d 5cdb 2dbe f5c2 23be
000001a0: 8f2e 113e eb01 b9be cdf9 a4be 6934 18bf
000001b0: 4a45 e8bf 9ef9 53be a79c 2f3d 3013 59be
000001c0: 15f7 213e 7c48 c6bd 706a a0bd ecba 3abe
000001d0: a597 a5bd f011 8bbe d693 0f3e 1b8b 14be
000001e0: ca23 623f bf36 a2bd 2493 f7bd 2df7 93bd
000001f0: 80dd cb3d d72d 34be 7ae9 3abe e7b8 b7bb
00000200: dbec 0a3e d6a9 17be 0cc1 223e e070 f43d
00000210: 3ef5 983d 9057 5abe 7caf 70bd ac8c 98be
00000220: b41f 62be ce2b 99bd 7c23 1cbd 7361 debd
00000230: f8ad 39bc 27d5 123e d08b e93d a88b d5be
00000240: 5e0b cdbe d903 24bf 86f1 bb3e e0e8 d03d
00000250: 1915 693e 4672 3c3e 54f9 0fbd 5a88 40be
00000260: 5e37 0ebd d93d 49be 1dfb cbbd 6f94 b8bc
00000270: 71ed ccbe 0a83 acbf 130c b83e ccbe 15be
00000280: 27fa 453d 7299 5bbe 2207 dabd 2806 aa3d
00000290: 1aa7 a73c 0cdd dcbd 524a af3d 103c 8ebd
000002a0: 9fe0 1f3e 4645 acbe 3571 51be f1ba 81be
000002b0: ecf5 8bbe e621 5abe a643 7dbe 695f 2c3e
000002c0: 9a87 febd 3012 f6be 6a8d 9d3e 6aa6 8dbe
000002d0: 09f0 43be 55be 7fbc 377a 4ebf 2295 b0bd
000002e0: e515 4dbc 98cf 393e 80db 2e3d ecb5 a53c
000002f0: 7561 32be 0bc3 353d 0305 1e3e 3d71 8cbe
00000300: 1365 77be ec2c 49bf 0c4d 3cc0 59c7 d1bd
00000310: 9c7c 0e3e ccce 50bd 6b5d a4bd 0a2b eabb
00000320: 80e7 543d 270f 25bd 80bd 503d 3a70 d0bd
00000330: 020f ff3d 363f 9fbe d436 de3d 4dc1 333d
00000340: 05be 87be cf4f 793d a6a8 933d 4702 b63d
00000350: 40a7 953d 9bb9 7abe 0ce6 96be e43d 113e
00000360: fd02 bd3d c470 3a3e c50e 47be 45d6 f0be
00000370: 9099 17be 8f5b ae3d 134e 5ebd 7406 5c3a
00000380: 3242 59be 875d d0bc 0ecd 173e ca71 c93c
00000390: d7cc 33be 16a9 26be 5964 84be 540b a0bf
000003a0: 1427 8c3e 3ef6 d73c ca9e 19be 7da4 5ebd
000003b0: a810 cdbe 888b dabe cfdd 113d d9d3 96be
000003c0: 250b 183d eb1b a9bd 882b 2a3e c668 98be
000003d0: f47b b7be 519a 6abe 7be0 4ebf 7ef6 e1bb
000003e0: a79c 2bbe de63 8f3d 8c10 9d3b 8ac8 c0be
000003f0: 8c79 fb3d 1c48 b9be bef1 41be 84b0 64be
0.1993347 0.14767721 0.007990421 0.112765595 0.031290352 0.20423114 -0.7748214 -0.45008022
-0.5279584 -2.5890214 0.18441519 0.08004642 -0.028907014 0.1495455 -0.09063388 0.20771648
0.19974354 -0.11807502 0.1043827 -0.02286867 0.12103399 -0.1738636 -0.12930693 0.1748542
-0.16127367 0.022434901 0.23210895 -0.16560069 -0.16254687 -0.33229396 0.099180974 0.19458382
0.13081644 -0.031861477 -0.5410695 -0.14514698 -0.045957375 0.08834048 0.06521764 -0.024331788
0.094710775 -0.16947788 0.045812067 0.23059106 0.028068274 -0.032881618 -0.002416986 -0.03662874
0.04657642 -0.076976955 0.16845961 -0.03467968 -0.18306468 -0.008427691 0.1070677 0.08420015
-0.26906908 0.115893036 0.0029308542 -9.953232e-06 -0.112604454 -0.61038446 0.057198826 -0.07321509
0.037644982 -0.04727954 0.26519954 0.33703944 -0.7463053 -0.5507939 -0.6388084 -1.952362
0.29842773 0.01634718 -0.40605336 -0.058851033 -0.26871216 0.13321415 0.071056575 0.14375508
-0.47622332 -0.38332635 -0.21704793 -2.4224865 0.027399885 -0.025152404 -0.009078364 -0.3402381
-0.46198437 -0.019491866 0.08502495 -0.09326976 0.11218437 0.17047375 0.119139105 -0.36759812
-0.098883346 -0.2584815 -0.76906234 -0.2660752 -0.09336445 0.10816955 -0.1697821 -0.15992339
0.14177917 -0.36134276 -0.32221833 -0.5945497 -1.8146145 -0.2070069 0.042874005 -0.21198726
0.1581691 -0.09681794 -0.07832801 -0.18235368 -0.080855645 -0.27162123 0.14021239 -0.1450619
0.8833586 -0.07920598 -0.12088612 -0.072248794 0.09954357 -0.17595612 -0.18253127 -0.005606759
0.13566916 -0.14810881 0.15893954 0.11935592 0.07468651 -0.21322465 -0.058761105 -0.29794824
-0.22082406 -0.07479058 -0.038119778 -0.10858431 -0.011332981 0.14339124 0.1140362 -0.41708112
-0.40047735 -0.6406837 0.36707705 0.102006674 0.22761954 0.18402967 -0.035149887 -0.18802014
-0.03472077 -0.196525 -0.099600054 -0.022531716 -0.40024903 -1.347749 0.35946712 -0.14623564
0.048334267 -0.21445253 -0.10645892 0.083019555 0.020465422 -0.10784349 0.08559097 -0.0694505
0.1561303 -0.336466 -0.20453341 -0.25337937 -0.2733606 -0.21301994 -0.24732837 0.16833271
-0.12428208 -0.4806075 0.30771953 -0.27666026 -0.19134535 -0.015609344 -0.80655235 -0.08622195
-0.012517427 0.18145597 0.0426898 0.020228349 -0.1741999 0.04437546 0.154316 -0.27430144
-0.2415965 -0.7858417 -2.9422026 -0.10243101 0.13914722 -0.050978467 -0.080256306 -0.007146244
0.051978588 -0.040297654 0.05096197 -0.101776555 0.124540344 -0.31102914 0.108503014 0.043885518
-0.2651216 0.060867127 0.072099015 0.08887153 0.07307291 -0.24484865 -0.29472387 0.14183766
0.092290856 0.18207079 -0.19439228 -0.47038475 -0.14804673 0.08513557 -0.054273676 0.00083932956
-0.21216658 -0.025435222 0.14824316 0.024590392 -0.17558609 -0.16275439 -0.2585781 -1.2503457
0.27373564 0.026362535 -0.1500198 -0.054356087 -0.4005177 -0.4268458 0.035611924 -0.29458502
0.037120003 -0.08257278 0.16618168 -0.29767436 -0.35836756 -0.2291043 -0.8081128 -0.0068958392
-0.16758977 0.0700147 0.0047932323 -0.37653 0.122790426 -0.36187828 -0.18939874 -0.2233296

network.0.bias f4 [64]
00000000: 0b52 03bd 2c8a 8f3e 6c82 c03d cb95 86bd
00000010: cfa9 acbd a0e8 863c b541 5dbd 2941 583d
00000020: ca73 8cbe 3211 f43d 111a 2cbd 2242 393c
00000030: 4f2f 2bbd 6e49 183c 3a5e fcbd 2709 eabc
00000040: b0ae ca3d 6f96 9b3c 4633 833d 2f84 5bbe
00000050: 8351 4c3e 07e3 bebc 1b46 b6bd c18e cc3d
00000060: 3d6d 243d 1ace 89bd e063 9dbd c36a 7ebd
00000070: 12b2 8e3d 985f 7a3e 9f2e 1dbd 5395 0cbe
00000080: b432 3fbe 055e 17bb cf95 1ebd bea8 5c3e
00000090: 89a5 37bd 8fd4 243e 9a1a 9b3e c5e6 ccbc
000000a0: 1863 62be 3fec 453d a05d 2cbe 9350 2c3d
000000b0: 3b64 823e 618a be3d 01c0 dfbd 6e77 423e
000000c0: 0003 ebbd 48ba df3d 0fc4 a33d 7317 b3bb
000000d0: b7a3 6bbd 03de 81bc d3c7 7c3a 5770 e73d
000000e0: c5e3 bc3d ca22 28bd e242 7abd f29c 57bd
000000f0: 3c21 1fbc f64f 1abe db6b 633e 759d 62be
-0.032060664 0.28035104 0.09399876 -0.065715395 -0.08430826 0.016468346 -0.05401774 0.052796517
-0.2743209 0.11917342 -0.042017046 0.011307271 -0.041793164 0.009294851 -0.1232266 -0.028568817
0.098966 0.01899263 0.06406264 -0.21437143 0.19952969 -0.023301614 -0.0890009 0.09988166
0.04014324 -0.06728764 -0.07685065 -0.062113535 0.06967558 0.24450529 -0.03837454 -0.13728838
-0.18671685 -0.0023096811 -0.038717087 0.21548745 -0.0448356 0.1609671 0.30293733 -0.025012383
-0.22108114 0.048321005 -0.1683259 0.04206903 0.25467095 0.093037374 -0.10925294 0.18990871
-0.114751816 0.10924202 0.079963796 -0.005465442 -0.057529178 -0.015852934 0.0009642813 0.11300724
0.09223131 -0.041048802 -0.06109894 -0.05263991 -0.009712514 -0.15069565 0.22209112 -0.22130378

network.1.weight f4 [32, 64]
00000000: 5f02 f5be 6562 c43d 4102 1d3e dc9c 2c3e
00000010: 608b e8bd efda c7be 36c0 0a3e 4121 f63d
00000020: ecc9 5ebd 5df2 253e 6991 193e 9c43 203e
00000030: 158c 3e3e 290b 103d 6d5b 6c3c db4e b53d
00000040: 4449 8ebe 22a1 39be 3861 33bd 7253 9b3e
00000050: 6d5e 563d 929d b73e e06a 3b3e 78dd 213d
00000060: 9cd1 eebc ded8 3a3e a9b2 683d d45a f3be
00000070: 2263 7b3d 3e62 063e 02c4 c83d cac9 983e
00000080: 4248 9d3c 8324 4bbd 5ac7 583e b963 803e
00000090: 200b 4b3e 08ec 063f ab5a c3bd 808b efbe
000000a0: 9b15 febd 9f23 08be 9e89 62be 6ba7 4bbe
000000b0: f26e 593e 784a 4ebc e46e 16bd 0ec5 0cbf
000000c0: f587 debe 22d7 01be 08e8 96bd 542d 5abe
000000d0: 72eb b6be a5d0 ebbe 0485 a6be b2d8 a83d
000000e0: 5871 9abd e301 07be 0aef 76bd c3e7 903d
000000f0: 628c 053e 1804 e9bd 0ab9 bcbd 11c0 d03d
00000100: 0763 013e c93a 9e3e 378d cd3e 3553 18be
00000110: 99fe 0e3f 7d6b 2ebd 12cd a43e ed66 5fbe
00000120: 54f0 9bbe ef2f c0bd 601e 183c 435c 963d
00000130: fa11 f0bc ff92 553d c1de 6bbe 8093 fe3e
00000140: 9b55 85bb 6d48 d4bd ba6e 563e 01b8 c0bc
00000150: 8bd8 373e 8e9d 9a3d a416 2d3f 8e6b 563c
00000160: 50ee ec3d b656 34be d935 70be 0032 cb3e
00000170: 9551 5bbb e5d2 183e 3501 3bbd 6396 57bc
00000180: f8c6 513e ff32 d2bd 7871 633e 2410 143c
00000190: 6dfe f03d 5cdf 383e a15f 413e 3222 073f
000001a0: fc00 5f3d c7c1 dbbd 225a 1c3d 8bf7 00bf
000001b0: 4f65 703e 1944 dc3e 4380 6bbd 7a81 1a3e
000001c0: 6625 0f3e 8826 94be 0f8b 6cbd 09a8 3cbe
000001d0: 30b3 0e3f e7ee e5bb 0976 1cbd 9acd e03d
000001e0: ac8e a7bd 0683 e33e 71f2 babe 2420 83be
000001f0: 2e47 88bd 1ab4 993d d516 ce3e fc46 b9be
00000200: 4ca4 40be 0d15 ce3d 975a 603d 5985 8abd
00000210: 82bb aabc 7b2e fd3c 54fc 1d3c eed2 843d
00000220: 83b3 45bd fc82 a83d b701 a0bd 6ecd 893c
00000230: 890e d8bd 33ad 943c 4718 aa3c 6744 00be
00000240: 4769 83be 576c b3be b7e5 4bbe d288 153d
00000250: 6db0 b6bd dbef c1bd 041d 97bd d6b9 dfbd
00000260: 203f 8ebe 94af 62bc 9827 b8bd dc6e 09be
00000270: 5e8e 12bd a3f5 d8bd 6b13 6ebe 0471 39bd
00000280: 7c1b fd3d cc0f f7bd 16be 423d 118e 1b3e
00000290: 9ee8 013e 8ace 2e3e e439 5a3e 8835 c8bd
000002a0: e3f9 a3be 6d28 21be 239c 93be 9302 49be
000002b0: 41ac f0bd ae76 e83d c99f bebe 70e5 33be
000002c0: 232d 983d 33aa 66be e951 043e ca14 2fbd
000002d0: c293 a83d 3abf 50be 693d 5dbe 2c63 cebd
000002e0: f44b 58bc 5daa 853b 20fc 16bd 9ddd 63be
000002f0: 57c6 91bd d4db b4be 9be5 9ebe c076 17be
00000300: 6de2 f5bd a55c 903d fc7c 17be 4e3c a53d
00000310: 76dd ab3c a746 cabd ff9f 2e3d 1729 54bd
00000320: 9236 c03c 3e80 dc3d 0633 cebd 788e 3ebd
00000330: 5053 e43d 5a91 3fbd 72ac ddbc 8bb1 dc3c
00000340: cd15 1abe b3f4 f4bc dffe 743d 105d a23b
00000350: 800e d1bd b6a9 403c df76 fcbd 1bd2 e3bd
00000360: decb 3b3d a1ce bdbd 3d0b 0cbe d4a2 123d
00000370: d462 8e3d d157 f9bd 2718 42be 8034 3bbe
00000380: 6140 9abc e040 b9bd 3240 babd 56f0 23be
00000390: 4ca0 c9bd bc6e d4bd dbc2 e8bd f045 55be
000003a0: 01cc 50bc 95e6 01be 862c 1cbe d17f 8f3d
000003b0: e32f a9bc 87f4 11be 0cc1 a2bd 7c6b 8c3d
000003c0: b82b 33be 3e11 05be aa8f 2fbe 3568 c6bd
000003d0: f4ab d1bd 49e7 38be 9004 c63c e1c2 2ebe
000003e0: 46ad 77bc d073 d4bd ef7e 4abd 48e5 9ebd
000003f0: 63f9 b0bd 6896 86bc 4b50 62be e9df 28bd
-0.47853372 0.0958908 0.15332891 0.16856712 -0.11354709 -0.3903422 0.13549885 0.120180614
-0.054391786 0.16205736 0.14996876 0.15650791 0.18608125 0.035166893 0.0144260945 0.08852931
-0.27790272 -0.18127874 -0.043793887 0.303371 0.052336145 0.35862404 0.18302488 0.03951785
-0.029152684 0.18246791 0.05681101 -0.47530234 0.061373837 0.13123414 0.098030105 0.29841453
0.019199494 -0.049595367 0.21169797 0.25076082 0.19828463 0.52703905 -0.09538778 -0.46786118
-0.12406465 -0.13294838 -0.2212281 -0.19888084 0.21233729 -0.012590997 -0.036726847 -0.5498818
-0.43463102 -0.12679723 -0.07368475 -0.21306354 -0.35726506 -0.4605762 -0.32523358 0.08244456
-0.0754115 -0.13184313 -0.06028656 0.07075455 0.13041833 -0.11377734 -0.09214981 0.10192884
0.12635432 0.30904225 0.401468 -0.14875491 0.55857235 -0.042582978 0.32187706 -0.21816607
-0.30456793 -0.093841426 0.009284586 0.07341816 -0.029305447 0.05214214 -0.23034193 0.4972191
-0.004069043 -0.103653766 0.20940676 -0.02352524 0.17953698 0.075495824 0.6761267 0.0130871665
0.11568892 -0.17611203 -0.23458041 0.39686584 -0.0033465375 0.149242 -0.045655448 -0.013158414
0.20486057 -0.10263633 0.22211254 0.009037051 0.11767278 0.18053955 0.18884136 0.5278655
0.0544443 -0.107303195 0.038171895 -0.5037772 0.23476146 0.43020704 -0.057495367 0.15088454
0.1397911 -0.28935647 -0.057749804 -0.18423475 0.5574217 -0.007017005 -0.038198505 0.109767154
-0.081815094 0.444359 -0.36513093 -0.2561046 -0.066542014 0.07505055 0.40251794 -0.3618697
-0.18812674 0.10062609 0.054773893 -0.06763715 -0.020841364 0.030905953 0.009642679 0.06485544
-0.0482669 0.08228108 -0.07812827 0.01682159 -0.10549647 0.018148994 0.02076353 -0.12526093
-0.25666258 -0.35043594 -0.19911848 0.036507435 -0.08920369 -0.09469577 -0.07378581 -0.10924117
-0.27782536 -0.013835806 -0.08991927 -0.13421196 -0.035780303 -0.105937265 -0.23249595 -0.045273796
0.12358758 -0.1206356 0.04754456 0.15190913 0.12686393 0.17070976 0.21311146 -0.09775835
-0.32026586 -0.15738077 -0.2883006 -0.19629888 -0.11751605 0.11350761 -0.3723128 -0.17567992
0.07430484 -0.22525863 0.12921871 -0.042744435 0.082313076 -0.20385447 -0.21605457 -0.10077509
-0.013201702 0.004079147 -0.03686154 -0.22252508 -0.071179084 -0.35323966 -0.3103455 -0.14791393
-0.12006078 0.070489205 -0.14793772 0.08068143 0.020979624 -0.09876757 0.042633053 -0.051797
0.023463521 0.10766648 -0.10068326 -0.046522588 0.11148703 -0.046769477 -0.027059767 0.026940128
-0.15047379 -0.029901838 0.059813377 0.0049549416 -0.10207844 0.011759212 -0.1232736 -0.11124059
0.04584872 -0.09267927 -0.13676162 0.035799816 0.06952444 -0.12174953 -0.18954526 -0.18281746
-0.018829526 -0.09045577 -0.090942755 -0.1600965 -0.09845027 -0.103726834 -0.11365291 -0.2082746
-0.012743951 -0.12685616 -0.1525136 0.07006801 -0.020652717 -0.14253436 -0.07946977 0.068564385
-0.17497146 -0.12994859 -0.17144647 -0.09687845 -0.102378756 -0.18056978 0.024172097 -0.17066528
-0.015116995 -0.10373652 -0.04943746 -0.07758576 -0.08641317 -0.016429141 -0.22100942 -0.041229162

network.1.bias f4 [32]
00000000: 5f07 86bc 5311 3cbe 5665 173d 7f7b f53c
00000010: 91f5 57be 995b 42bd 9f2c 793e cf58 89be
00000020: aa5f 26be 5338 0f3d 4bb6 8ebd c237 16bd
00000030: 255e 973c 6c56 17bd d5a2 613d 2cc4 f0bd
00000040: c7f2 393e 035a 84bd 4849 2bbe 48ba 8a3d
00000050: 427b 5fbe 8701 1a3e 7a65 f73d 4e70 c03c
00000060: 4d90 7cbe 1ae3 013c de9f e43c 39f0 c03d
00000070: c3fd bdbd 4c9c c43d 5b6e afbd dcb5 363e
-0.016360937 -0.18365984 0.036961876 0.029966114 -0.2108977 -0.047450636 0.24333428 -0.26825568
-0.1624743 0.034965824 -0.069683634 -0.03667427 0.018477509 -0.036947653 0.05508693 -0.11756167
0.18159018 -0.06462481 -0.16727173 0.067738116 -0.21824363 0.15039645 0.12079902 0.023491051
-0.24664421 0.00792768 0.027908262 0.09420819 -0.09276917 0.09600124 -0.085659705 0.17842811

network.2.weight f4 [4, 32]
00000000: ca47 d4be 4e1f 243f 837a a4be 2fef 1ebe
00000010: b1e2 a9bd 47a1 47be 7214 743c c81a 103f
00000020: 73b8 0ebe cb69 d3be b78c 9ebe 28b5 c7bd
00000030: fb9e a3be 1ad4 23be 63cd 1ebd 9af2 9d3d
00000040: daf8 823e 6d6d 023b b5bd 143f a838 6d3e
00000050: 3919 273e d15d 883e e125 8a3e 638a ba3e
00000060: 8f9a 183f 8223 09be ab9f a2be 94c6 a9be
00000070: 6a79 7cbd 89f0 bf3e 058f fdbb c0c2 073e
00000080: c843 6f3d 8c75 f23e f437 bf3b dfb6 7abd
00000090: 4eec 503d da06 733d 830d b0bf d9b7 f13d
000000a0: 0411 9d3d 322b 74be 3677 ce3d dc27 7e3e
000000b0: 1a45 a9be d32d 43be c6d3 3fbe 7b8d edbd
000000c0: d55c 66be 07b8 79bf 4498 53be 89c9 c8bd
000000d0: 5a83 133e 8afe 54be 9a7e 0b3e b581 94bb
000000e0: e0ef b7be c8bf 963d 622d 30bf c124 2abf
000000f0: 89c8 133f 217b 123c 6e76 153e 25b4 dfbe
00000100: 78c5 d8be fce4 01bf 9299 7cbe f071 04be
00000110: 5cdf 3dbd 6d79 003e 3b3e 9e3e 05ec b5be
00000120: 04fa 993e a5b3 d83e 84f0 b43d 4b90 3c3e
00000130: de06 173f 7cf5 123e 5bc6 3c3e 6072 84bd
00000140: 99a8 3fbf fab1 7cbf 1153 73be 189e 91bd
00000150: f6f8 69bd e7f6 c73e 1a31 98be 1081 1abe
00000160: 904f d2be 12f5 42be 7d7f f23e 10b5 24bf
00000170: c3ca 3c3e 2945 95be 41ba 13be 7007 2fbe
00000180: 3aba 3e3f 6b5e 2fbf 1bd6 a63e 163c 6dbe
00000190: 27a0 cbbd a428 453e 3061 3b3e 5c3b 20bf
000001a0: 2833 0abe e1e6 05bf 8e9f c63d d079 b63b
000001b0: 2f98 40be d21f cebd 4dd4 9d3d 77c9 9e3c
000001c0: b3ef 81bd 6e29 0d3f 9997 d3be f74b 893d
000001d0: f7c3 85bd 2523 1dbf 81ce 803d 8296 76be
000001e0: de4b 32bf af42 29be f676 93bf 5fec 393f
000001f0: 24ee e93e 5a7a a1bd 0560 3bbe 49fb cf3d
-0.4146102 0.6411027 -0.3212472 -0.15520929 -0.08295191 -0.19495116 0.014897453 0.56290865
-0.1393755 -0.4129165 -0.30966732 -0.0975135 -0.3195723 -0.15998879 -0.03877009 0.07712288
0.25580484 0.0019901649 0.5810197 0.23166144 0.16318215 0.26634076 0.26982024 0.36433706
0.5961084 -0.13392451 -0.31762442 -0.33159316 -0.061639227 0.374882 -0.0077379965 0.13257885
0.05841425 0.47355306 0.0058355276 -0.061209556 0.051006608 0.059332706 -1.3754123 0.11802644
0.07669261 -0.23844603 0.100813314 0.24819893 -0.33060533 -0.1906045 -0.18733129 -0.11599251
-0.2249635 -0.9754643 -0.20663553 -0.09804065 0.14405575 -0.20800224 0.13622513 -0.004532064
-0.35925198 0.07360798 -0.6881925 -0.6646233 0.5772787 0.008940489 0.14595959 -0.43692127
-0.42338157 -0.5074003 -0.24667957 -0.12934089 -0.04635559 0.1254632 0.30906853 -0.3553163
0.3007356 0.42324558 0.08834937 0.18414418 0.58994853 0.14351457 0.18435042 -0.06467128
-0.74866635 -0.9870907 -0.23762156 -0.07110232 -0.057122193 0.3905556 -0.29724962 -0.15088296
-0.41076326 -0.190388 0.4736289 -0.6433878 0.18436722 -0.29154328 -0.14426519 -0.17092681
0.7450291 -0.68503445 0.32585225 -0.23167452 -0.09942656 0.19253784 0.18298793 -0.62590575
-0.13496077 -0.5230542 0.096984014 0.0055687204 -0.18808053 -0.10064663 0.07706509 0.019383175
-0.06344547 0.5514134 -0.41326597 0.06703942 -0.06531518 -0.6138175 0.062893875 -0.24080852
-0.69647014 -0.16529344 -1.1520679 0.726263 0.456895 -0.07884665 -0.18298347 0.10155351

network.2.bias f4 [4]
00000000: 8041 543c 5432 c3bc 50c0 67bd 03cc 913d
0.01295507 -0.02382771 -0.056579888 0.0711899
