data/network-weights/network.pth (torch_old, 28463 bytes, 6 tensors)

fc1.weight f4 [64, 37]
0	0x3e55e495	0.20887978
1	0x3e0afe44	0.13573557
2	0x3dcdc02e	0.10046421
3	0x3e67c80a	0.22634903
4	0xbe098775	-0.13430579
5	0x3ee0eb9c	0.43929756
6	0xbcb23a53	-0.021756327
7	0xbe8820d2	-0.2658754
8	0xbee524f9	-0.4475477
9	0xc0197952	-2.3980298
10	0x3e1b5c3f	0.15171908
11	0x3e08190d	0.13290806
12	0x3e2227fa	0.15835562
13	0x3e950939	0.291086
14	0xbce1240d	-0.02748301
15	0xbd703679	-0.0586457
16	0x3e369d74	0.17833501
17	0x3e1af9f3	0.1513441
18	0x3d0eaf83	0.03483535
19	0x3e016462	0.12635949
20	0x3cf94394	0.030427732
21	0xbcddd7f4	-0.027080514
22	0x3e131d36	0.14366612
23	0xbd860e98	-0.06545752
24	0xbde14154	-0.109987885
25	0xbcbe446c	-0.023225985
26	0x3e149f5a	0.14513913
27	0xbe057a91	-0.13035037
28	0x3d3240f5	0.04351898
29	0xbe01650f	-0.12636207
30	0x3c95570f	0.01822999
31	0x3e4c7eb1	0.19970204
32	0x3e94912c	0.29017007
33	0xbe34d61a	-0.17659798
34	0xbe914621	-0.28373817
35	0xbdab2582	-0.083567634
36	0xbc5f9387	-0.013646013
37	0x3da57c19	0.080803104
38	0xbe3177f1	-0.1733091
39	0x3e02f755	0.12789662
40	0xbd112641	-0.035436872
41	0xbea6ec98	-0.32602382
42	0x3e13236e	0.14368984
43	0x3dcb4f2e	0.09927212
44	0xbd59086d	-0.05298655
45	0xbd41eba6	-0.047343872
46	0x3eb8680c	0.3601688
47	0x3dc5d75f	0.096602194
48	0xbea34d0b	-0.31894717
49	0xbe0be1a4	-0.13660294
50	0xbe81add4	-0.25327933
51	0xbed921da	-0.4240864
52	0x3df465ca	0.11933477
53	0xbddeb441	-0.108742245
54	0xbc6c76fd	-0.014432666
55	0xbddc0d29	-0.107446976
56	0xbe9f09ae	-0.31062073
57	0x3e56af89	0.20965399
58	0xbcaaf518	-0.020868823
59	0xbe4e5061	-0.2014785
60	0xbeea8811	-0.45806935
61	0xbf0b00a3	-0.54297847
62	0x3d907017	0.070526294
63	0xbda1ca0e	-0.07899867
64	0xbb3e7031	-0.002905857
65	0xbeddc935	-0.4331757
66	0xbd340a66	-0.04395523
67	0x3d54b867	0.051933672
68	0xbe88d2cf	-0.26723334
69	0xbe3f9b21	-0.1871152
70	0xbca6edc9	-0.020377057
71	0xbf19b26c	-0.60037875
72	0x3ef172c2	0.47157866
73	0x3cf6de65	0.030135343
74	0x3dc3fd74	0.09569827
75	0xbdc7df5d	-0.097594
76	0xbe900b38	-0.2813356
77	0xbea82c52	-0.32846314
78	0xbdc5330f	-0.09628879
79	0x3e32020d	0.17383595
80	0xbeb0337f	-0.34414288
81	0xbe817f11	-0.25292256
82	0xbeb1e650	-0.34746027
83	0xc00e8db6	-2.2273993
84	0x3e1dba77	0.15403162
85	0x3d260d25	0.04053988
86	0xbd891ef2	-0.066953555
87	0xbe185e8f	-0.14879821
88	0xbba8c673	-0.00515061
89	0x3de558d5	0.11198584
90	0x3e076db5	0.13225444
91	0xbe8446fc	-0.25835407
92	0x3a541711	0.00080905954
93	0xbe57c259	-0.21070231
94	0xbe407663	-0.18795161
95	0xbd96d487	-0.07364755
96	0x3e6c8133	0.2309616
97	0xbdaa3aab	-0.08311971
98	0xbd175c3c	-0.036953196
99	0xbe74f116	-0.23920092
100	0x3dbc957d	0.092082
101	0xbd8eb49c	-0.06968042
102	0xbd3e0d79	-0.046399567
103	0xbf0934ae	-0.5359601
104	0xbd22f763	-0.039786708
105	0xbe02f7c2	-0.12789825
106	0xbe3b9d68	-0.18321764
107	0xbca0d7a6	-0.01963408
108	0xbed4fc67	-0.41598818
109	0xbeb622a5	-0.35573307
110	0x3dc2b3cb	0.09506949
111	0x3d4840e2	0.048890002
112	0x3dfb9bb4	0.122855574
113	0xbe190a9b	-0.14945452
114	0x3d59c5cf	0.05316716
115	0x3deddea2	0.116147295
116	0x3e16aa57	0.14713417
117	0xbe93b092	-0.2884565
118	0xbe3ff648	-0.18746293
119	0xbf1777bc	-0.59167075
120	0xbfbba78f	-1.466051
121	0x3c3f219e	0.01166573
122	0xbd0da152	-0.034577675
123	0xbdb486cd	-0.08814774
124	0xbcce373c	-0.025172822
125	0xbed2a424	-0.41140854
126	0xbdf3e1fa	-0.11908336
127	0xbdac7bd6	-0.08422057
128	0x3e4ea33a	0.20179453
129	0x3d138b09	0.036021266
130	0x3eea4d75	0.4576222
131	0x3dea0437	0.11426585
132	0x3e303e9e	0.17211387
133	0xbda0a5f9	-0.07844157
134	0x3dcd0972	0.10011567
135	0xbea569cc	-0.3230728
136	0x3db1a22d	0.08673511
137	0xbe263eff	-0.16234969
138	0xbd4d320c	-0.050096557
139	0xbe6a9e9e	-0.2291207
140	0xbd2cad11	-0.042157236
141	0x3c28ca6a	0.0103021655
142	0xbdd59ff3	-0.104308985
143	0xbd38ebd6	-0.045146786
144	0xbead5172	-0.338512
145	0xbefb4435	-0.49075475
146	0x3da21fdf	0.07916235
147	0x3d74fcc0	0.059811354
148	0x3e7a3176	0.2443293
149	0xbe54c1fb	-0.20777123
150	0xbbf384b0	-0.007431589
151	0x3df2f04d	0.1186224
152	0x3c92efa9	0.017936544
153	0xbe9fb466	-0.3119232
154	0x3e7b3c94	0.24534827
155	0x3e186707	0.14883052
156	0x3f558772	0.834098
157	0x3fc82733	1.5636963
158	0x3df60ddf	0.120143645
159	0xbce2044b	-0.027589938
160	0x3dcb4bc3	0.0992656
161	0x3d1a9990	0.037744105
162	0x3e1d9b97	0.15391384
163	0xbe786f06	-0.24261102
164	0x3d851d4d	0.06499729
165	0x3db71389	0.08939273
166	0x3e3c6ce7	0.18400918
167	0x3e9da13a	0.3078707
168	0x3df33454	0.11875215
169	0xbdb060d4	-0.086122185
170	0xbd3cee1c	-0.046125516
171	0xbca7f1f0	-0.020501107
172	0x3ddb1f51	0.106993325
173	0x3b2defd0	0.0026540644
174	0xbe84bb18	-0.2592399
175	0x3da6d576	0.08146183
176	0x3d31b056	0.043381058
177	0x3e89c0be	0.26904863
178	0x3e990491	0.29886296
179	0xbdb5aaae	-0.08870445
180	0xbdd3868f	-0.103283994
181	0xbcb644a3	-0.022249525
182	0xbe7f5e62	-0.24938348
183	0xbdf95d2f	-0.121759765
184	0x3dec7de5	0.1154745
185	0x3e6496d5	0.22323163
186	0x3c5f9752	0.013646917
187	0x3c7cbc9b	0.015425826
188	0xbdae2435	-0.08503
189	0xbc97a5ba	-0.018511642
190	0x3ea4f9ac	0.32221735
191	0xbf2111d3	-0.6291782
192	0xbecbe9c2	-0.3982678
193	0xbf1cbf91	-0.6122981
194	0xc0283142	-2.6280065
195	0xbd263f5a	-0.04058776
196	0xbd70b067	-0.05876198
197	0x3dd47a71	0.10374916
198	0x3dcb63db	0.09931155
199	0xbda5b349	-0.080908366
200	0xbdbe919b	-0.09305116
201	0xbc8624c5	-0.016374955
202	0x3e0bc96e	0.13651058
203	0xbcfc7a7a	-0.03082012
204	0xbd7cbccb	-0.061703485
205	0xbdf78a73	-0.12086954
206	0xbd8e1b17	-0.06938761
207	0xbd9e0896	-0.077164814
208	0x3d3fd0bf	0.046829935
209	0xbc7cc600	-0.015428066
210	0x3d90f6fc	0.070783585
211	0x3e00745e	0.1254439
212	0xbc66c09e	-0.014084009
213	0xbdbcacce	-0.092126474
214	0xbde6c82f	-0.11268651
215	0x3e258842	0.1616526
216	0x3e09fa7a	0.13474455
217	0xbda383a3	-0.07984092
218	0x3de4ea4d	0.11177502
219	0xbe0a271c	-0.13491482
220	0x3b1fae67	0.0024365427
221	0x3d4c8464	0.049930945
222	0xbdca3370	-0.09873092
223	0xbe370763	-0.17873912
224	0x3dac8abb	0.08424898
225	0xbc400210	-0.011719242
226	0x3df5429f	0.119755976
227	0x3e3ac87d	0.18240543
228	0xbe92074f	-0.285212
229	0xbeddcfaf	-0.43322513
230	0xbf05b6bc	-0.52231956
231	0xc00dc449	-2.2151053
232	0x3eb04cf6	0.34433717
233	0x3deb4a3f	0.11488771
234	0xbe3c749a	-0.18403855
235	0x3e453d17	0.19261585
236	0xbdce8918	-0.10084742
237	0xbd7e89b1	-0.06214303
238	0xbea05ea3	-0.31322202
239	0xbe7a3930	-0.24435878
240	0x3dff1c14	0.12456527
241	0xbe855883	-0.26044092
242	0x3d2932a1	0.04130805
243	0x3dc1f79b	0.09471055
244	0xbe968a62	-0.29402453
245	0xbe7039c8	-0.23459542
246	0xbdcdc382	-0.10047056
247	0x3de96b77	0.113974504
248	0xbd99db0b	-0.07512482
249	0x3de51987	0.111865096
250	0xbe658d5f	-0.2241721
251	0xbe178698	-0.14797437
252	0xbe50c790	-0.20388627
253	0x3dfccfc2	0.12344314
254	0xbbba2ff0	-0.005681984
255	0xbe5be794	-0.21475059

fc1.bias f4 [64]
0	0x3d7b4127	0.06134143
1	0x3e149688	0.14510548
2	0x3da36a8c	0.079793066
3	0xbd42d3ee	-0.047565393
4	0xbdfefa00	-0.124500275
5	0x3d677ae2	0.056513675
6	0xbc318dcf	-0.010837032
7	0xbd577c68	-0.052608877
8	0xbd895aa0	-0.067067385
9	0x3e7798eb	0.24179427
10	0x3d557f7b	0.052123528
11	0xbe13846c	-0.14405984
12	0xbe1020e8	-0.14075053
13	0x3dacfd88	0.08446795
14	0xbe12c939	-0.14334573
15	0x3c6bf7ba	0.014402324
16	0x3e366952	0.17813614
17	0x3e60e742	0.21963218
18	0x3e8c3ba3	0.2738925
19	0xbe0bfc09	-0.13670363
20	0x3db7a8cb	0.089677416
21	0xbd62e710	-0.05539614
22	0x3d05dd78	0.032681912
23	0xbd6f0231	-0.0583517
24	0xbda38edf	-0.07986235
25	0xbe7a24a2	-0.24428037
26	0xbe260f81	-0.16216852
27	0xbe350296	-0.17676768
28	0x3e7f839f	0.24952553
29	0xbd8045b1	-0.062632926
30	0xbda02d29	-0.078211136
31	0x3d7cc43e	0.06171059
32	0xbd4a60bc	-0.04940866
33	0xbdf10569	-0.1176861
34	0xbe3704da	-0.17872944
35	0x3df41765	0.11918525
36	0x3d78a874	0.060707524
37	0x3e12e5aa	0.14345422
38	0x3e885642	0.2662831
39	0x3b19654f	0.0023406332
40	0xbd82b71c	-0.063825816
41	0x3e0bbc51	0.13646056
42	0x3a284618	0.0006419136
43	0x3e1775e0	0.1479106
44	0x3e27ae57	0.16375099
45	0xbe306791	-0.17227007
46	0xbe2e1511	-0.17000224
47	0x3b5e5a97	0.0033928507
48	0xbab75b7f	-0.001398906
49	0x3dc3d4f2	0.095621005
50	0xbd690632	-0.056890674
51	0x3e0c4439	0.136979
52	0xbd292d57	-0.041303005
53	0xbe12ed46	-0.14348325
54	0x3d96860d	0.07349787
55	0xbb61618b	-0.0034390416
56	0x3e23ca38	0.15995109
57	0xbcb11645	-0.021617064
58	0xbc4dd1c8	-0.012562223
59	0xbcc3df25	-0.023910115
60	0xbc565932	-0.013082789
61	0xbd9e1f36	-0.07720797
62	0x3ce39cb9	0.027784692
63	0xbe5fe5e8	-0.21865046

fc2.weight f4 [64, 64]
0	0x3cc5d560	0.024149597
1	0xbe5e6ea3	-0.21721892
2	0x3e44f0ea	0.19232526
3	0x3f33f419	0.7029434
4	0xbe748634	-0.2387932
5	0x3df9a719	0.121900745
6	0x3ea45d06	0.3210222
7	0xbcd3d043	-0.025856143
8	0xbc97174b	-0.018443724
9	0x3d406c74	0.04697843
10	0xbd97fd9d	-0.0742142
11	0xbe5cabb2	-0.21549872
12	0x3dfab5e8	0.12241727
13	0xbcb401a9	-0.021973448
14	0xbe443f77	-0.19164835
15	0x3e11cc6b	0.14238136
16	0xbd71e6d1	-0.059058014
17	0x3e01c671	0.12673356
18	0xbce1e0dc	-0.027573042
19	0x3da6bc9c	0.08141443
20	0xbd40803f	-0.046997305
21	0x3e535384	0.20637327
22	0x3e192bba	0.14958087
23	0xbea47ff7	-0.3212888
24	0x3e8a8851	0.27057126
25	0x3d7c3d49	0.061581884
26	0x3cd10d7a	0.025519121
27	0xbe72ed3e	-0.23723313
28	0x3e0502c8	0.12989342
29	0x3d28fcb3	0.041256618
30	0x3e2f0e28	0.17095244
31	0x3de645c0	0.112437725
32	0xbdcb38fb	-0.099229775
33	0xbdc5a302	-0.09650232
34	0x3e04b710	0.12960458
35	0xbd308be2	-0.043102153
36	0x3df5ebc0	0.12007856
37	0xbd143fa7	-0.036193516
38	0xbab04e1f	-0.0013451016
39	0xbec32c2c	-0.38119638
40	0xbe9bae9f	-0.30406663
41	0x3d8945ab	0.06702741
42	0x3d4dfdd0	0.050290883
43	0xbe450828	-0.19241393
44	0xbd2588fe	-0.04041385
45	0x3e8b2294	0.2717482
46	0x3c9072b0	0.017632812
47	0xbd24ec90	-0.040264666
48	0x3decf483	0.115700744
49	0x3e293323	0.16523413
50	0x3ebb8edc	0.3663243
51	0xbe5d40f9	-0.21606816
52	0xbdc0323d	-0.09384582
53	0xbe4f6faf	-0.20257448
54	0xbf07a01d	-0.5297869
55	0x3f47f0ce	0.78101814
56	0x3e1c3c8b	0.1525747
57	0x3de0f9a7	0.109851174
58	0xbe446a74	-0.19181234
59	0x3eacb06c	0.3372835
60	0x3df3e029	0.119079895
61	0xbe0f3599	-0.1398529
62	0xbe712a2f	-0.23551248
63	0x3e6d9098	0.2319969
64	0x3e0d415f	0.13794468
65	0x3d71a5f6	0.058996163
66	0x3d4e437b	0.050357323
67	0xbd19a6e9	-0.037512694
68	0x3d939ae4	0.072072774
69	0xbdfa292f	-0.122148864
70	0xbe0c832a	-0.1372191
71	0xbcaf5604	-0.02140332
72	0x3c4511ea	0.012028197
73	0xbe003ea1	-0.12523891
74	0xbda6e6db	-0.08149501
75	0xbd004e53	-0.031324696
76	0xbdef8d96	-0.11696927
77	0xbd997d73	-0.07494631
78	0xbe14f5b5	-0.14546855
79	0x3d68b805	0.05681612
80	0xbdde64f1	-0.10859097
81	0x3dc364ad	0.09540687
82	0xbc9c2921	-0.01906258
83	0xbcfa2acf	-0.03053799
84	0xbda1bf6e	-0.078978404
85	0x3c293b91	0.010329143
86	0x3e0943fc	0.1340484
87	0xbd96772d	-0.0734695
88	0x3c06fb4b	0.008238624
89	0xbdaf6595	-0.08564297
90	0xbe2a2504	-0.16615683
91	0x3da96bd3	0.08272519
92	0xbe2f8ac1	-0.17142774
93	0x3dabbc0f	0.08385479
94	0x3da3b633	0.07993736
95	0xbda30ce1	-0.07961441
96	0x3d976991	0.07393182
97	0x3dbfa932	0.09358443
98	0x3caccded	0.021094287
99	0xbe2dd7a4	-0.16976792
100	0xbdb042e4	-0.086065084
101	0xbda96e80	-0.08273029
102	0xbd35ea9b	-0.04441319
103	0x3c0b8a5f	0.008516877
104	0xbc70bda5	-0.014693652
105	0xbd4a7f80	-0.049438
106	0x3e102f96	0.14080653
107	0xbe6ff5b0	-0.23433566
108	0x3d818200	0.06323624
109	0x3cf62c3c	0.03005039
110	0xbdab90e6	-0.083772466
111	0x3d34195c	0.043969497
112	0xbc4b4b78	-0.01240813
113	0xbd527be9	-0.0513877
114	0xbe78dc49	-0.24302782
115	0xbe286cc5	-0.16447742
116	0xbe88c10f	-0.26709792
117	0x3cca20dd	0.024673874
118	0x3d4dfa0d	0.050287295
119	0xbda36b10	-0.07979405
120	0x3d074c0d	0.033031512
121	0xbded4c1b	-0.115867816
122	0xbcfc71d5	-0.030815998
123	0xbdced87f	-0.10099887
124	0xbddf494c	-0.10902652
125	0x3e090913	0.13382368
126	0x3dfca68e	0.12336455
127	0xbbc9f201	-0.0061628823
128	0x3dda96e2	0.1067331
129	0x3d19e595	0.037572462
130	0x3e7a7754	0.24459583
131	0x3c53cbce	0.012927009
132	0xbeab02d3	-0.33400592
133	0x3c1eaa9e	0.009684233
134	0x3d84ef6c	0.064909786
135	0x3e4120e3	0.18860202
136	0x3de0b204	0.10971454
137	0xbd7ea5d6	-0.062169872
138	0xbd26174f	-0.040549573
139	0xbd758369	-0.059939776
140	0x3d04cdca	0.03242282
141	0xbd4632e6	-0.048388384
142	0xbc8f98ef	-0.01752898
143	0xbdce166c	-0.100628704
144	0x3e2d3334	0.16914064
145	0xbe22c51b	-0.15895502
146	0xbde4d045	-0.11172537
147	0x3bb70ca4	0.0055862237
148	0xbdbf9ed2	-0.093564644
149	0x3d115d4a	0.035489358
150	0x3e5d8f12	0.21636608
151	0xbde22611	-0.11042417
152	0xbd79f940	-0.06102872
153	0xbe46afa4	-0.19402939
154	0x3e82f541	0.2557774
155	0xbe63570d	-0.22201176
156	0x3e8e79ed	0.27827397
157	0xbd678f9d	-0.056533445
158	0xbdc4c76a	-0.09608348
159	0xbe78fb9a	-0.24314728
160	0x3dee6122	0.1163962
161	0x3c664bb2	0.014056133
162	0x3e3cbbc1	0.18430997
163	0x3b6587d8	0.0035023596
164	0x3e71bb5b	0.23606627
165	0xbb47d018	-0.0030489024
166	0x3e4d20b0	0.20032
167	0xbe8f8619	-0.28031996
168	0xbeb2285e	-0.34796423
169	0x3db9df7e	0.09075831
170	0x3ddd5ee2	0.10809113
171	0x3d55af51	0.052169148
172	0xbd9dff6f	-0.07714736
173	0x3da61490	0.08109391
174	0xbd6f20c7	-0.05838087
175	0x3d37aa17	0.044839945
176	0xbd301994	-0.042993143
177	0xbe7e9e7d	-0.24865146
178	0x3e34ca41	0.17655279
179	0xbd5b5aab	-0.053553265
180	0x3d713036	0.05888387
181	0xbe855a91	-0.2604566
182	0xbe804ef0	-0.25060225
183	0xbd4da497	-0.050205793
184	0x3c1ec533	0.009690571
185	0xbd22d975	-0.039758164
186	0xbdc8e32c	-0.098089546
187	0xbd83da3f	-0.064381115
188	0x3e6ed91d	0.2332501
189	0xbe3b77f2	-0.18307474
190	0xbed79ab2	-0.4211021
191	0x3e2b6d2c	0.16740865
192	0xbe035ba3	-0.12827925
193	0x3da396e0	0.079877615
194	0xbdbf2959	-0.09334058
195	0x3d77600d	0.060394336
196	0x3db56969	0.08857996
197	0xbdfbaf8f	-0.122893445
198	0x3d105be7	0.035243895
199	0xbd94307d	-0.07235811
200	0x3ce8429d	0.028352076
201	0x3e1dafd1	0.153991
202	0xbde7d162	-0.113192335
203	0xbdb684ea	-0.0891207
204	0x3da0d385	0.07852844
205	0x3cca1fbf	0.02467334
206	0xbcaa95d2	-0.020823393
207	0x3d28818c	0.04113917
208	0xbd81db2f	-0.06340634
209	0xbce725f6	-0.028216343
210	0x3d6d1ace	0.05788689
211	0x3dcca675	0.09992687
212	0xbdda5777	-0.10661214
213	0x3dc9f0b8	0.098603666
214	0xbdc9929c	-0.09842417
215	0xbdce279d	-0.100661494
216	0x3d759c11	0.05996329
217	0xbd16376a	-0.03667394
218	0xbbcd5b88	-0.006267015
219	0xbcd4f2e8	-0.025994733
220	0xbd093db5	-0.033506114
221	0xbde7b6ca	-0.11314161
222	0xbe52b5e4	-0.20577198
223	0xbe094447	-0.13404952
224	0x3d160202	0.03662301
225	0xbd6f43be	-0.058414213
226	0xbba59360	-0.005052969
227	0xbd993f25	-0.07482747
228	0xbdb1fad4	-0.0869042
229	0x3c7b8c67	0.015353299
230	0xbdb322e1	-0.08746887
231	0xbe272adf	-0.16324948
232	0xbcb7bd72	-0.022429202
233	0xbe0c3d00	-0.13695145
234	0xbdf0b905	-0.1175404
235	0x3d77d113	0.060502123
236	0xbbb875e5	-0.0056292885
237	0xbdb264e0	-0.08710647
238	0xbd87dd61	-0.066340216
239	0x3da04e87	0.07827478
240	0xbe67099f	-0.22562264
241	0xbd298e18	-0.041395277
242	0xbdd69759	-0.10478086
243	0xbd81bbb4	-0.0633463
244	0x3bfa17d7	0.0076322365
245	0xbe027b84	-0.1274243
246	0x3dc976b8	0.09837097
247	0xbdd54b54	-0.10414758
248	0x3dda418e	0.10657035
249	0xbde56438	-0.11200756
250	0xbdd880af	-0.105714194
251	0x3c23d073	0.009998429
252	0xbd7e82db	-0.062136512
253	0x3debb6c2	0.11509468
254	0xbe850c06	-0.25985736
255	0x39a4c8d1	0.00031430137

fc2.bias f4 [64]
0	0x3bb77c82	0.0055995593
1	0xbddf73e3	-0.109107755
2	0x3ce6a0f5	0.028152922
3	0xbd86ed97	-0.065882854
4	0x3d90edca	0.07076605
5	0xbd47ed8b	-0.048810523
6	0xbe115019	-0.14190711
7	0x3e1c25fa	0.15248862
8	0x3d8025cc	0.06257209
9	0x3d0c3dfb	0.034238797
10	0xbde373b4	-0.11106053
11	0x3d317964	0.043328658
12	0x3cd3621a	0.025803614
13	0xbd8938e4	-0.06700304
14	0xbcdf5186	-0.027260553
15	0xbdc80748	-0.09767014
16	0xbe42b873	-0.19015674
17	0xbe241076	-0.16021904
18	0xbd309ef1	-0.04312033
19	0x3de49c11	0.1116258
20	0xbe6c7eb5	-0.2309521
21	0xbe088c62	-0.13334802
22	0xbd51cbfb	-0.05121992
23	0xbda2a1fa	-0.07941051
24	0x3e10f769	0.1415688
25	0xbe1d73ba	-0.15376177
26	0xbe5264c5	-0.20546253
27	0x3a57bd3e	0.00082297984
28	0xbdc5184e	-0.096237764
29	0xbe49f3b7	-0.19721876
30	0x3e44beb7	0.19213377
31	0xbe0e3775	-0.13888343
32	0xbd240abd	-0.040049303
33	0xbd3a0e49	-0.04542378
34	0xbd93fdec	-0.07226166
35	0xbe63fa7b	-0.2226352
36	0x3e6033b8	0.21894729
37	0xbd27cf5a	-0.04096923
38	0x3e4f7dcc	0.20262831
39	0xbd8f57a1	-0.06999136
40	0x3e0ddfc1	0.13854887
41	0xbda5e1be	-0.080996975
42	0xbb57dcdb	-0.0032938037
43	0x3e376056	0.17907843
44	0xbddeee6a	-0.108853176
45	0x3e6821ec	0.2266919
46	0xbcdece1a	-0.027197886
47	0x3e6fff3e	0.23437211
48	0x3d8b88d2	0.06813206
49	0xbc74e2e6	-0.014946675
50	0xbe0004bf	-0.1250181
51	0xbdeab642	-0.11460544
52	0xbe4539f3	-0.19260387
53	0x3d8a7cb0	0.067620635
54	0x3e02f81b	0.12789957
55	0x3bc64fb6	0.0060519828
56	0x3e154ad2	0.14579323
57	0xbd773678	-0.06035468
58	0x3e513276	0.20429406
59	0xbdc651a3	-0.0968354
60	0x3ea462f0	0.32106733
61	0x3cbd4ca8	0.023107842
62	0xbe15fe06	-0.14647684
63	0xbdcae62e	-0.099071845

fc3.weight f4 [4, 64]
0	0x3f09fb64	0.53899217
1	0xbb0ded14	-0.0021656202
2	0x3e902783	0.28155145
3	0xbdd14b32	-0.102194205
4	0xbe672d14	-0.2257579
5	0xbe42b1e4	-0.19013172
6	0x3e4d30fd	0.20038219
7	0x3e2c8c18	0.16850317
8	0x3ec75a13	0.3893591
9	0x3d512e25	0.051069397
10	0xbdcd5a69	-0.1002701
11	0xbd0de901	-0.034646038
12	0xbdc58d0c	-0.09646043
13	0x3f125532	0.5716125
14	0xbd7e5fa0	-0.062102914
15	0xbd8b9bc6	-0.06816821
16	0x3d558ed1	0.052138153
17	0x3efc1b6f	0.4923968
18	0xbeacfbbb	-0.33785805
19	0xbb138769	-0.002251113
20	0xbc4bc821	-0.012437851
21	0x3df0e164	0.1176174
22	0xbea22f94	-0.31676924
23	0x3d7c8fdf	0.061660644
24	0x3dea0585	0.11426834
25	0x3ea5e553	0.32401523
26	0x3f0ee11d	0.55812246
27	0xbd2dd47e	-0.042438976
28	0xbdb2e4c2	-0.08735038
29	0x3e0575c3	0.13033204
30	0x3da0a1e2	0.07843377
31	0x3cf7358f	0.030176906
32	0xbbc6aa2d	-0.006062767
33	0x3e86432d	0.26223126
34	0x3f013326	0.5046867
35	0xbdbcb5b0	-0.09214342
36	0x3e8f2c46	0.27963465
37	0x3e48f5be	0.19624993
38	0xbe07a50e	-0.13246557
39	0x3da52887	0.080643706
40	0x3e8500ec	0.25977266
41	0x3eae0c41	0.33993724
42	0xbec08283	-0.37599573
43	0x3ea735aa	0.3265813
44	0x3e9efaea	0.31050807
45	0xbd4464af	-0.04794758
46	0x3ebeda37	0.3727586
47	0xbddc75d0	-0.107646585
48	0xbe2f745a	-0.17134228
49	0x3e9aadde	0.30210775
50	0xbe0c11f0	-0.13678718
51	0x3e104889	0.1409017
52	0x3d91a002	0.07110597
53	0x3d2dc32b	0.042422455
54	0xbecd9f93	-0.40160808
55	0x3e9c5126	0.3053066
56	0xbef3c474	-0.4761082
57	0xbcdc49d3	-0.02689067
58	0x3e2fe8c7	0.17178641
59	0x3c07504c	0.00825889
60	0x3e2033c3	0.15644746
61	0x3d0743df	0.03302371
62	0xbd3313bb	-0.04371999
63	0x3e6e70d1	0.23285224
64	0xbe447d8b	-0.19188516
65	0xbda0abe5	-0.07845286
66	0xbe9420e4	-0.28931344
67	0xbdd2b0e4	-0.102876455
68	0xbf4c1c93	-0.797311
69	0x3e8c0fd9	0.2735584
70	0xbf1f1591	-0.6214228
71	0xbea5c149	-0.32374027
72	0x3d0dc3bd	0.0346105
73	0x3e70440e	0.23463461
74	0x3ddf7ef3	0.109128855
75	0x3ced415f	0.028961835
76	0x3dc20ea9	0.094754525
77	0xbf301b33	-0.687915
78	0xbdc1a80f	-0.09455883
79	0x3d81492e	0.06312786
80	0x3e3b9c71	0.18321396
81	0xbead9bbe	-0.33907884
82	0xbf451d74	-0.76998067
83	0xbdb86475	-0.09003536
84	0x3e9af1ea	0.3026269
85	0x3ea4afa3	0.3216525
86	0xbd933cc0	-0.071893215
87	0x3c5ef382	0.0136078615
88	0x3e1a849d	0.1508965
89	0xbd6858eb	-0.056725424
90	0xbf4bb324	-0.7957022
91	0x3ea65af9	0.32491282
92	0x3ddb3df9	0.1070518
93	0xbed57242	-0.41688734
94	0xbf678f42	-0.9045297
95	0xbcb12234	-0.021622755
96	0xbd2771c3	-0.040879976
97	0xbeebf950	-0.46088648
98	0xbf1fe06d	-0.6245182
99	0xbd9894aa	-0.074502304
100	0xbdbcf70c	-0.09226808
101	0x3e936e63	0.28795156
102	0xbe5965d7	-0.21230255
103	0xbd2f25a3	-0.042760503
104	0x3d332b75	0.043742616
105	0xbecf7aea	-0.40523463
106	0xbf589609	-0.84603935
107	0xbd3ea78c	-0.046546504
108	0x3db0fc04	0.08641818
109	0xbf7eacc4	-0.9948237
110	0xbe378f7e	-0.17925832
111	0xbf0c6ade	-0.54850566
112	0x3e2935cb	0.16524427
113	0xbf21490d	-0.6300209
114	0x3d97c353	0.07410302
115	0x3bf38de9	0.0074326885
116	0xbeba2568	-0.36356664
117	0x3e739966	0.23788986
118	0xbf57cf1f	-0.84300417
119	0xbeb8fd79	-0.36130884
120	0xbf5b3e0e	-0.8564156
121	0xbd4213a0	-0.047381997
122	0x3f0e0db5	0.55489665
123	0x3c548327	0.012970722
124	0xbf2ffad6	-0.6874212
125	0xbe2f4bd4	-0.1711877
126	0x3e638f1e	0.22222564
127	0xbda47c9c	-0.0803158
128	0xbd511c38	-0.051052302
129	0x3ab414de	0.0013739129
130	0xbcdef777	-0.02721761
131	0xbd62902b	-0.05531327
132	0xbf37687e	-0.7164382
133	0x3db2f823	0.087387346
134	0xbd9e626a	-0.07733615
135	0xbf7f52c5	-0.9973567
136	0xbdaae1b5	-0.083438314
137	0x3e8bc4ee	0.27298683
138	0x3d0a637c	0.033786282
139	0x3dc28641	0.09498263
140	0xbde815e4	-0.113323
141	0xbeb3c393	-0.3511015
142	0x3e5035bc	0.20332998
143	0x3e7b1366	0.24519119
144	0x3dad0bdc	0.084495276
145	0xbde85332	-0.11343993
146	0x3f148241	0.5801125
147	0xbf1829c7	-0.5943875
148	0x3eec27be	0.4612407
149	0xbe96e09f	-0.29468247
150	0xbe42f555	-0.19038899
151	0xbe2a65b1	-0.16640355
152	0xbe8cc26f	-0.2749209
153	0xbefc8bf1	-0.49325517
154	0xbcdf6f46	-0.027274739
155	0x3e65e858	0.22451913
156	0x3cb0a167	0.021561338
157	0xbe0d90a3	-0.13824706
158	0x3d615bbb	0.05501912
159	0xbdf2bb8b	-0.11852177
160	0x3caedafb	0.021344652
161	0xbe181074	-0.14850026
162	0xbefaa738	-0.48955703
163	0x3cdd88cd	0.02704277
164	0xbe856b3e	-0.26058382
165	0x3dd58163	0.10425069
166	0x3ea30fe3	0.31848058
167	0x3987ce99	0.00025903134
168	0xbeddf4dc	-0.43350875
169	0xbeb1843c	-0.346712
170	0x3ee4567a	0.44597226
171	0xbeb4f8a9	-0.35345963
172	0xbe8cc1f7	-0.27491733
173	0xbe8fd678	-0.28093314
174	0x3e1c97bd	0.15292259
175	0x3ef5d7ab	0.48016104
176	0xbe6a14c1	-0.2285948
177	0xbe4986c6	-0.19680318
178	0xbd879b63	-0.066214345
179	0xbbec15e5	-0.0072047585
180	0x3dcb3c81	0.099236496
181	0xbf089fb9	-0.5336872
182	0xbef119e9	-0.4709008
183	0x3d4479ae	0.047967605
184	0xbeb8191c	-0.35956657
185	0x3c8ac275	0.016938427
186	0x3ef61d06	0.48069018
187	0xbc45bb11	-0.012068526
188	0x3e1a80e7	0.15088235
189	0x3e80b79e	0.2514009
190	0x3e7013df	0.2344508
191	0xbbd86341	-0.006603629
192	0xbecf0e39	-0.4044054
193	0xbd97e7c8	-0.07417256
194	0xbde6cd5c	-0.11269638
195	0x3ce1b2c6	0.027551066
196	0x3ef7d3a6	0.48403662
197	0x3e9248b3	0.2857109
198	0xbe9b1d15	-0.30295625
199	0x3e31cf49	0.1736423
200	0xbe2b8c68	-0.1675278
201	0xbd707b69	-0.058711443
202	0x3b89135c	0.004183216
203	0xbc58f954	-0.013243038
204	0x3db2fd6b	0.08739742
205	0xbee85a10	-0.45381212
206	0xbe683b4b	-0.22678868
207	0x3d90b2b4	0.07065335
208	0xbeed428b	-0.4633983
209	0xbd6c9b7e	-0.057765476
210	0xbe6dc929	-0.23221268
211	0x3e451832	0.19247511
212	0xbe8dbabc	-0.2768153
213	0xbe3e09b1	-0.18558384
214	0x3e9bd083	0.3043252
215	0x3e51cf60	0.20489264
216	0xbe0f3e3e	-0.13988587
217	0x3ca1bd8a	0.0197437
218	0xbe6bfc62	-0.23045495
219	0x3d7d3ba2	0.06182445
220	0x3d9d8033	0.07690468
221	0x3d41f79b	0.047355276
222	0xbf0a27f3	-0.5396721
223	0xbda5450a	-0.08069809
224	0x3d04a0a3	0.032379758
225	0xbed28284	-0.411152
226	0xbe343b1c	-0.17600673
227	0x3e11e5a3	0.14247756
228	0xbeacf7dc	-0.33782852
229	0x3d8caa00	0.068683624
230	0xbf12e693	-0.5738308
231	0xbe881496	-0.26578206
232	0xbdb52464	-0.088448316
233	0xbeb57e68	-0.35448003
234	0x3d374f04	0.04475309
235	0xbe91f5a4	-0.2850772
236	0x3e68b449	0.22725023
237	0x3f00c347	0.5029797
238	0xbec75f9d	-0.38940135
239	0xbf4dbc41	-0.8036538
240	0x3dd2b21a	0.102878764
241	0xbdcb4621	-0.099254854
242	0x3c18259b	0.00928631
243	0x3dc57ee0	0.0964334
244	0xbb922052	-0.0044594193
245	0xbed0a6d1	-0.4075227
246	0x3f1422e8	0.5786576
247	0xbeb7d07c	-0.35901248
248	0x3f15b761	0.5848294
249	0x3d5380d0	0.051636517
250	0x3d6b70a3	0.057480466
251	0x3d954683	0.0728884
252	0xbdb9ae66	-0.09066467
253	0xbf79d878	-0.9759593
254	0x3dcfe7d6	0.10151641
255	0xbe9ef819	-0.31048658

fc3.bias f4 [4]
0	0x3cce1003	0.02515412
1	0xbe3ace06	-0.18242654
2	0xbd692c6c	-0.05692713
3	0x3e34dd87	0.17662631
