data/network-weights/soft_at_13.pth (torch_old, 19706 bytes, 6 tensors)

network.0.weight f4 [64, 37]
00000000: 4560 843e 0b31 fc3c 5e00 aebd 50d6 4fbe
00000010: 5657 8f3e e597 4dbd 0bfb 2a3e d478 b43d
00000020: 7e28 80be 3b6e 3abd 3093 3f3e e52f c3bc
00000030: d3ff 33be db4d 6bbe 47c1 6abe 930f 1f3d
00000040: 9cf1 003e d6e8 fdbd f2f3 c3bd 5d9c 9b3e
00000050: 0289 113f 6d4b 08bf 9130 41bf f46a 2cbf
00000060: a5bb b9bf 3b89 1fbe d63c fd3d dd20 68be
00000070: 07f5 f83d b06f 1b3d 48af 8c3e 2a63 4f3e
00000080: aa3d c2bd 1520 85be ba20 84bf dbdc 203e
00000090: 4d3a 973d 77b8 d5be d9bb a73d 7d3e b9bd
000000a0: 6aee f1bd 76ad 3bbd 02f7 6abe e8c6 3e3d
000000b0: 4e62 1f3d b86c 273e 9858 6d3e 364b 0e3e
000000c0: 34dd 4cbe cdcf 00bf 759c 94be c7ef d8be
000000d0: 0297 a1be fbc1 a63d 2c30 a43b 2dfa a1be
000000e0: 1da2 fe3d 102f 033f 87d0 88bf 8ff7 5bbf
000000f0: 2e01 a0bf 39a0 febf 6a25 80be d354 f4bd
00000100: 8415 babd ef84 bb3d efd6 ae3e 0144 e6be
00000110: 1d87 423e 6459 b4bd 3bea 12be 7247 31be
00000120: 4131 143d adea 813d 961b 49be 9b20 81bb
00000130: 0afa 60bc c6b6 103e 7b15 9c3e a60f cc3e
00000140: 46d0 0ebf cdd1 ccbe b87b c9be b4b2 c4bf
00000150: 1e43 5c3d 83f9 07be 5407 7f3e bc62 923c
00000160: 84fc e2bd 1509 093e 07e1 f23d bcd8 ffbc
00000170: 5ad4 553e 3c91 653e 7d7f 9fbd 2e42 493d
00000180: 4acc 0abe 2a90 203d 46b4 22be 2c69 01be
00000190: 2e45 a1bc d957 763d 2a02 ebbd 8cf3 4bbd
000001a0: cb4e ec3d 5212 4f3d 4d48 22be f564 44be
000001b0: aca1 6bbf a559 0cbe c644 9f3d b980 2b3e
000001c0: 5ab1 e73c 5090 443d 8599 53bd f07e c93d
000001d0: 9b95 07bf 22bf e43d 7475 293e c54a 243f
000001e0: d3fe 503f 13e7 e3bd 94bf 3fbc a001 e13d
000001f0: 441a 553c f6ea 773c ce93 02be beef 033e
00000200: c311 073e 1b1c b93d dfcc df3e 7901 a23e
00000210: 7010 183e 5c62 8dbd d7bb 3bbd 29e2 a13d
00000220: 947a 1b3e 416a 0fbe acfd 12be 952e 9b3d
00000230: fb06 dc3e aba8 1dbf 805d 933e 9839 1abd
00000240: 6364 733e da2e fa3d bf9d 233f 2a32 82be
00000250: cd1d 093d 863c c5bd a54b 63bd 0ece 573d
00000260: c399 823d 0622 bdbc 7610 27be ff52 64be
00000270: 8e12 a7be 59d1 2bbe 1eec f33d b1c4 b8bd
00000280: c047 543e 22a1 41bd c0ec 9dbd c7cc bfbe
00000290: 7260 cf3d 5154 173e 5652 9a3c 30cd fb3e
000002a0: 66d3 d53d 22da 783d 4d90 3ebe cfd4 91be
000002b0: 283f 7cbb 860e 4dbe 68a2 52be 7ded b03d
000002c0: 27af 393c 2b41 193e 8723 433f 2ecb d3be
000002d0: 9b7b 00bf 72f9 01bf 348c f5be 9682 983e
000002e0: 8ff3 033e 012b ce3d fd39 00bc 58ce 2ebd
000002f0: 9c51 c0bd 5d4a 053e 6eda 35be 4d82 2e3d
00000300: 9e9f 5f3e 9c1f 90bd 8bf8 763e 32a6 073e
00000310: ca4c 833d fb62 a0be 6b00 ccbe f006 903b
00000320: 30d2 7b3c b0f7 9cbe f130 ed3c 0ed5 43bd
00000330: 8b70 af3d ecd3 c53b fd8b f9bd 490d 17bf
00000340: ce30 99be 02bd 15bf 458d ecbd d3d2 c93d
00000350: 1345 79be cae2 abbd 4c36 6ebc 25de 1a3f
00000360: d581 acbe 6366 1fbf 0ee9 debe a372 d9bf
00000370: 3887 87bd 731e 403d b9b3 3a3e e654 013e
00000380: 3c82 36be bd2d 2cbe 363d 113e 9084 043f
00000390: 8a0e 1bbf fe46 19bf 9570 11bf 3ffa a4bf
000003a0: 40d8 2e3e d340 833e 231f 7dbd 12b9 d8bd
000003b0: d9a1 703e 5b83 67bd d28f 09be 06f2 813c
000003c0: e4a4 91bd 4190 cfbe 279f 05be e68c 803d
000003d0: 4caa 30be c319 d63d 2cb1 3aba 616b 5a3e
000003e0: dde5 1abe d2b6 813e efde cbbd 7f89 02bf
000003f0: d0cf 7a3e bb54 a5bd 05b5 36be e0cd 8cbe
0.25854698 0.030785104 -0.08496164 -0.20296597 0.2799632 -0.050193686 0.16697328 0.08812109
-0.25030893 -0.04551528 0.18708491 -0.023826549 -0.17578058 -0.22978918 -0.22925292 0.038833212
0.12592167 -0.123979256 -0.09568013 0.30392733 0.5684968 -0.5324009 -0.7546473 -0.673507
-1.451039 -0.15579693 0.12365119 -0.22668786 0.1215611 0.03794831 0.2747748 0.20252672
-0.09484418 -0.2600104 -1.0322487 0.1570925 0.07384167 -0.41742298 0.08190126 -0.09045122
-0.11813052 -0.045819722 -0.22945789 0.04657641 0.03891211 0.16350067 0.23178327 0.13895878
-0.20006257 -0.5031708 -0.29025617 -0.42370436 -0.31560522 0.081424676 0.0050106253 -0.3163618
0.124332644 0.51243687 -1.0688637 -0.8592462 -1.250036 -1.9892646 -0.25028545 -0.119302414
-0.09086135 0.091562144 0.34148356 -0.44973758 0.18996854 -0.088061124 -0.14347164 -0.1731241
0.036179785 0.06343589 -0.1963943 -0.0039406545 -0.013731489 0.14132223 0.30485138 0.3985569
-0.5578655 -0.40003815 -0.39352202 -1.5367036 0.053774945 -0.13278775 0.24905139 0.017869346
-0.1108332 0.13382371 0.11859327 -0.031231277 0.20881787 0.22418684 -0.07787988 0.04913538
-0.13554493 0.039199986 -0.15889081 -0.12637776 -0.019686308 0.06014237 -0.11475022 -0.04979281
0.11538466 0.05055458 -0.15847893 -0.19179137 -0.92043567 -0.13706072 0.07776789 0.16748323
0.02828281 0.04798919 -0.05166008 0.098386645 -0.52962655 0.11169268 0.16548711 0.6417659
0.8163883 -0.11128058 -0.011703391 0.10986638 0.0130067505 0.015131703 -0.12751696 0.12884423
0.1319037 0.09038564 0.43710992 0.3164175 0.1485002 -0.06903526 -0.045833435 0.07904465
0.15183479 -0.14005376 -0.1435458 0.07577244 0.42974076 -0.6158549 0.28782272 -0.037652582
0.23768763 0.122159675 0.63912576 -0.25428897 0.033475686 -0.096306846 -0.055492062 0.052686743
0.06376984 -0.023087513 -0.16314873 -0.22297285 -0.32631344 -0.16779079 0.1191027 -0.09021891
0.20730495 -0.04727281 -0.07711172 -0.3746092 0.10125817 0.14778258 0.018838089 0.49179983
0.10440712 0.060754903 -0.18609734 -0.28482673 -0.0038489792 -0.20025072 -0.20569766 0.08639047
0.0113332635 0.14966266 0.76226085 -0.4136595 -0.50188607 -0.5077125 -0.4795853 0.2978713
0.12885879 0.10066796 -0.0078263255 -0.042677253 -0.09390566 0.13016649 -0.17759106 0.042604733
0.21838233 -0.07037279 0.24118249 0.13246992 0.06411131 -0.31325516 -0.3984407 0.0043953583
0.015369937 -0.3065772 0.028954001 -0.047810607 0.08566388 0.006037226 -0.12184904 -0.59004647
-0.29920048 -0.5849153 -0.115503825 0.09854665 -0.24342756 -0.08392866 -0.014539313 0.60495216
-0.33692804 -0.62265605 -0.43537182 -1.6988109 -0.06617588 0.04690404 0.18232621 0.12630042
-0.17823118 -0.16814323 0.14183506 0.51764774 -0.6056906 -0.5987395 -0.5681241 -1.2888869
0.1707468 0.25635394 -0.061797272 -0.10582174 0.2349924 -0.056521755 -0.1343377 0.015862476
-0.071115285 -0.40539744 -0.13048993 0.06276874 -0.17252463 0.104541324 -0.00071217376 0.21330024
-0.15126748 0.25334793 -0.099546306 -0.5099105 0.24493337 -0.08072802 -0.17842491 -0.2750082

network.0.bias f4 [64]
00000000: 0fd8 b83d 4058 243e 283b 993d a0e9 243d
00000010: c47e 87bd 98b6 a3bc 2de8 6abd 7a6c 17be
00000020: 959e dcbd 8c91 81bd 213a 81be 67d0 cfbd
00000030: 614c 383d 9c1f 60bd 6c6b 9cbe d2ef 47bc
00000040: e82c 733e b1c3 3e3e 1648 4e3e 56b0 70be
00000050: 924c dfbb 66c2 8abc a3ed 7abe 44ff 343d
00000060: 796b 90bd c962 643b 5182 f3bd 17c3 3fbe
00000070: 318b 673e 4664 3d3e 04c6 c3bc c8a5 debd
00000080: a981 9fbd 7f9b 33be 6356 47be 1103 ea3d
00000090: 8d87 13bd ad14 353d 0f56 9e3e 0240 06be
000000a0: 7f3d acbe ff79 113d 7c31 fa3d 5219 183e
000000b0: 5a9e dd3d eb66 86be 4610 ac3a 3353 3b3e
000000c0: a09a 7a3d f2f9 7a3e 29ff 503c d499 273e
000000d0: 01ba 1bbe afda 8abd d026 d63d 2132 e63c
000000e0: e29c 253e 88bd ce3d 04c5 ab3d baa7 9cbd
000000f0: 240c 26bd 2094 7f3d f7fa 0f3d c38e 3cbe
0.09025585 0.1604929 0.07481986 0.040261865 -0.066159755 -0.019984528 -0.057350326 -0.14787474
-0.107724346 -0.06326589 -0.2523966 -0.101471715 0.044994716 -0.054717645 -0.30550706 -0.012203174
0.23747599 0.18629338 0.20144686 -0.23504767 -0.006814548 -0.0169384 -0.24504714 0.044188753
-0.07051749 0.003484892 -0.1189009 -0.18726765 0.22611691 0.18495283 -0.023898132 -0.10871464
-0.077884026 -0.17539786 -0.19466548 0.11426366 -0.036017943 0.04420917 0.30925032 -0.13110355
-0.33640668 0.035516735 0.1221647 0.14853409 0.10821219 -0.26250395 0.0013127408 0.18293457
0.06118262 0.24509409 0.012756147 0.16367275 -0.15207674 -0.06779992 0.10456622 0.028100075
0.16173127 0.10094744 0.08387187 -0.07649179 -0.040538922 0.062397122 0.035151448 -0.18413834

network.1.weight f4 [32, 64]
00000000: 1fa9 74be 7bcb 5e3d 8ebf e4bd 2f46 2d3d
00000010: e56d a1bd 9179 8ebb 72c0 c73d f046 dfbd
00000020: df29 8bbd 9841 74bd 383a 8cbc cbfc 21be
00000030: 13ac b33b 5d5d 13be 6bce 15bc 1fa7 5f3d
00000040: cc49 8fbd 0e7e 213d 2e5f 183c f040 4a3d
00000050: 146f 793d 1452 81bb 7437 64be 3387 3bbe
00000060: 56ae 1c3d e617 463d ac40 42bd 5910 19be
00000070: 97b7 893c 02e5 c6bc 8a52 073d 6c35 503d
00000080: dd63 debc b28b 84bd dfaa 363d a261 0ebe
00000090: 7638 cfbb 0987 07be 51d0 72bd d3ae 9bbd
000000a0: 1111 e3bd 0d4a 0ebb febe 24be d965 f0bd
000000b0: 7048 803d 6fb8 103c 665e 793b 7934 1abe
000000c0: 22b9 8fbd 232f dabd 5694 213d 9283 1abe
000000d0: 10a1 2dbd bb60 05be 652a 15bd 64ed d5bb
000000e0: eef4 09bd 210c 8dbd 55ad 9ebc d095 3c3d
000000f0: 096b d6bd 7fca 0fbe a9c8 40be 564b 8abd
00000100: a2bf 1f3c 2dc8 dbbd 1d56 8e3e 0453 45be
00000110: 6bcd a53e db0a ff3d 3996 0f3e 894b 85bd
00000120: d67b e9be 5acb a9be 2e9a 66bd accd 073e
00000130: 1168 353e 0913 1cbd 17da ee3d 19a8 bd3e
00000140: 0369 0cbf 2a4b 93bd 9bf5 6c3e a9b0 5cbd
00000150: ce30 0d3d 68ac 803e f545 043e 0480 263e
00000160: 0127 583e 2bf5 ba3d 17ba 963e 4731 0c3e
00000170: bedc e13e 1d74 123f a177 c03e 2c00 233e
00000180: b8e3 1bbc b80f f83d 346a 2ebc 759a 73be
00000190: 20ae 94bd ada9 8fbe 6b1c 133f bf17 62be
000001a0: 868c babe a062 2e3e 2e1b 27bd b4a9 2cbd
000001b0: b89f b03c 530f 043d 0546 85bd 2977 8c3e
000001c0: 1d57 8fbe 8b15 b33d 012c 8dbe 6560 57be
000001d0: 964f 4fbe c534 a73e a283 cb3e ecd4 093e
000001e0: b426 8bbd 42b7 73be 398c 7d3e 0ed3 53be
000001f0: effa 08be 2ca6 263e dc4b 803e 24ac 343d
00000200: a7c9 703d b681 c53d b7d7 193d 43ec 62be
00000210: 8409 81bb f8b6 583c bc51 e2bd e29c d03d
00000220: 26dc 23be b5a7 15be 20f8 263e d422 bcbe
00000230: 4a4e 8fbc 7a55 453f dfdd 84bd f001 0cbe
00000240: 15aa 1a3c 4d35 a3bd fbe9 a13e 0005 4dbe
00000250: 0c05 89be 4ac7 8a3c 9a1e 24be b7a6 bf3e
00000260: 6f4b 5a3c 550a a8bd 6b6a b63d 75b7 843d
00000270: 4d6a aabd 0e0f d3bd 2bba b0be 02d5 8cbe
00000280: 0de0 3dbe 050a 71be 28a7 953d 1e26 793e
00000290: ccb2 5f3a 5da4 243f c9b6 863e 8d2b a4bd
000002a0: 11a2 68be 5bb2 023e 6259 173f c4dd 953d
000002b0: 5aaa 753e a55d 833d 94e9 29be 2c3d a7bd
000002c0: e412 9cbe 5bc7 3d3c ee59 313f ad18 e7bd
000002d0: 2ccb fcbd 4020 98bd 047b d6be 3777 93bd
000002e0: 74bc 6b3d 4462 eb3d d7e8 d7bc ed2f 9bbe
000002f0: 0f6d c4bd de10 bbbd eeaa b3be 2a1c d6bc
00000300: 9f9e 053f 8bf9 853f 99cf efbe 1a37 ce3d
00000310: b6f2 d03d 6c3f 3c3e 871c c0be 2939 90bd
00000320: 45db e8bb d13a 763e 51b4 27bf ac83 8ebe
00000330: 5425 b9bd 69c6 c13d b873 8dbe 9a30 f5bd
00000340: e749 89be 529b c8bd 9aca d33d 2c52 7b3e
00000350: 27a4 48be 97d6 453e 287f 97be 7338 36bf
00000360: 3cf3 22be b29a 353d b66b f13d 1fdb 213d
00000370: 9817 12bf ac09 babe 34ad 0abf 48aa 2fbe
00000380: 347b a13a 403c 023d 3734 573e b220 d03d
00000390: 7cee 25bf 7dd4 cbbe 83ef 91be 14db 953a
000003a0: d2a5 923e 4856 5dbe 0ffe dcbe c3d6 2e3e
000003b0: 5c97 073f a89b d93d 444f 24bf bbeb 583c
000003c0: 4f62 98be 7a76 953d 8fab f8be 5b03 57bc
000003d0: 1445 753a d14d a2be 112c 643d 0af1 bcbe
000003e0: 4468 b9ba 9554 08be 0da4 56be 2b72 2b3d
000003f0: 7f99 3b3d 453b b4be 4539 14be 5ead 68be
-0.2389264 0.054393273 -0.11169349 0.04230326 -0.07882289 -0.004347988 0.09753503 -0.10902202
-0.06795096 -0.059632868 -0.017117605 -0.15819089 0.0054831593 -0.14391084 -0.009143452 0.05460274
-0.069964975 0.039426856 0.009300036 0.049378335 0.060896948 -0.003946552 -0.22286779 -0.18313293
0.038252197 0.048362635 -0.047424957 -0.14947642 0.016811175 -0.024279121 0.0330377 0.050832197
-0.027147228 -0.06471957 0.04459655 -0.13904431 -0.0063238693 -0.13235106 -0.059280697 -0.076017044
-0.110872395 -0.0021711618 -0.16088483 -0.11738176 0.06263816 0.008833035 0.003805065 -0.15059079
-0.07017733 -0.10653522 0.039448105 -0.15089253 -0.04238993 -0.13025181 -0.036417384 -0.0065285433
-0.03368085 -0.06887079 -0.01936976 0.04604131 -0.10469634 -0.1404209 -0.18826546 -0.067526504
0.009750279 -0.1073154 0.27800074 -0.19269949 0.32383284 0.124532424 0.14022149 -0.06508548
-0.45602292 -0.33162957 -0.05629938 0.13262051 0.1771548 -0.03810409 0.11662691 0.3704231
-0.54847735 -0.07192071 0.23140566 -0.053879414 0.034470372 0.25131536 0.12917311 0.16259772
0.21108629 0.09128793 0.2943885 0.13690673 0.44113725 0.57208425 0.3759127 0.15918034
-0.009514742 0.12112373 -0.010645438 -0.2378939 -0.07259774 -0.2805914 0.5746524 -0.22079371
-0.36435336 0.1702981 -0.040797405 -0.04215403 0.021560535 0.032241177 -0.06507496 0.27434662
-0.2799615 0.08744343 -0.27572635 -0.21032865 -0.20245203 0.32657447 0.39748865 0.1346013
-0.067944914 -0.23800376 0.24760522 -0.2068598 -0.13376974 0.16274327 0.25057876 0.04410948
0.05878606 0.09643881 0.037559237 -0.22160439 -0.003937902 0.013227217 -0.11050746 0.10186173
-0.16001949 -0.14614756 0.1630559 -0.36745322 -0.017493386 0.7708355 -0.06487631 -0.13672614
0.009439965 -0.07969151 0.31623825 -0.20021439 -0.26761663 0.016940732 -0.16027299 0.3743188
0.013323649 -0.08205096 0.08907016 0.06480304 -0.083210565 -0.10305606 -0.34517035 -0.27506262
-0.185425 -0.23538978 0.07307273 0.24330947 0.0008533418 0.643133 0.2631133 -0.08016119
-0.22718073 0.1276335 0.5912076 0.07317689 0.23990765 0.06414346 -0.16593009 -0.081659645
-0.30483162 0.011583175 0.69277847 -0.112840034 -0.123434395 -0.07428026 -0.41890728 -0.07200473
0.05755277 0.11493352 -0.026356144 -0.30310002 -0.09591114 -0.091340765 -0.35091347 -0.026136477
0.5219516 1.046678 -0.46838072 0.100691035 0.102025434 0.18383569 -0.37521765 -0.070421524
-0.007106217 0.24045874 -0.65509516 -0.27834833 -0.09040323 0.09461672 -0.2762735 -0.11972161
-0.26814196 -0.0979525 0.103413776 0.24543065 -0.19593869 0.19320141 -0.295892 -0.71179885
-0.15913099 0.044336982 0.11788122 0.03951561 -0.5706725 -0.36335504 -0.54170537 -0.17154801
0.0012320043 0.03179574 0.21016012 0.10162486 -0.64817023 -0.39810553 -0.28503045 0.0011433088
0.28642136 -0.21614945 -0.4316258 0.17074113 0.5296533 0.10625392 -0.6418345 0.013239796
-0.29762504 0.07297988 -0.4856839 -0.013123359 0.0009356302 -0.31699994 0.055706087 -0.36902648
-0.0014145453 -0.13313515 -0.20961018 0.041856926 0.045800682 -0.3520147 -0.14474972 -0.22722384

network.1.bias f4 [32]
00000000: 8e2f 07be 4a5e 313c 0a7f a53d c06a 1d3e
00000010: bb61 213e 2528 0d3d f417 443e 55dd 56be
00000020: 1259 1fbe f207 f3bd 666b a13d 4901 27bd
00000030: 8419 c6bd 90d5 9fbc 877a 9a3e b289 87be
00000040: b749 243e 33d5 d63c 2d4c 9a3d 7e40 e23c
00000050: 1398 d4bd b1cc 283c 561a 8c3d 507e b73c
00000060: 99f8 2fbe cc66 82bd 86ca dfbd bad8 b43c
00000070: 4eb0 58be 4604 8f3e a851 e6bd 2b30 f6bd
-0.13201734 0.010825703 0.080808714 0.15372753 0.15759937 0.034462113 0.19149762 -0.20982869
-0.15561321 -0.1186675 0.07881813 -0.04077271 -0.096728355 -0.019511014 0.30171606 -0.2647224
0.16043745 0.026224708 0.075340606 0.027618643 -0.10380568 0.0103027085 0.06840961 0.022399098
-0.17184676 -0.06367263 -0.109273 0.022076 -0.21161005 0.27932948 -0.112460434 -0.12020906

network.2.weight f4 [4, 32]
00000000: e47c 42bd add8 893e 9159 abbe 3533 39bf
00000010: dad5 8c3d c5f1 73be c038 25bf fd40 a03e
00000020: 5919 fdbd f66d 86bc d20f 64bf 782b e5bc
00000030: 2288 9dbd b7b8 f8bd 43f9 21bf 17ea 7e3f
00000040: 74b8 b33d a8f4 563e 4217 323e df7b 083e
00000050: 0353 4e3e 2dbf 5d3e 7009 ec3d 6f3d 7c3d
00000060: 2c17 ce3e 915a 20be 5d65 bcbd 29ab 96be
00000070: b361 3bbc 4910 ab3e 1506 953d 5a0a 63be
00000080: 742e e13c 083f 023e dadc c3bc 06e2 93bf
00000090: 67b1 4dc0 f597 02be e424 2cbf a277 3f3e
000000a0: 72f7 d4bc d420 263e ceed 76bf c15c b13d
000000b0: b7dd e4bd d7e8 97bd ead4 1bbf 986e 95bf
000000c0: 1245 c83c 2914 403e 999f 483e ea95 d53d
000000d0: 5e6a ba3c bbe6 203e e0d9 34bc 88c4 413d
000000e0: 00e4 8dbb f43e 12be 6ee3 b73d d263 a8be
000000f0: 79e4 7f3d cbfc 863d 79d1 8b3e 7828 15bf
00000100: 6933 81bc a3a3 d3be 20cc 3ebf bec2 dd3e
00000110: d470 273e b660 893e 3582 033d 2c7c c0be
00000120: a67e 1a3e d5f4 22be 6957 ac3e 2969 61bc
00000130: 546f e3bc 2f72 5d3c fbe2 e03e 27fe 9abe
00000140: f3a1 0ebf cc1b 2ebf e12e b9bf f00d c6be
00000150: 6ce6 753c b178 3d3e 7202 3a3d c6dc 6cbf
00000160: 4d00 d0be ec58 41be d33d 89bd 82c2 1d3f
00000170: 1adb 6abf 9b0f 8abf 299b 8fbe 111d f2be
00000180: a112 01bd 9927 eebe 014d fc3e 1def 88be
00000190: 3868 97bd a2b3 a7bc 13a1 ea3e 3098 fabe
000001a0: e1f8 dabd 518f a4be 2350 b63e d82a 4abd
000001b0: a84a 0c3e c385 ecbd c63e e03e 0672 f1be
000001c0: 2673 b9be 5bc2 d43d e887 643e c8ef 6abe
000001d0: 0991 17bf 49e8 56bf 96d4 9dbe 70ee b93e
000001e0: f7ce dbbc 9b94 68bd 307a 33be 4f45 a4be
000001f0: 1f00 8f3e 38c2 173e 5d7f 0abf 4bca c23e
-0.047482386 0.26923123 -0.3346677 -0.7234376 0.068767264 -0.23822697 -0.6453972 0.31299582
-0.1235835 -0.016409855 -0.8908664 -0.02797483 -0.07691981 -0.121446066 -0.6327097 0.9957594
0.08775416 0.20991766 0.17391685 0.13328503 0.20148854 0.21654959 0.115252376 0.061582025
0.40252054 -0.15659548 -0.09199021 -0.2942746 -0.0114368675 0.33410862 0.07276551 -0.22171918
0.02748797 0.12719357 -0.023909021 -1.1553352 -3.2139528 -0.1275328 -0.6724379 0.1869798
-0.025996897 0.1622346 -0.9645661 0.086602695 -0.11175101 -0.074174576 -0.60871756 -1.1674376
0.024446998 0.1875769 0.19592132 0.104289845 0.022755798 0.15713017 -0.011038274 0.047306567
-0.0043301582 -0.14281827 0.08978926 -0.32888657 0.062473748 0.06591185 0.27308252 -0.58264875
-0.015771585 -0.41335782 -0.7453022 0.4331264 0.16351634 0.26831597 0.032106597 -0.37594736
0.15087375 -0.15913709 0.3366044 -0.013757982 -0.027763046 0.013515993 0.43923172 -0.30272028
-0.55715865 -0.68011165 -1.4467431 -0.38682508 0.01500855 0.18503071 0.04541249 -0.92524374
-0.4062523 -0.18881577 -0.06701245 0.6162492 -0.9174057 -1.0786012 -0.28048065 -0.472878
-0.031511907 -0.46514586 0.492775 -0.2674493 -0.07392925 -0.020471398 0.45826015 -0.48944235
-0.10692001 -0.32140592 0.35608014 -0.049357265 0.13700354 -0.115489505 0.43797892 -0.47157305
-0.36220664 0.10388633 0.22317469 -0.22943032 -0.5920568 -0.8394819 -0.30826253 0.36314726
-0.026832087 -0.056782346 -0.1752708 -0.32084128 0.2792978 0.14820182 -0.5410059 0.38044962

network.2.bias f4 [4]
00000000: d3b5 8bbc 6500 00be f930 6b3e a1e1 36bd
-0.017054474 -0.1250015 0.229679 -0.04464877
